Results/SFResult4/best_model_weights.pt (torch, 421942 bytes, 6 tensors)

hidden_layers.0.weight f4 [115, 784]
0	0x3d24b30c	0.040209815
1	0xbbb49789	-0.0055112285
2	0x3c3dca62	0.011583896
3	0xbc1c13b6	-0.009526184
4	0x3d0ff757	0.03514799
5	0x3d056f47	0.032576825
6	0x3b2c9e50	0.0026339479
7	0xbc415692	-0.011800425
8	0xbc3ebd1a	-0.011641765
9	0x3cee73d2	0.029107962
10	0x3c89a249	0.016801016
11	0x3af51171	0.0018697215
12	0x3c048264	0.008087728
13	0x3d23f53e	0.040028803
14	0x3d09e8cc	0.033669278
15	0x3c3ef95a	0.01165613
16	0x3c08597f	0.008322119
17	0xbc87418e	-0.016510751
18	0x3d2eb2ff	0.042651173
19	0x3d253044	0.040329233
20	0x3c5aa491	0.0133449
21	0x3d28877e	0.04114484
22	0x3d1f9f24	0.038970128
23	0x3cf6776a	0.030086238
24	0xbcb72e6a	-0.022361
25	0x3c873c5b	0.016508272
26	0xbcbf1b60	-0.023328483
27	0xbcb457ba	-0.022014488
28	0x3b537486	0.0032265498
29	0x3c98b258	0.018639728
30	0xbc8cceec	-0.017188512
31	0x3c97229a	0.018449116
32	0x3d0947a7	0.0335156
33	0xbc9bd2f6	-0.019021492
34	0x3d17ec7a	0.037090756
35	0xbb998150	-0.0046846047
36	0xbc57d73d	-0.013173875
37	0xbcb59a80	-0.022168398
38	0x3ca90c5a	0.020635772
39	0xbbddb11e	-0.006765499
40	0xba739520	-0.0009291936
41	0x3d085560	0.033284545
42	0xbce72f88	-0.028220907
43	0xbbc8ec8a	-0.0061317133
44	0x3d19ad46	0.037518762
45	0x3b90d071	0.0044193794
46	0xbc983d66	-0.018583965
47	0x3c96b884	0.01839853
48	0x3baead43	0.005330713
49	0x3ccd0f9c	0.025031857
50	0xbc221192	-0.009891884
51	0xbc851308	-0.016244426
52	0xbc81c978	-0.015843138
53	0xbc11b532	-0.008893298
54	0xbbe6641e	-0.007030978
55	0xbc8fa69c	-0.0175355
56	0xbc962f32	-0.018333051
57	0x3c869810	0.01642993
58	0xbb934436	-0.0044942154
59	0x3c673f99	0.014114284
60	0x3be48768	0.0069741495
61	0xbcbd59c6	-0.023114096
62	0xbc075863	-0.008260819
63	0xbc7e7dbe	-0.015532909
64	0x3d1f86f0	0.038947046
65	0x3d0092fb	0.03139017
66	0xbcc0e090	-0.02354458
67	0x3d283ee0	0.041075587
68	0x3cdd3918	0.027004763
69	0xbc6c6eb1	-0.014430688
70	0x3bce1c16	0.006289969
71	0x3d1945cf	0.03742009
72	0x3cbbf7be	0.022945281
73	0x3a73b02e	0.0009295967
74	0x3cad40d6	0.02114908
75	0x3d00b909	0.031426463
76	0xbab43778	-0.0013749441
77	0xbb9df2a2	-0.004820184
78	0x3d032c6e	0.032024793
79	0xbca6504e	-0.020301964
80	0x3cb13dba	0.021635879
81	0x3bce3904	0.006293418
82	0x3c32f95a	0.010923708
83	0xbc14f2ec	-0.00909112
84	0x3c705007	0.0146675175
85	0x3cbb678a	0.02287652
86	0x3d2f30b2	0.04277105
87	0x3bf3118e	0.007417864
88	0xbbe0e01e	-0.0068626544
89	0xbce46c18	-0.027883574
90	0x3cb21dac	0.021742664
91	0x3cc6b714	0.02425722
92	0xbbb50ff7	-0.005525585
93	0x3ccdfd68	0.025145248
94	0x3cfa55d0	0.030558497
95	0x3d1ebf41	0.038756613
96	0x3c9e5274	0.019326426
97	0x3c4e9f3f	0.012611209
98	0x3cadfb68	0.021238044
99	0x3cb4916c	0.022041999
100	0xbc98c438	-0.018648252
101	0x3d16b1dd	0.036790717
102	0x3cf46b6a	0.029836375
103	0x3d077b43	0.033076536
104	0x3d180354	0.03711255
105	0xbc1c7dde	-0.009551493
106	0xbcbb3800	-0.022853851
107	0x3ce9cf8a	0.028541345
108	0xbc516c27	-0.012782133
109	0x3abba772	0.001431687
110	0x3cc4cbda	0.024022985
111	0x3be4275f	0.006962701
112	0xbb5e3b6a	-0.0033909925
113	0xbc6037ac	-0.013685148
114	0x3c914100	0.01773119
115	0x3a2d0e4a	0.00066015555
116	0xbc88fed0	-0.016723067
117	0x3cc4db0c	0.024030231
118	0xbb21da43	-0.0024696745
119	0x3cdf96ec	0.027293645
120	0x3d02a890	0.031899035
121	0xbc982fdd	-0.01857751
122	0x3ca5ee58	0.020255253
123	0x38a6c868	7.9528254e-05
124	0xbcbc197c	-0.02296137
125	0x3c3f39de	0.011671511
126	0xbcac81f6	-0.021058064
127	0xbc7d589f	-0.015463023
128	0xbb75eabc	-0.0037523946
129	0x3d22482a	0.039619602
130	0x3d00542b	0.03133027
131	0x3b0a3ec3	0.0021094538
132	0x3cd02c94	0.025411882
133	0x3cc33a48	0.023831502
134	0xbc9b9a9c	-0.018994622
135	0x3cbebe1c	0.02328401
136	0xbc9cffae	-0.019164886
137	0x3c8cb5ec	0.01717659
138	0xbca66074	-0.020309664
139	0xbc907420	-0.017633498
140	0x3d0b0335	0.033938605
141	0x3cd8d9f6	0.02647112
142	0xb98c064f	-0.0002670758
143	0x3b8f7c9f	0.0043788697
144	0x3d09766e	0.03356021
145	0xbc425afa	-0.011862511
146	0xbb718f8d	-0.0036859245
147	0x3cc29506	0.0237527
148	0xbcc67a6c	-0.024228297
149	0x3ce285c5	0.027651677
150	0x3cb94fff	0.022621153
151	0xbcdc33eb	-0.026880225
152	0xbcb7cf2b	-0.022437653
153	0xbcf41297	-0.02979402
154	0xbcda89d9	-0.026677059
155	0xbbc84fef	-0.0061130445
156	0x3cc2c80b	0.023777029
157	0x3c88229b	0.016618064
158	0x3cebcab3	0.028783178
159	0x3bcb1444	0.006197484
160	0x3ca2b4aa	0.019861538
161	0x3bcf177d	0.0063199387
162	0xbcb5ef2e	-0.022208776
163	0x3d06bcf5	0.032895047
164	0x3d1cad48	0.03825119
165	0xbc8e1516	-0.017344039
166	0x3cf44188	0.029816404
167	0xbc981336	-0.018563848
168	0xbbcc775c	-0.0062398147
169	0xbcd742fe	-0.026277062
170	0x3c9b0498	0.018923089
171	0xbc585a67	-0.013205147
172	0x3cb7dacc	0.022443198
173	0xbcb0f137	-0.021599395
174	0x3bb62cdd	0.0055595473
175	0xbc086cf4	-0.008326758
176	0xbc04c447	-0.008103437
177	0x3cfa679c	0.030566983
178	0xbc64fdbe	-0.0139765125
179	0xbc18c439	-0.009324127
180	0xbd036315	-0.032076914
181	0xbd294adb	-0.041331153
182	0x3cda397e	0.026638743
183	0xbcfebdf3	-0.031096434
184	0xbc6b56ff	-0.014364003
185	0xbcfb2519	-0.030657338
186	0x3cb9989a	0.022655774
187	0xbd06fe9a	-0.03295765
188	0xbcb5d537	-0.022196395
189	0xbc54904a	-0.012973854
190	0xbc518779	-0.012788647
191	0xbc9441c7	-0.018097771
192	0x3d09bb25	0.03362574
193	0xbb4c1ffb	-0.0031146992
194	0xbb4e227b	-0.0031453657
195	0x3ccccd58	0.02500026
196	0x3c141496	0.009038111
197	0x3cabc190	0.020966321
198	0xbb440353	-0.0029909208
199	0x3cb82c52	0.022482071
200	0xbcb88c11	-0.022527726
201	0x3cedcc12	0.029027972
202	0x3d1b18a7	0.037865307
203	0x3c9893ca	0.018625159
204	0xbd21fbef	-0.039546903
205	0x3ccc14a3	0.024912184
206	0x3c75b728	0.014997281
207	0x3c8585d8	0.016299173
208	0xbcbfdc32	-0.023420427
209	0xbd126697	-0.03574237
210	0x3cdde302	0.027085785
211	0x3b381ba8	0.0028092656
212	0x3c99f2e2	0.018792573
213	0xba9c5d46	-0.0011929653
214	0xba756b27	-0.0009361975
215	0x3cfbe3dd	0.030748302
216	0xbc3f3986	-0.0116714295
217	0xbcd91e7e	-0.026503798
218	0xbc861f1f	-0.016372262
219	0xbbae2b3d	-0.005315213
220	0x3c82a5d1	0.015948208
221	0x3bffc04e	0.007804907
222	0x3d085cd1	0.03329164
223	0x3cc7bc66	0.024381828
224	0x3cd2fb8c	0.025754713
225	0xbc96734c	-0.018365525
226	0xbcb624c4	-0.022234328
227	0x3d26ace7	0.040692236
228	0xbcab2651	-0.020892294
229	0x3c770ea3	0.015079173
230	0x3cd1b71f	0.025600014
231	0xbb624821	-0.0034527855
232	0xbcc149b0	-0.023594707
233	0x3cbb114d	0.022835398
234	0x3d03f53a	0.03221629
235	0x3cc6ff3e	0.02429163
236	0xbcc3bfa0	-0.023895085
237	0xbcc06107	-0.023483766
238	0xbaa7e5d7	-0.0012809586
239	0xb941514b	-0.00018436198
240	0x3cb3b41f	0.021936474
241	0xbd1bfd39	-0.03808329
242	0x3c8d0529	0.017214375
243	0xbc83915a	-0.01606052
244	0xba6815e1	-0.0008853358
245	0x3cd2c8d9	0.025730537
246	0x3cc93500	0.024561405
247	0x3cf10369	0.029420571
248	0xbcc1c290	-0.023652345
249	0x3cf34d72	0.029700015
250	0x3d2ed6e9	0.042685423
251	0x3d0c435b	0.034243923
252	0xbcb0a300	-0.0215621
253	0x3ce55202	0.027993206
254	0xbca42e04	-0.020041473
255	0x3cf8ddd6	0.030379217

hidden_layers.0.bias f4 [115]
0	0xbc61c051	-0.013778762
1	0xbd0bb4e8	-0.034108073
2	0xbc68e283	-0.014214161
3	0x3ccf1a45	0.025281081
4	0xbcc84ddf	-0.024451194
5	0x3cf363d6	0.029710691
6	0x3c0fe3d5	0.008782347
7	0x3c1a2006	0.009407049
8	0xbc2141e8	-0.009842373
9	0xbcee6e7e	-0.029105421
10	0x3d0c28aa	0.034218468
11	0x3bfe02e5	0.00775181
12	0xbc82b80f	-0.015956907
13	0x3b612c1b	0.0034358564
14	0xbc2630a5	-0.010143434
15	0x3b51e259	0.0032025783
16	0xbd1a6720	-0.037696004
17	0xbc4bcabb	-0.012438471
18	0x3cd57212	0.02605537
19	0xbc2056b3	-0.009786296
20	0xbbe25597	-0.0069071758
21	0xbc18c2a7	-0.0093237525
22	0xbbef6ec6	-0.0073069064
23	0xbcd2bbd9	-0.025724338
24	0xbcbe50ed	-0.023231948
25	0xbccf9d71	-0.025343629
26	0xb897aceb	-7.2324496e-05
27	0xbc95884d	-0.01825347
28	0xbc1a567f	-0.009420036
29	0x3ca60f29	0.0202709
30	0xbc5cd10a	-0.013477573
31	0x3d0bb20e	0.034105353
32	0x3b96731a	0.004591358
33	0xbd14c397	-0.03631934
34	0xbcba52c1	-0.022744538
35	0xbb519fc8	-0.0031986106
36	0x3aee03eb	0.0018159127
37	0xbd2a38cf	-0.041558083
38	0xbb41338e	-0.0029480192
39	0x3c79b412	0.015240686
40	0x3c4560c3	0.012046996
41	0xbc09f6b1	-0.008420632
42	0x3cf0bbfa	0.02938651
43	0xbb9b4972	-0.00473898
44	0xbd0d2733	-0.03446121
45	0x37a8a660	2.0104635e-05
46	0xbcf2121c	-0.02954965
47	0x3d11d9e1	0.035608176
48	0xbd2e500e	-0.042556815
49	0xbcdc53c6	-0.026895415
50	0x3ce0ae93	0.027426993
51	0xba750131	-0.0009346186
52	0x3c60515f	0.013691275
53	0x3cf50a02	0.029911999
54	0xbd13c62e	-0.03607767
55	0x3cf207b9	0.029544698
56	0xbc125aea	-0.008932808
57	0xbc293953	-0.010328609
58	0xbc65a1e0	-0.014015645
59	0xbc8defdc	-0.017326288
60	0x3b8cf883	0.004302086
61	0x3cdd57bc	0.027019374
62	0x3cae438c	0.021272443
63	0x3cd2b787	0.025722278
64	0xbcc66f22	-0.024222914
65	0xbac65599	-0.0015131711
66	0xbc8941f7	-0.016755087
67	0x3cdccdfa	0.026953686
68	0xbd247623	-0.040151726
69	0xbc4d447a	-0.012528533
70	0x3d1df849	0.03856686
71	0x3cef4101	0.029205801
72	0x3b935e83	0.0044973507
73	0xbce70c95	-0.028204242
74	0xbc6aaaba	-0.014322931
75	0x3c9a747c	0.018854372
76	0xbc8df166	-0.017327022
77	0x3cb25bd7	0.021772308
78	0xbc9eee37	-0.019400699
79	0x3c3ec60c	0.011643898
80	0x3ce2710b	0.027641794
81	0xbcb35a5c	-0.021893673
82	0xbba54f0d	-0.005044824
83	0x3c6dd6bb	0.014516528
84	0xbbe82178	-0.007084068
85	0xbd0ee1d4	-0.034883335
86	0xbc5dd1b2	-0.013538765
87	0x3c845098	0.016151711
88	0xbc153008	-0.00910569
89	0xbc3671cc	-0.01113553
90	0x3d0ea9a5	0.034829754
91	0xbcccdf7a	-0.025008906
92	0x3caabf2c	0.020843111
93	0xbac25641	-0.0014826731
94	0x3b91f229	0.0044539166
95	0x3d00ae3c	0.031416163
96	0xbcfb906b	-0.030708512
97	0x3c918d31	0.01776752
98	0xbd005630	-0.031332195
99	0x3c55658c	0.013024699
100	0x3c86e80a	0.016468067
101	0xbc867bdf	-0.016416488
102	0xbc5f4093	-0.013626236
103	0xbd06ad03	-0.03287984
104	0x3c55a8b0	0.0130407065
105	0xbab162fd	-0.0013533529
106	0xbc95b9f8	-0.018277153
107	0x3ca312de	0.019906458
108	0x3c84c6df	0.01620811
109	0x3c9cd9df	0.019146858
110	0xbd2ab9bd	-0.04168104
111	0xbd1e0e3a	-0.038587786
112	0xbcaae985	-0.020863304
113	0x3c1f3483	0.00971711
114	0x3b2af04a	0.0026083165

hidden_layers.3.weight f4 [115, 115]
0	0xbda1f582	-0.07908155
1	0xbda78e54	-0.08181444
2	0xbd88b1e9	-0.06674559
3	0x3bb89a3a	0.0056336196
4	0x3d652f5d	0.055953372
5	0x3cc556ab	0.024089178
6	0xbd18a2ca	-0.037264623
7	0x3d105909	0.03524116
8	0xbe05d76c	-0.13070458
9	0xbb20e283	-0.0024549074
10	0xbba1387f	-0.004920065
11	0x3d7d5e3d	0.06185745
12	0x3d3b56ef	0.045737203
13	0xbddf81a1	-0.109133966
14	0x3bbecbc4	0.0058226306
15	0x3d084028	0.03326431
16	0x3d8eda31	0.069752105
17	0xbdb2a80d	-0.087234594
18	0xbd26d868	-0.040733725
19	0x3d0e9a1a	0.03481493
20	0x3e08fc2a	0.13377443
21	0x3d26e844	0.04074885
22	0x3d397e13	0.04528625
23	0x3b4ecc4c	0.0031554876
24	0x3d8a6692	0.06757845
25	0x3dbba3da	0.091621116
26	0x3d392c9c	0.04520856
27	0x3d40612e	0.046967678
28	0xbe48e82b	-0.19619815
29	0x3df62508	0.12018782
30	0xbdb30f9b	-0.08743211
31	0x3d73831d	0.05945121
32	0x3da46efa	0.080289796
33	0x3c971ce6	0.018446397
34	0x3cbbb6b5	0.02291427
35	0xbdd5f9b1	-0.104480155
36	0xbdd766ae	-0.105176315
37	0x3c37c6d6	0.01121684
38	0x3d8189d5	0.063251175
39	0xbc01125e	-0.007877914
40	0x3da22cc2	0.07918693
41	0xbd9be7b2	-0.07612552
42	0xbdc7af3f	-0.097502224
43	0x3d99b96e	0.07506071
44	0xbd4a327e	-0.04936456
45	0xba28a73f	-0.0006433613
46	0x3d8f360c	0.069927305
47	0xbde96604	-0.11396411
48	0xbdb93bbc	-0.090445966
49	0xbd11cf7b	-0.03559826
50	0xbdc42644	-0.09577611
51	0x3d255608	0.04036525
52	0x3b7c30da	0.0038481266
53	0xbd1b2092	-0.03787286
54	0xbda4de0d	-0.08050165
55	0x3d5bffb6	0.05371066
56	0x3c2c0fa0	0.010501772
57	0x3cb28bc0	0.021795154
58	0xbd2dfb09	-0.042475734
59	0xbd5c862e	-0.0538389
60	0x3d4d7eb9	0.05016968
61	0xbde287f4	-0.11061087
62	0xbd6fae12	-0.058515616
63	0xbdf523ba	-0.11969705
64	0xbd31ad43	-0.043378126
65	0x3d2d4892	0.042305537
66	0xbb171a29	-0.0023056364
67	0xbd824e80	-0.06362629
68	0x3d7d2556	0.061803184
69	0x3cea1220	0.028573096
70	0xbdad7772	-0.08470048
71	0xbcc8fe97	-0.02453546
72	0xbd026e57	-0.03184351
73	0x3d83fb7b	0.064444505
74	0xbcb84391	-0.022493156
75	0x3dbeb645	0.09312109
76	0xbcbf082a	-0.023319323
77	0xbd425331	-0.04744262
78	0x3d8828ee	0.06648432
79	0x3d1a15f2	0.037618585
80	0xbda3d669	-0.0799988
81	0x3cf23938	0.0295683
82	0xbda6aa0b	-0.08137902
83	0x3d971f98	0.07379073
84	0x3b9c6785	0.0047730827
85	0xbc8924e8	-0.016741231
86	0xbdcfdfad	-0.10150085
87	0xbe2ecf74	-0.17071325
88	0x3d4412fa	0.04786966
89	0x3c067291	0.008206026
90	0x3c39198f	0.011297598
91	0x3d0d51ef	0.034501966
92	0x3da7aeff	0.08187675
93	0xbc947b7b	-0.018125286
94	0x3ca2a108	0.019852176
95	0xbcf2a0fc	-0.029617779
96	0x3da9da86	0.08293633
97	0xbd51d7c5	-0.051231164
98	0xbd36f25e	-0.044664733
99	0x3cf860c1	0.030319573
100	0xbd5cfedf	-0.053954
101	0xbdaf67d3	-0.08564725
102	0xbcb667ed	-0.022266353
103	0x3d3111ce	0.04322987
104	0xbc724a0f	-0.014788165
105	0x3d047c82	0.032345302
106	0xbc5e69e8	-0.013575055
107	0xba896aca	-0.0010484096
108	0xbc2cfab3	-0.010557818
109	0x3bf487a2	0.0074624578
110	0xbd036234	-0.032076076
111	0xbe094a2c	-0.134072
112	0x3d59cc52	0.05317337
113	0xbbf197eb	-0.0073728464
114	0x3d595cdd	0.053067077
115	0x3c450b74	0.012026656
116	0xbdc5aaf2	-0.09651746
117	0x3d4996b5	0.04921599
118	0xbc089613	-0.008336562
119	0x3d900230	0.07031667
120	0xbd9ba6be	-0.07600163
121	0xbdba7e0e	-0.09106074
122	0xbcfb2904	-0.030659206
123	0xbd053869	-0.0325245
124	0x3dd0c966	0.10194664
125	0x3cbb35ac	0.022852741
126	0xbd5edf81	-0.05441237
127	0x3d95c291	0.07312501
128	0xbd2e2ea4	-0.04252495
129	0x3d515382	0.05110503
130	0x3cf7a720	0.030231059
131	0xbcec1a6a	-0.028821189
132	0xbdd5c317	-0.10437601
133	0xbd0216b5	-0.031759936
134	0x3da3e1ac	0.08002028
135	0x3c02a469	0.007973769
136	0xbdb63719	-0.08897228
137	0xbe02c56b	-0.12770621
138	0x3dad9124	0.08474949
139	0x3d306018	0.043060392
140	0x3d2e542a	0.042560734
141	0xbd97e6c8	-0.07417065
142	0xbca83232	-0.020531747
143	0x3b0bf470	0.0021355413
144	0x3e3c9520	0.18416262
145	0xbbfea37c	-0.0077709537
146	0xbd8de011	-0.06927503
147	0x3d147bff	0.036251064
148	0xbd99f858	-0.07518071
149	0x3db73a62	0.089466825
150	0xbd5eadf4	-0.054365113
151	0x3d8d1308	0.068883955
152	0x3d34fb76	0.044185124
153	0x3bebe90e	0.007199413
154	0x3d063542	0.032765634
155	0x3c7f727c	0.01559126
156	0xbbff643b	-0.007793931
157	0x3b91a53d	0.0044447468
158	0xbb1b591a	-0.0023704232
159	0x3d5f4321	0.05450738
160	0x3d359b72	0.044337697
161	0x3dd6cbdf	0.10488104
162	0x3d57ffbb	0.052734118
163	0xbd9bf26e	-0.07614599
164	0x3e04f322	0.12983373
165	0x3dcd4ab3	0.10024013
166	0xbd28bc0b	-0.041194957
167	0x3cc92990	0.024555951
168	0xbd833fdb	-0.06408664
169	0x3d48217f	0.04886007
170	0x3d2120e2	0.039338
171	0xbda3f0b6	-0.08004896
172	0xbd655dc2	-0.055997618
173	0x3d14f6f2	0.036368318
174	0x3d48672b	0.048926514
175	0x3d2a86b1	0.041632358
176	0xbc4616e9	-0.012090423
177	0x3da7fbe3	0.082023405
178	0xbdc81b33	-0.09770813
179	0xbd5ef0a0	-0.054428697
180	0xbdbb89ff	-0.0915718
181	0xbd7900b9	-0.060791705
182	0xbd78bfcb	-0.060729783
183	0xbb9dba18	-0.004813444
184	0x3d991aa4	0.074757844
185	0x3c979777	0.018504841
186	0xbd875e9b	-0.066098414
187	0xbdb23139	-0.08700795
188	0xbd1c6190	-0.03817898
189	0xbda59f79	-0.080870576
190	0x3d84912c	0.06473002
191	0x3d2a5e8c	0.041594073
192	0xbd6394d7	-0.055561867
193	0x3d76afc1	0.060226206
194	0xbd5ce8fb	-0.053933125
195	0x3d297a9b	0.04137669
196	0x3c61e78e	0.013788117
197	0xbc845cc0	-0.016157508
198	0x3c44c91c	0.012010839
199	0x3ca67163	0.020317739
200	0x3d23f7cb	0.040031236
201	0xbcb06acf	-0.021535305
202	0x3d5b579f	0.05355036
203	0xbd9a4875	-0.07533351
204	0xbcccd052	-0.025001679
205	0x3c71d748	0.0147608
206	0xbd694df8	-0.056959122
207	0xbd1d9c31	-0.038479034
208	0xbbddb6af	-0.0067661623
209	0x3d8d6983	0.069048904
210	0xbb3060db	-0.00269132
211	0x3d767d25	0.06017794
212	0x3d88cdb0	0.06679857
213	0xba942adf	-0.001130428
214	0xbc0d5cb2	-0.008628057
215	0xbda55cae	-0.08074318
216	0x3df813d8	0.1211316
217	0xbdbb4f94	-0.09146038
218	0xbdae640d	-0.08515177
219	0x3d8fa20b	0.07013329
220	0xbdbcdf36	-0.092222616
221	0xbd9fc3d2	-0.07801022
222	0x3d522f63	0.051314723
223	0x3d54d0b2	0.05195684
224	0xbc8381b9	-0.016053068
225	0x3dae5e7a	0.08514114
226	0xbc055177	-0.0081370985
227	0xbdbfeb96	-0.09371106
228	0xbdaa75dc	-0.08323261
229	0x3d16967e	0.036764614
230	0x3d9be78a	0.07612522
231	0xb8832bd5	-6.254731e-05
232	0xbd4cb73e	-0.04997944
233	0x3d2a04dc	0.04150854
234	0xbcbdac93	-0.023153579
235	0xbd55c89d	-0.052193273
236	0x3d7be5f8	0.061498612
237	0xbd8b050f	-0.06788074
238	0xbc613014	-0.013744373
239	0xbcac171f	-0.021007119
240	0x3e09b4a4	0.13447815
241	0xbca18e0c	-0.019721054
242	0xbb4dc0ce	-0.0031395438
243	0xbbafc6a5	-0.0053642564
244	0x3d98a6e6	0.07453708
245	0xbcbb6cce	-0.02287903
246	0xbd72595d	-0.059167255
247	0x3d2c78d7	0.04210743
248	0x3b71d61a	0.0036901296
249	0xbd100da6	-0.035169266
250	0x3e1cba52	0.1530545
251	0x3e0632ec	0.13105363
252	0xbd607486	-0.054798625
253	0x3cfd24e1	0.030901374
254	0x3d2dc4bb	0.042423945
255	0x3d9b47ad	0.075820304

hidden_layers.3.bias f4 [115]
0	0xbd1c7779	-0.038199876
1	0xbce17d66	-0.027525615
2	0x3c19571b	0.0093591465
3	0x3d52eb13	0.051493715
4	0x3cd0ce27	0.025488926
5	0xbd324ac5	-0.043528337
6	0xb98f8275	-0.00027372284
7	0x3c5b357f	0.013379454
8	0xbd949c47	-0.0725637
9	0xbd73943c	-0.05946754
10	0xbd91afdd	-0.071136214
11	0x3d5f4203	0.054506313
12	0xbc6ce75e	-0.014459459
13	0x3e009edd	0.12560602
14	0xbd99c4ed	-0.07508264
15	0xbbc15160	-0.0058995932
16	0xbd4e72b1	-0.050402347
17	0x3cbefa33	0.023312664
18	0x3d27b4f6	0.040944062
19	0xbc8991a1	-0.016793074
20	0x3d8d04bb	0.06885668
21	0xbd7148d5	-0.05890735
22	0x3d8bdadd	0.06828854
23	0x3d73e99f	0.05954897
24	0xbdb465e9	-0.088085
25	0xbd39d5fa	-0.04537008
26	0x3daeb462	0.08530499
27	0x3dd2db84	0.102957755
28	0xbc76eed6	-0.015071591
29	0xbd0ebc4b	-0.03484754
30	0x3c4e9da0	0.012610823
31	0x3d7fe78d	0.062476683
32	0x3d81de72	0.06341256
33	0x3ce14dd1	0.027502926
34	0x3c3cb37a	0.0115174
35	0x3db1b41b	0.086769305
36	0x3c943d43	0.018095618
37	0x3d2962ca	0.04135398
38	0x398e6edd	0.0002716695
39	0xbda6d862	-0.081467405
40	0x3db5eb02	0.08882715
41	0xbdae15e2	-0.085002676
42	0xbd422b89	-0.0474048
43	0xbd195c8e	-0.037441783
44	0xbda891e7	-0.08230954
45	0xbd25154f	-0.040303525
46	0x3d78b11a	0.060715772
47	0xbd1f5b17	-0.03890523
48	0x3ca5f85b	0.020260027
49	0x3dbed5cc	0.09318122
50	0xbd8986e8	-0.067151845
51	0xbca6446c	-0.020296298
52	0xbcb51f44	-0.022109635
53	0x3d2c7cc7	0.042111184
54	0xbc2e065c	-0.010621633
55	0x3d7793ec	0.060443804
56	0xbd5545be	-0.052068464
57	0x3d66cfbb	0.05635045
58	0xbb47a526	-0.0030463426
59	0x3d1d05d6	0.038335644
60	0x3d56ab3d	0.0524094
61	0x3b51c598	0.0032008644
62	0xbcaf0d41	-0.021368625
63	0xbdacd669	-0.08439333
64	0xbd05dfc0	-0.032684088
65	0x3d9668bd	0.07344196
66	0xbd6a9791	-0.05727345
67	0xbd1081ab	-0.03527991
68	0x3d03be2a	0.032163776
69	0xbdaf83ec	-0.08570084
70	0x3d65c801	0.05609894
71	0xbd17543f	-0.036945578
72	0x3bd6f8e4	0.006560432
73	0xbcae58e4	-0.02128262
74	0x3cc5279d	0.02406674
75	0xbd8488d5	-0.06471411
76	0x3dd91f9d	0.10601733
77	0x3bfcfacd	0.0077203275
78	0xbc62f2aa	-0.013851801
79	0x3dac997b	0.084277116
80	0x3d18598a	0.037194766
81	0xbcc519dc	-0.024060182
82	0xbd6973dc	-0.056995258
83	0x3cea754f	0.02862039
84	0xbce7b87a	-0.028286207
85	0x3cd4120d	0.025887514
86	0x3d1645c0	0.036687613
87	0xbdb7b678	-0.0897035
88	0xbcf037b0	-0.029323429
89	0x3acd4705	0.0015661424
90	0x3db45d2f	0.08806836
91	0x3d8fd511	0.07023061
92	0x3d17901f	0.03700268
93	0x3da41b77	0.08013051
94	0xbaaead10	-0.0013326723
95	0x380f99cc	3.423709e-05
96	0x3da0a101	0.07843209
97	0x3dab404f	0.08361875
98	0xbd1c7959	-0.038201664
99	0x3cce1cca	0.025160212
100	0xbca69a4b	-0.020337244
101	0xbca9c292	-0.020722661
102	0x3cd91ef7	0.026504023
103	0xbd156334	-0.03647156
104	0x3e02d8c4	0.12778002
105	0x3c7e268d	0.015512121
106	0xbb0bea68	-0.0021349434
107	0x3cf450e8	0.029823735
108	0xbd41ac18	-0.047283262
109	0x3d12fcf3	0.035885762
110	0xbd8c293c	-0.06843802
111	0xbd814c9f	-0.063134424
112	0x3cc27bd9	0.023740696
113	0xbd14827e	-0.03625726
114	0x3d27b324	0.040942326

output_layer.weight f4 [10, 115]
0	0xbd8e3699	-0.069440074
1	0xbd7b2576	-0.061315022
2	0x3dfd7446	0.12375693
3	0x3cac4005	0.02102662
4	0x3d8de67a	0.069287255
5	0x3d0512cd	0.032488633
6	0x3dfb12f3	0.12259474
7	0xbcd23905	-0.025661955
8	0x3c916a41	0.017750861
9	0xbe1344b2	-0.14381674
10	0xbd7c77de	-0.06163775
11	0x3ca18029	0.019714432
12	0x3dc39404	0.09549716
13	0xbcac8b9d	-0.021062667
14	0xbe330a56	-0.17484412
15	0xbe428da1	-0.1899934
16	0xbd15db52	-0.036586113
17	0xbdd7bdc1	-0.105342396
18	0xbe1ab4ea	-0.15108076
19	0xbe03eaf8	-0.12882602
20	0x3dd76a30	0.105183005
21	0xbd8fbdd8	-0.07018632
22	0xbd0b9a8b	-0.03408293
23	0xbccbb922	-0.024868552
24	0x3dd838ba	0.10557695
25	0x3d27f124	0.041001454
26	0xbd566d18	-0.052350134
27	0xbe0856b4	-0.13314325
28	0xbe1bb843	-0.15207009
29	0xbe0a586e	-0.13510296
30	0x3dbf8216	0.09350984
31	0xbe14afd9	-0.14520206
32	0xbe0bd666	-0.13656005
33	0xbe5b08ed	-0.21390124
34	0xbe1b73dc	-0.15180916
35	0xbd3bc476	-0.045841657
36	0x3d2bee5f	0.041975375
37	0xbe0b2630	-0.13588786
38	0x3cfa91cd	0.030587101
39	0xbe012a0a	-0.12613693
40	0xbe4bf6a3	-0.19918303
41	0x3da19161	0.07889057
42	0xbe21820b	-0.15772264
43	0xbdeb201c	-0.11480734
44	0x3cac512c	0.0210348
45	0xbd84110e	-0.064485654
46	0xbd308a88	-0.043100864
47	0x3d7df16c	0.061997816
48	0xbdb3d41a	-0.087806895
49	0x3d7dcd83	0.06196357
50	0xbdb65259	-0.08902425
51	0x3db59198	0.088656604
52	0x3b2563fd	0.00252366
53	0xbe45d10b	-0.19318025
54	0x3ca9faa6	0.020749401
55	0x3da18f05	0.07888607
56	0x3cea50cf	0.028602986
57	0x3cb73219	0.022362756
58	0x3dbd0128	0.09228736
59	0xbe15f82a	-0.14645448
60	0x3d76b19c	0.060227975
61	0xbdb7bf5f	-0.08972048
62	0xbc89c7cf	-0.016818909
63	0xbd9081eb	-0.0705603
64	0xbc164f5f	-0.009174197
65	0xbcd63a18	-0.026150748
66	0xbd5912db	-0.052996498
67	0xbd9fa0c9	-0.07794339
68	0xbdc88920	-0.097917795
69	0x3d8be753	0.06831231
70	0x3e1f1291	0.15534426
71	0xbd7dd4ff	-0.061970707
72	0xbc291f88	-0.010322459
73	0x3e012458	0.1261152
74	0xbcd9791b	-0.026547005
75	0xbc9f8bab	-0.019475779
76	0xbdc81042	-0.09768726
77	0xbc4c7667	-0.012479401
78	0xbdf4b5b0	-0.11948717
79	0xbe1278c1	-0.14303876
80	0xbd282cb8	-0.041058272
81	0x3b76a839	0.003763689
82	0xbe0779e5	-0.13230093
83	0x3d0766fb	0.033057194
84	0x3de51795	0.111861385
85	0xbe23e633	-0.16005783
86	0xbe19ba41	-0.15012456
87	0x3d2916e4	0.041281596
88	0x3d2c201f	0.04202282
89	0x3d384f7b	0.044997673
90	0x3d487a92	0.048945017
91	0x3d55a907	0.05216315
92	0xbe255e89	-0.16149344
93	0x3d9e4eab	0.077298485
94	0xbbbba99e	-0.005727007
95	0x3dad0f0e	0.08450137
96	0xbde168af	-0.11006295
97	0xbe0bb296	-0.13642344
98	0x3c1804c0	0.009278476
99	0x3d0123b4	0.03152819
100	0xbe3c4500	-0.18385696
101	0x3d3524b3	0.044224452
102	0xbd7dc30b	-0.061953586
103	0x3e35104d	0.17682
104	0xbe3b10a3	-0.18268065
105	0x3dde6ba9	0.10860378
106	0x3d0b5b28	0.03402248
107	0xbda790c3	-0.08181908
108	0x3cffa57f	0.031206844
109	0x3d899d4b	0.067194544
110	0xbdd33705	-0.103132285
111	0x3e095fe8	0.13415492
112	0xbdeb9fa7	-0.11505061
113	0xbdc9cb5a	-0.09853239
114	0x3c8d4360	0.017244041
115	0xbe10bc14	-0.14134246
116	0xbd7e5002	-0.06208802
117	0x3cedabbc	0.029012553
118	0x3bfd8ab2	0.007737481
119	0xbdd04a0c	-0.10170373
120	0x3d8723c9	0.06598622
121	0xbe16ae37	-0.14714895
122	0x3ddf14f4	0.10892668
123	0xbd8a893a	-0.06764455
124	0x3de951df	0.11392569
125	0x3d49bc34	0.04925175
126	0x3d0e5bed	0.034755636
127	0xbe21f84b	-0.15817373
128	0x3d721336	0.059100352
129	0x3df17035	0.1178898
130	0xbd86ee16	-0.0658838
131	0x3cd386f2	0.025821183
132	0xbda1b326	-0.07895498
133	0xbcbe7d9c	-0.023253255
134	0x3d06108c	0.032730624
135	0xbe16c9a2	-0.14725354
136	0xbc26db25	-0.010184084
137	0x3cd2d1c2	0.025734786
138	0x3b8defe6	0.0043315766
139	0xbe0f46f4	-0.1399191
140	0x3dd008cc	0.10157928
141	0xbe38d886	-0.18051347
142	0x3e0c278a	0.13686958
143	0x3d7b7c2c	0.061397716
144	0x3d78f446	0.060779832
145	0xbd95629a	-0.072941974
146	0x3d51810a	0.051148452
147	0xbc269af1	-0.010168777
148	0xbd3a2499	-0.04544506
149	0x3e05863b	0.13039486
150	0xbdb7b7da	-0.08970614
151	0xbd3ca37c	-0.04605435
152	0x3c89d2dc	0.016824178
153	0x3e1c185b	0.15243666
154	0xbd5f24f7	-0.05447861
155	0x3d905373	0.07047167
156	0x3da9d95e	0.082934126
157	0x3deabcae	0.11461769
158	0xbd3f8390	-0.046756327
159	0xbdf65c2b	-0.120292984
160	0x3c940a0f	0.018071203
161	0x3b087cf0	0.0020826422
162	0xbdab7641	-0.083721645
163	0x3e129c6e	0.14317486
164	0xbcc45b07	-0.023969186
165	0xbe17943c	-0.1480264
166	0xbd87ea97	-0.06636541
167	0x3db149b1	0.08656634
168	0x3d7630f0	0.060105264
169	0x3aefaad3	0.0018285163
170	0xbd52af6a	-0.05143682
171	0xbdd770e6	-0.105195805
172	0xbdc74634	-0.09730187
173	0xbdb4f581	-0.08835889
174	0x3da53821	0.08067346
175	0xbde47335	-0.111547865
176	0x3dc7840f	0.09741985
177	0xbe0f7a45	-0.14011486
178	0xbe099c54	-0.1343854
179	0xbdc6440f	-0.0968095
180	0xbdfc9bdb	-0.123344146
181	0x3e1a6aa2	0.1507974
182	0x3d359ca5	0.04433884
183	0x3dc07c01	0.09398652
184	0xbd4ea8d5	-0.05045398
185	0xbd98706e	-0.07443319
186	0xbc3c678d	-0.011499298
187	0x3d256f29	0.040389214
188	0xbd105617	-0.03523835
189	0xbd2ae8f4	-0.041726068
190	0x3d283e06	0.041074775
191	0x3c83bc8b	0.016081115
192	0x3d99892b	0.07496866
193	0xbd094e85	-0.033522148
194	0xbdb62a22	-0.08894755
195	0xbab39389	-0.0013700585
196	0xbdbb2ef1	-0.09139813
197	0xba3504a6	-0.0006905295
198	0xbdd254fa	-0.10270114
199	0xbd0507d1	-0.032478157
200	0x3cb8ab2f	0.022542564
201	0xbdb2adde	-0.08724569
202	0xbd2ceb07	-0.042216327
203	0xbd1d985a	-0.038475372
204	0xbd335ec6	-0.043791555
205	0x3dac6f72	0.08419694
206	0xbc2aa8d2	-0.010416226
207	0x3c4798ac	0.012182396
208	0xbd157440	-0.036487818
209	0xbde840e4	-0.11340502
210	0x3ba2c8b5	0.004967774
211	0x3ca49b6d	0.020093644
212	0x3c685811	0.014181153
213	0x3dca7eab	0.09887441
214	0xbe30ca99	-0.17264785
215	0x3d8678d5	0.06566016
216	0xbdb5d180	-0.088778496
217	0x3d196786	0.037452243
218	0xbd08a4dd	-0.03336035
219	0x3c81ae41	0.015830161
220	0x3b870bb1	0.004121267
221	0x3c157f7a	0.009124631
222	0x3af313a5	0.0018545283
223	0xbd158529	-0.036503945
224	0xbc43ae51	-0.011943416
225	0xbddcdbb2	-0.10784091
226	0xbdd84787	-0.10560518
227	0xbc34c8a4	-0.011034165
228	0x3d8aca2e	0.06776844
229	0xbd8573d6	-0.065162346
230	0xbd67d9db	-0.056604248
231	0xbda9e334	-0.08295289
232	0x3d9c6d40	0.07638025
233	0xbc16703d	-0.009182033
234	0xbd70ec74	-0.05881925
235	0x3d5355f8	0.051595658
236	0x3b94941e	0.0045342585
237	0x3c60a65a	0.013711536
238	0x3dc1da57	0.09465473
239	0x3dc2151a	0.09476681
240	0xbc0a654b	-0.008447002
241	0x3da8ab12	0.08235754
242	0xbdb9e546	-0.090769336
243	0x3c7418c8	0.014898486
244	0xbdd72e89	-0.10506923
245	0xbdae4fd9	-0.085113235
246	0xbdec9b4f	-0.1155306
247	0x3deb660d	0.11494074
248	0xbccc9633	-0.024973964
249	0xbd990e42	-0.074734226
250	0xbde4bf27	-0.11169272
251	0xbce83f99	-0.028350638
252	0xbd3a4d88	-0.045484096
253	0x3d46fe7b	0.048582535
254	0x3c343637	0.010999254
255	0xbdf55892	-0.11979784

output_layer.bias f4 [10]
0	0x3d05285e	0.0325092
1	0x3d0b73fe	0.034046166
2	0x3bae2859	0.0053148684
3	0xbd9aedfa	-0.07564922
4	0x3d42fe96	0.047606073
5	0xbd835c33	-0.0641407
6	0xbd6063e2	-0.054782756
7	0xbdecacfa	-0.1155643
8	0x3db4211a	0.08795376
9	0x3ca1d13c	0.019753091
