Results/GeneticResult2/best_model_weights.pt (torch, 526852 bytes, 8 tensors)

hidden_layers.0.weight f4 [125, 784]
0	0x3c43adbf	0.01194328
1	0x3b89dedf	0.0042074765
2	0x3c1955ac	0.009358805
3	0x3c0680ac	0.008209389
4	0x3c4fd5d1	0.012685255
5	0x3c95bacd	0.01827755
6	0x3cdd894d	0.02704301
7	0xbd049874	-0.032371953
8	0xbc872245	-0.016495833
9	0x3b13e100	0.002256453
10	0x3c4782d9	0.012177193
11	0xbba0072c	-0.0048836675
12	0xbd116da0	-0.035504937
13	0xbb69bc57	-0.0035665238
14	0xbc154415	-0.00911047
15	0xbcc7e721	-0.024402203
16	0x3bf65acc	0.007518148
17	0xbb7da8ef	-0.0038705429
18	0x3c535bc1	0.012900294
19	0xbca1dcfb	-0.019758692
20	0x3b400884	0.002930195
21	0x3b91044a	0.00442556
22	0x3c5238f3	0.012830961
23	0xbd275b1d	-0.040858377
24	0x3ca9d7a9	0.020732718
25	0xbd190d7d	-0.03736638
26	0xbce62e05	-0.028098116
27	0xbbb931d3	-0.0056516915
28	0x3b88dd78	0.0041767918
29	0xbcf7b963	-0.030239766
30	0x3ce00dff	0.027350424
31	0x3b6d107c	0.0036173156
32	0x3c765dd8	0.0150370225
33	0x3c96bd6c	0.01840087
34	0xbca0fe71	-0.019652577
35	0xbc456b77	-0.012049547
36	0x3cc33683	0.023829704
37	0xbce5ec71	-0.028066846
38	0xbcc1ce2b	-0.023657879
39	0x3ca7fbe3	0.020505851
40	0x3c39ec4f	0.011347844
41	0xbd1b0ae0	-0.037852168
42	0xbd29bbc8	-0.041438848
43	0xbcbed729	-0.023295956
44	0x3b86c5d3	0.004112938
45	0xbd103939	-0.03521082
46	0xbb50f72d	-0.003188561
47	0x3bc63434	0.0060487036
48	0x3cb6734b	0.022271773
49	0xbce2c9d5	-0.027684132
50	0xbc018ad5	-0.007906635
51	0xbd28dfb5	-0.04122897
52	0xbcf2b1d5	-0.029625813
53	0x3b2703b9	0.0025484397
54	0x3c92c9db	0.017918518
55	0x3ba30284	0.004974665
56	0x3be3896c	0.006943872
57	0xbca92b37	-0.02065049
58	0x3cdbddb1	0.02683911
59	0xbc6b9e8e	-0.014381064
60	0xbce6d2f3	-0.02817676
61	0xbd0616ca	-0.032736577
62	0xbc518534	-0.012788106
63	0xbb167960	-0.0022960529
64	0xbccf58d8	-0.025310919
65	0xbcef0738	-0.029178247
66	0xbcf332c6	-0.029687297
67	0xbd1b82ad	-0.03796642
68	0x3a8896e1	0.0010420942
69	0xbd1a1fd9	-0.03762803
70	0x3c29104c	0.010318827
71	0xbd0664e5	-0.032811064
72	0x3b809e05	0.0039250874
73	0xbd0cd879	-0.034386132
74	0xbd051738	-0.032492846
75	0xbcef454f	-0.029207854
76	0x3c1d05bc	0.009583887
77	0x3d0003c1	0.03125358
78	0xbcf43f05	-0.029815206
79	0x3c33cdd7	0.010974369
80	0x3cbb68f1	0.022877188
81	0x3bbe7427	0.0058121863
82	0xbd05d7f7	-0.032676663
83	0xbcdcf03f	-0.026970027
84	0x3cc45551	0.023966463
85	0x3a4a11d1	0.00077083433
86	0x3b824451	0.003975429
87	0x3c30fb1f	0.010802059
88	0xbccd7c39	-0.025083648
89	0xbc98e497	-0.018663688
90	0xbd2987f8	-0.041389436
91	0x3c334707	0.010942227
92	0x3c24ef9d	0.010066894
93	0x3b5cd75a	0.0033697695
94	0xbb572bc0	-0.0032832474
95	0x3ac62a7d	0.0015118864
96	0x3bcbe801	0.0062227254
97	0x3d0617b3	0.032737445
98	0x3d28cfce	0.041213803
99	0x3cdb35f6	0.026759129
100	0x3d193b32	0.03740997
101	0x3cdf2365	0.027238557
102	0x3d0f0465	0.0349163
103	0x3c98dc86	0.018659841
104	0x3c843c3a	0.016142
105	0xbb9309d8	-0.0044872575
106	0xbb4c7849	-0.0031199625
107	0x3cb9cdbb	0.022681108
108	0x3ce6f20e	0.028191593
109	0xbd0fe95a	-0.03513465
110	0xbce3099f	-0.027714549
111	0x3b845848	0.0040388443
112	0xbd1d7291	-0.038439337
113	0x3bd61de5	0.0065343254
114	0x3cbbf345	0.022943148
115	0xbb737cef	-0.0037153324
116	0x3c1dfdf4	0.009643067
117	0xbce674dd	-0.028131897
118	0xbccbef2a	-0.024894316
119	0xbd0a9246	-0.033830903
120	0x3cc6d537	0.02427159
121	0xbd0aa555	-0.03384908
122	0x3c9751ef	0.018471686
123	0x3d28bdd8	0.041196674
124	0x3d46eaff	0.048563953
125	0x3cae12c2	0.021249179
126	0x3c1d1a2a	0.0095887575
127	0x3d408120	0.046998143
128	0x3c495ce6	0.012290215
129	0x3d37b538	0.044850558
130	0xbc7bf450	-0.015378073
131	0x3c877d7a	0.016539324
132	0xbc4f4125	-0.012649809
133	0xbc3bc8ea	-0.011461476
134	0x3cb7689d	0.02238875
135	0xbcb5794e	-0.02215257
136	0x3ca8273b	0.020526519
137	0x3c86467c	0.016391031
138	0x3b6df800	0.003631115
139	0x3a005837	0.00048959575
140	0xbd06701a	-0.032821752
141	0xbcee75d7	-0.029108925
142	0x3ab56c6e	0.0013841519
143	0x3c0d7771	0.008634434
144	0xbd05d66d	-0.032675195
145	0xbcd0e9f3	-0.02550218
146	0xbce82c38	-0.028341398
147	0x3c54e480	0.012993932
148	0x3c797344	0.015225235
149	0x3d39af42	0.045333154
150	0x3d3315ed	0.043722082
151	0x3c08e5f8	0.00835561
152	0x3ca6d48b	0.02036502
153	0x3cc487e5	0.02399058
154	0xbc0c04e9	-0.008546093
155	0x3cca10fc	0.024666302
156	0xbc0b9602	-0.008519651
157	0xbb878ab1	-0.0041364064
158	0x3c6fbb74	0.014632095
159	0x3d0ed51b	0.034871202
160	0xbc21f7b3	-0.009885716
161	0x3c8987c4	0.01678837
162	0xbc812d09	-0.015768545
163	0xbcc094c2	-0.023508433
164	0x3cba0161	0.022705736
165	0xba65fe2c	-0.00087735313
166	0xbcdd2020	-0.026992857
167	0x3ca96c35	0.02068148
168	0xbc66f301	-0.014096023
169	0xbd299d6b	-0.04140989
170	0xbcd219c0	-0.025647044
171	0xbd25ca47	-0.04047611
172	0xbd061fb1	-0.032745067
173	0x3ca89388	0.02057816
174	0x3b5810e4	0.0032969052
175	0x3cf407f4	0.029788949
176	0x3d645da6	0.055753373
177	0x3d6b8904	0.057503715
178	0x3d2b6683	0.04184581
179	0x3d3db571	0.046315614
180	0x3d19ba19	0.037530992
181	0x3cf42639	0.029803382
182	0x3c422e9a	0.011851931
183	0xbb8bc8bb	-0.0042658723
184	0xbca10ee1	-0.019660415
185	0x3af6091a	0.0018771023
186	0xbcb17da4	-0.021666355
187	0x3c3eaec8	0.011638351
188	0xbc4cc28f	-0.012497558
189	0x3bcabf1e	0.0061873337
190	0x3c10c650	0.008836344
191	0xbd585c2b	-0.052822273
192	0xbad1b7aa	-0.0016000171
193	0xbd364842	-0.044502504
194	0x3b93e5ad	0.0045134635
195	0xbcc5da13	-0.024151837
196	0x3c383338	0.01124268
197	0xbbf8e31e	-0.007595434
198	0xbd0336c6	-0.032034658
199	0x3cbd4101	0.023102285
200	0x3d108c3d	0.03528999
201	0xbc82756e	-0.015925135
202	0x3ccd95ad	0.025095785
203	0x3d38de37	0.045133796
204	0x3c00c29c	0.0078588985
205	0x3d1039db	0.035211425
206	0x3ccba2d0	0.024857908
207	0x3d30f4cb	0.043202203
208	0x3d1b452e	0.03790777
209	0xbd2985ed	-0.041387487
210	0xbd873f04	-0.06603816
211	0xbd25af20	-0.040450215
212	0xbd8e70c5	-0.06955103
213	0xbd0cf64d	-0.03441458
214	0xbca4cc2c	-0.020116888
215	0xbd189cd4	-0.037258938
216	0xbcb61ea3	-0.022231406
217	0x3c3b8696	0.011445662
218	0x3bfad509	0.0076547903
219	0xbd98cb74	-0.074606806
220	0xbd45109b	-0.04811154
221	0xbd1d0a42	-0.03833986
222	0xbb86d623	-0.0041148826
223	0xbcee8ffb	-0.02912139
224	0x3ca8676e	0.020557132
225	0xbd086cda	-0.033306934
226	0x3caf23b4	0.02137933
227	0xbc570d7f	-0.013125776
228	0x3c77ccaf	0.015124484
229	0x3c8de434	0.01732073
230	0xba49e42a	-0.00077015406
231	0x3c5c0d1b	0.013430859
232	0x3b539852	0.0032286835
233	0x3d89197a	0.066943124
234	0x3cfa9150	0.030586869
235	0x3bf3555b	0.0074259466
236	0xbba295c6	-0.004961702
237	0xbc21eae1	-0.00988266
238	0xbd7ddafc	-0.061976418
239	0xbca8f66a	-0.020625312
240	0xbcb207d7	-0.021732254
241	0xbc89af6c	-0.01680728
242	0x3d89e8ac	0.06733832
243	0xbd134289	-0.035952125
244	0xbcca3777	-0.02468465
245	0xbc8dce5c	-0.017310314
246	0x3c6a46ff	0.014299153
247	0x3a65bcc2	0.0008763784
248	0xbd903f96	-0.07043378
249	0xbc07a1a7	-0.008278287
250	0x3c04f15a	0.008114183
251	0xbd1cbeb8	-0.03826782
252	0x3c2431b2	0.010021614
253	0x3cc445ac	0.023959003
254	0x3c763e83	0.015029552
255	0xbcf4faf8	-0.029904827

hidden_layers.0.bias f4 [125]
0	0x3c871935	0.016491512
1	0x3c6d0f07	0.014468915
2	0xbcc8c75c	-0.024509124
3	0xbce3278e	-0.027728822
4	0x3c8e61ec	0.017380677
5	0x3cfbb379	0.030725228
6	0x3c575bc2	0.013144435
7	0x3d1e13cb	0.038593095
8	0xbaf06705	-0.0018341249
9	0x3c39d97c	0.011343356
10	0xbd11c742	-0.035590418
11	0x3a91d938	0.0011127358
12	0xbc2bf48f	-0.010495319
13	0xbb128792	-0.0022358638
14	0xbcc0428b	-0.02346923
15	0x3c7f8d86	0.015597707
16	0x3bed4dce	0.007241941
17	0xbccd65d0	-0.025072962
18	0x3c90c365	0.017671296
19	0xbd060a9e	-0.03272497
20	0xbc2cbf67	-0.010543681
21	0x3ca02481	0.019548656
22	0xbc4871c4	-0.012234155
23	0x3bb194e3	0.00541936
24	0x3a870315	0.0010300601
25	0x3c1faecf	0.009746267
26	0x3b5680fb	0.0032730687
27	0xbc924059	-0.017852949
28	0x3d07c9e6	0.03315153
29	0x3c6f2735	0.01459675
30	0xbba473f6	-0.0050187064
31	0xbb9a5c73	-0.004710728
32	0xbcbedb56	-0.023297947
33	0xbcf76bb6	-0.030202728
34	0x3bc4ed17	0.0060097086
35	0xbc939ae3	-0.018018192
36	0x3c029cd4	0.007971961
37	0x3d1f5b64	0.038905516
38	0x3c7477eb	0.014921169
39	0xbcc68684	-0.024234064
40	0x3cb627d3	0.022235787
41	0x3cf19438	0.029489622
42	0x3c61573d	0.013753709
43	0x3cf2a6d1	0.02962056
44	0xbd0a2cea	-0.03373424
45	0xbd009ae7	-0.031397726
46	0xbc6a34b2	-0.01429479
47	0xbce68287	-0.028138412
48	0x3cec2343	0.028825408
49	0x3c7b763a	0.015348012
50	0x3c622231	0.013802097
51	0xbcc7c714	-0.02438692
52	0xbc0bd036	-0.008533528
53	0x3d0da3aa	0.03457991
54	0xbc6ea7ea	-0.014566401
55	0xbc0fd4c8	-0.008778758
56	0x3a5991f2	0.00082996406
57	0xbb6c5794	-0.0036062943
58	0xbcd07ce5	-0.02545018
59	0xbb9f35d8	-0.0048587136
60	0xbce86fb9	-0.028373586
61	0x3bb8b090	0.0056362823
62	0x3cb88e18	0.022528693
63	0x3bbd4463	0.0057759746
64	0x3cdb46a1	0.026767077
65	0x3cefc171	0.029267045
66	0xbd233600	-0.03984642
67	0x3cf6824a	0.030091424
68	0x3a2b3c37	0.0006532105
69	0x3c531205	0.012882714
70	0x3b7e29d7	0.0038782263
71	0x3c553c24	0.013014827
72	0x3c183b45	0.009291475
73	0xbb11e24c	-0.0022260128
74	0x3c9f66ec	0.019458257
75	0xb9339dd8	-0.00017129572
76	0x3d252d24	0.040326253
77	0x3d101bc0	0.035182714
78	0x3c9536cf	0.018214611
79	0x3cbfb62e	0.0234023
80	0xbd043617	-0.032278147
81	0xbc113f32	-0.008865165
82	0x3cf2a0e0	0.029617727
83	0xbd04dc97	-0.032436933
84	0xbc417531	-0.011807726
85	0xbcdfcc61	-0.027319135
86	0xbc9c62ed	-0.01909014
87	0xbcf2dfba	-0.029647697
88	0xbd175004	-0.036941543
89	0xbbc96c97	-0.006146978
90	0x3c84bca6	0.016203236
91	0xbcafdaf2	-0.021466706
92	0xbc60ce80	-0.013721108
93	0x3cc234f4	0.02370689
94	0xbc7fd094	-0.015613694
95	0x3c9d0dc9	0.019171612
96	0xbc7ad7da	-0.015310252
97	0x3c8e29a6	0.017353844
98	0xbbf7f159	-0.0075666127
99	0x3cf10304	0.029420383
100	0xbc6bb4fb	-0.014386411
101	0xbc08121a	-0.008305097
102	0xbaea38d1	-0.0017869716
103	0x3c6a41c6	0.014297908
104	0x3cc9b565	0.024622628
105	0x3b814e06	0.0039460687
106	0xbd117d98	-0.035520166
107	0x3ca82156	0.020523708
108	0xb84873ec	-4.7791676e-05
109	0xbd0556f0	-0.032553613
110	0x3d154445	0.03644206
111	0xbc6393f5	-0.013890256
112	0xbcbb675e	-0.022876438
113	0xbc6b6ba3	-0.014368924
114	0x3c9a5dde	0.018843587
115	0xbc355f7d	-0.011070129
116	0x3cc66a2c	0.024220549
117	0x3cb0aa04	0.021565445
118	0xbd1fa010	-0.038971007
119	0x3c9bab65	0.019002626
120	0xbb97a36f	-0.004627637
121	0x3ca1f621	0.019770684
122	0xbcf7d579	-0.030253159
123	0xbc159012	-0.009128587
124	0xbc69bba5	-0.014265929

hidden_layers.3.weight f4 [125, 125]
0	0xbd1764c8	-0.036961347
1	0x3baeadbb	0.005330769
2	0xbb35214c	-0.0027638255
3	0x3e0361ad	0.12830229
4	0xbdbb4fc3	-0.09146073
5	0x3ded9c4e	0.116020784
6	0xbc853dfc	-0.016264908
7	0xbc36f145	-0.011165922
8	0xbda5368a	-0.08067043
9	0x3d5b4f74	0.05354257
10	0x3c08739f	0.0083283475
11	0x3c972fed	0.01845547
12	0xbcb055f9	-0.02152537
13	0xbd92da82	-0.07170583
14	0xbd5664f7	-0.05234238
15	0x3c115366	0.008869981
16	0x3daa71fa	0.083225206
17	0xbd313635	-0.043264586
18	0x3e087717	0.13326679
19	0x3da7f961	0.08201862
20	0x3d5ed141	0.05439878
21	0x3dc4381d	0.09581015
22	0xbde6c0af	-0.1126722
23	0x3d18f430	0.03734225
24	0x3dc49b2d	0.0959991
25	0xbbb9217d	-0.005649744
26	0xbce684fa	-0.02813958
27	0xbc143de2	-0.009047957
28	0xbddd7dfe	-0.10815047
29	0x3ccda121	0.025101246
30	0x3d202a30	0.039102733
31	0x3d13b4c4	0.036061063
32	0xbdc58a1d	-0.09645484
33	0xbdaad423	-0.08341243
34	0x3dbe3d2e	0.09289013
35	0x3d12fd45	0.035886068
36	0x3ccfc25b	0.02536123
37	0xbc0e3382	-0.008679273
38	0xbc0ad0d3	-0.008472639
39	0x3d5b9d58	0.05361685
40	0x3d96f251	0.07370437
41	0x3e099639	0.13436212
42	0x3ddbf72c	0.10740504
43	0x3de60f08	0.11233336
44	0xbcb10d81	-0.021612884
45	0x3dd906dc	0.105970114
46	0x3c733616	0.014844438
47	0x3d042a35	0.032266814
48	0x3d6b63b6	0.05746814
49	0xbd5db277	-0.054125275
50	0xbcdada55	-0.026715437
51	0x3c96350a	0.018335838
52	0x3da1e5e0	0.07905173
53	0xbe07de67	-0.13268434
54	0x3c9c81fd	0.019104952
55	0x3d5dccbe	0.054150335
56	0x3d8411c9	0.06448705
57	0x3d33ffdb	0.043945175
58	0x3bc65588	0.0060526766
59	0xbe0bf087	-0.13665973
60	0x3c9abbdb	0.018888405
61	0x3d39ae25	0.045332093
62	0x3adfa756	0.001706342
63	0x3dcad519	0.099039264
64	0x3d536a7c	0.051615223
65	0x3dd6b95e	0.10484575
66	0x3d336b3d	0.043803442
67	0x3d2289af	0.039682087
68	0x3cbb1624	0.022837706
69	0x3d5bbb44	0.053645387
70	0xbd9a6e2e	-0.07540546
71	0x3d9d1571	0.07670105
72	0xbc915f66	-0.017745685
73	0x3d1e953a	0.038716532
74	0x3ba44d7b	0.005014119
75	0x3cfefc73	0.031126237
76	0x3dc89139	0.09793324
77	0xbdbfe340	-0.093695164
78	0x3d939bee	0.072074756
79	0xbd9fc07d	-0.07800386
80	0xbd8fb6cb	-0.07017287
81	0xbd624423	-0.05524076
82	0x3d00c0d2	0.031433888
83	0x3ce816ea	0.028331239
84	0xbce4254e	-0.02784982
85	0xbd8f4d4c	-0.06997165
86	0x3cf89383	0.030343777
87	0x3c4c9801	0.012487412
88	0x3d2be3e9	0.0419654
89	0xbc81ddbb	-0.0158528
90	0x3d8d4cea	0.06899436
91	0xbdc8ce7f	-0.09805011
92	0x3e13c2ec	0.14429826
93	0xbd584977	-0.052804437
94	0x3d0976bf	0.03356051
95	0x3dafffa5	0.08593682
96	0xbd9d7426	-0.07688169
97	0x3d8422ee	0.06451975
98	0xbca6567d	-0.020304913
99	0x3d16361a	0.03667269
100	0x3d8ab646	0.06773047
101	0x3dba9392	0.09110178
102	0xbc1a2cb2	-0.00941007
103	0x3d95e526	0.07319097
104	0xbaaf5409	-0.0013376485
105	0xbd465c50	-0.04842788
106	0x3c882c52	0.016622696
107	0x3de3f423	0.1113055
108	0x3ce2bd53	0.027678167
109	0x3c87d984	0.016583212
110	0x3cdfa738	0.027301416
111	0xbdce5487	-0.10074716
112	0xbd0983b0	-0.033572853
113	0xbc5be2da	-0.013420785
114	0x3d105ff0	0.035247743
115	0xbda11cc7	-0.07866817
116	0xbcd86ab9	-0.026418077
117	0xbda19bdd	-0.07891057
118	0xbde71f19	-0.11285228
119	0xbd9e51f0	-0.07730472
120	0xbd8bb778	-0.06822103
121	0x3c8b4f3a	0.017005552
122	0x3d4edb02	0.05050183
123	0xbdf63156	-0.12021129
124	0x3c9c7032	0.019096468
125	0xbd24376e	-0.040091924
126	0xbc606a01	-0.013697148
127	0x3d8fbe61	0.07018734
128	0xbc6f3126	-0.01459912
129	0xbd9e1306	-0.07718472
130	0x3c7b0be7	0.015322662
131	0xbc9b32fa	-0.018945206
132	0xbd80324e	-0.06259595
133	0xbd1650aa	-0.03669802
134	0xbd6decc4	-0.058087125
135	0x3de06ed1	0.109586366
136	0xbcbd74b1	-0.023126932
137	0x3c8fe1a3	0.017563647
138	0x3c92065e	0.017825302
139	0x3d07945c	0.03310047
140	0x3d189df0	0.037259996
141	0xbda5f8a4	-0.08104065
142	0xbccbb0b1	-0.024864526
143	0x3cd2bef5	0.025725821
144	0x3dadb3c7	0.084815554
145	0xbd1d8f91	-0.038466994
146	0xbd9e7a49	-0.07738168
147	0xbdb56a9b	-0.08858224
148	0x3dec119d	0.11526797
149	0xbd51f560	-0.0512594
150	0xbc54d83e	-0.012991009
151	0xbd32310d	-0.04350381
152	0xbd9ee21c	-0.07757971
153	0x3c69e5e2	0.014276
154	0x3d15fe8f	0.03661972
155	0xbc91dbd4	-0.017805018
156	0xbd3451b5	-0.044023234
157	0x3d853972	0.065050974
158	0x3cd29ac2	0.02570856
159	0xbd3275e4	-0.04356946
160	0x3e125a85	0.14292343
161	0xbad86ad2	-0.0016511327
162	0x3d43f1d3	0.047838043
163	0x3d9974c5	0.07492975
164	0xbdca13e4	-0.09867075
165	0xbdcbfcd3	-0.09960332
166	0x3cffe1d5	0.031235615
167	0x3c944633	0.01809988
168	0x3d754a8a	0.05988554
169	0x3d915a44	0.07097295
170	0xbde51f5c	-0.11187622
171	0xbd8d386f	-0.068955295
172	0xbd95d4dd	-0.07315991
173	0xba91641a	-0.0011092455
174	0xbd91da2f	-0.07121693
175	0xbd8b4b17	-0.068014316
176	0xbd11f14c	-0.03563051
177	0x3d969985	0.073535
178	0xbd2a5c46	-0.041591905
179	0xbd9c5eeb	-0.07635292
180	0xbdf3a626	-0.11896925
181	0xbb995859	-0.0046797213
182	0x3d956cbf	0.07296132
183	0xbc16c932	-0.009203242
184	0x3c750a80	0.014956117
185	0x3d73ff31	0.05956954
186	0xbd50bd36	-0.050961696
187	0xbd0bf39c	-0.03416787
188	0xbc6de340	-0.014519513
189	0x3df466d1	0.11933673
190	0xbd8c1745	-0.06840376
191	0x3da03d06	0.07824139
192	0x3c7415cc	0.014897775
193	0x3d75f5f9	0.06004903
194	0xbc6af03c	-0.014339503
195	0xbd36bdc6	-0.044614576
196	0xbcedaa0f	-0.029011754
197	0x3c7e4f0f	0.015521779
198	0xbcc1f257	-0.023675127
199	0x3c4143cc	0.011795949
200	0xbdf09072	-0.11746301
201	0x3daeddd8	0.08538407
202	0xbde1b008	-0.110199034
203	0x3d9d501e	0.07681297
204	0xbd94a366	-0.07257728
205	0xbccdd86f	-0.025127618
206	0xbdc8cf84	-0.098052055
207	0xbd282dbc	-0.04105924
208	0xbddb3bd1	-0.107047684
209	0x3d31b3c7	0.04338434
210	0x3d386296	0.045015894
211	0x3c393385	0.011303787
212	0x3d62d7c2	0.055381544
213	0x3d1e6654	0.038671806
214	0x3d09deda	0.033659793
215	0xbd25d466	-0.040485762
216	0x3cda5170	0.02665016
217	0xbdd464d8	-0.10370797
218	0xbdb8fc92	-0.09032549
219	0xbd3c2bd9	-0.045940254
220	0x3c77a338	0.015114598
221	0x3d5d8598	0.054082483
222	0xbd59a646	-0.053137086
223	0xbdd332a6	-0.10312395
224	0xbcc1246d	-0.02357694
225	0xbe094483	-0.13405041
226	0xbd7caacd	-0.061686326
227	0xbd1114f3	-0.03542037
228	0x3d6ea2ac	0.058260605
229	0x3c67bd6f	0.014144286
230	0xbc607d3e	-0.013701735
231	0xbe004a83	-0.12528424
232	0x3d0ed953	0.034875225
233	0x3da2affe	0.07943724
234	0x3dc072bd	0.093968846
235	0xbdf6a1f7	-0.12042611
236	0x3d043691	0.0322786
237	0xbd31a90e	-0.043374114
238	0xbd665029	-0.05622879
239	0xbdcc6984	-0.09981063
240	0x3e14d59c	0.1453461
241	0x3d1f2d25	0.038861413
242	0x3dae6b82	0.08516599
243	0x3c95540d	0.018228555
244	0x3db765e0	0.08954978
245	0x3d35a5dd	0.044347633
246	0xbc3c2598	-0.011483572
247	0xbd50be78	-0.050962895
248	0xbdd0bafb	-0.10191914
249	0xbcc6bd6b	-0.024260243
250	0x3dc41457	0.09574192
251	0xbd035ed7	-0.03207287
252	0x3dd5d3e1	0.10440803
253	0x3d9d9139	0.07693715
254	0xbbb9cad2	-0.00566993
255	0xbda9b685	-0.08286766

hidden_layers.3.bias f4 [125]
0	0xbc455e6f	-0.0120464405
1	0xbdb325e0	-0.087474585
2	0xbd996601	-0.07490159
3	0xbdbfc0f9	-0.093629785
4	0x3cdc7d6a	0.02691527
5	0x3d866a7d	0.0656328
6	0xbda30a05	-0.079608954
7	0x3d6d5d70	0.057950437
8	0x3b728ffb	0.0037012089
9	0xbc5b2243	-0.013374868
10	0xbcb76bcc	-0.022390269
11	0x3d4b5c96	0.049648844
12	0xbd1a7a8f	-0.037714537
13	0x3c8b329c	0.016991906
14	0xbc3ca96d	-0.011515004
15	0x3d8c45f5	0.06849281
16	0x3cf5c978	0.030003294
17	0xbd923af3	-0.0714015
18	0xbd1f1d0a	-0.038846053
19	0x3c7b44c7	0.015336222
20	0x3ce031fc	0.027367584
21	0xbade6bfa	-0.0016969435
22	0x3dae4714	0.08509651
23	0xbdabd615	-0.08390442
24	0xbcca5567	-0.024698926
25	0xbc8c0aa4	-0.017094918
26	0x3d494048	0.04913357
27	0x3d4d53df	0.050128814
28	0x3d6c51cd	0.0576952
29	0x3d7d3192	0.061814852
30	0xbd623baa	-0.05523268
31	0xbd2b193b	-0.04177211
32	0x3bda45e2	0.0066611627
33	0xbce0909d	-0.027412707
34	0xbd0899ad	-0.03334968
35	0xbc7ea7c0	-0.015542924
36	0x3d44db75	0.048060853
37	0xbdc2cadc	-0.095113486
38	0xbd802b48	-0.06258255
39	0x3c932296	0.017960828
40	0x3d0592cd	0.032610703
41	0xbd9660a0	-0.073426485
42	0x3d0dea34	0.03464718
43	0x3dc0568b	0.09391507
44	0xbcf0de6c	-0.029402934
45	0xbda32315	-0.07965676
46	0xbc93adbb	-0.018027177
47	0xbd6fb5c8	-0.05852297
48	0x3d55d120	0.05220139
49	0x3da422a3	0.08014419
50	0x3c539f93	0.012916463
51	0x3c8b5ebc	0.017012946
52	0x3c8853ad	0.016641462
53	0x3d043c3b	0.032284003
54	0xbce1462e	-0.027499285
55	0xbbdf2683	-0.006810011
56	0x3db34621	0.087536104
57	0xbd2e7fde	-0.042602412
58	0xbcaa8b33	-0.020818328
59	0x3d4d5e72	0.0501389
60	0xbcb65007	-0.022254957
61	0x3cb1bf6e	0.021697726
62	0x3d0fbf84	0.035094753
63	0xbd529d99	-0.051419828
64	0x3da29471	0.07938469
65	0x3d8b319c	0.067965716
66	0x3d72eb62	0.05930651
67	0xbd1c18ac	-0.038109466
68	0x3d70d4aa	0.058796562
69	0x3cab2530	0.020891756
70	0x3bc555a0	0.00602217
71	0x3d510b11	0.051035944
72	0xbd9964e2	-0.07489945
73	0xbd795748	-0.060874254
74	0x3d7d30d8	0.06181416
75	0x3d1e5c69	0.038662348
76	0xbdc8448c	-0.09778699
77	0xbd33cb0a	-0.043894805
78	0x3d53889c	0.051643953
79	0xbcb25801	-0.02177048
80	0xbd046574	-0.032323316
81	0x3c752b67	0.014963961
82	0xbd847fce	-0.06469689
83	0xbdd77aae	-0.10521446
84	0x3d8b5fb0	0.0680536
85	0x3cea213d	0.028580302
86	0x3d4ba378	0.049716443
87	0xbc1be78d	-0.009515655
88	0xbc7dff6e	-0.015502794
89	0x3d6b31d8	0.05742058
90	0x3d1284e4	0.035771266
91	0x3cff30a1	0.031151118
92	0x3d9e6165	0.0773342
93	0x3bf17f95	0.0073699453
94	0xbd6583ff	-0.056034084
95	0xbbbedaed	-0.005824438
96	0x3a0af61c	0.00053009554
97	0xbc2eba9e	-0.01066461
98	0x3ca8e7d7	0.020618362
99	0xbcfa8958	-0.030583069
100	0x3db202f2	0.08691968
101	0xbd511ea2	-0.051054604
102	0xbd1a5c7f	-0.037685867
103	0xbc12cae4	-0.008959506
104	0xbd4c3f6f	-0.049865182
105	0x3a226dde	0.0006196181
106	0xbd83b5e0	-0.06431174
107	0xbc9d0cde	-0.019171175
108	0x3da281ad	0.0793489
109	0xbd93ee2a	-0.072231606
110	0x3c6d919f	0.014500051
111	0xbd4ade93	-0.04952867
112	0x3d933abb	0.07188936
113	0x3d99896e	0.07496916
114	0xbdb9d89f	-0.0907452
115	0xbc513ab6	-0.012770345
116	0x3ca28ad5	0.01984159
117	0xbdb9c21f	-0.09070229
118	0x3d267e7c	0.04064797
119	0x3ccc0723	0.024905747
120	0xbda225c9	-0.07917363
121	0xbd90287d	-0.070389725
122	0x3da11b19	0.078664966
123	0xbd88eed5	-0.066861786
124	0x3cb1e28d	0.021714473

hidden_layers.6.weight f4 [125, 125]
0	0x3cda8c5a	0.026678253
1	0xbd817ef6	-0.06323044
2	0xbc8c46ef	-0.017123668
3	0x3e11e31f	0.14246796
4	0xbcd6859f	-0.026186762
5	0x3d688097	0.056763258
6	0x3c942cb7	0.018087728
7	0xbd72c793	-0.05927236
8	0xbd24448f	-0.040104445
9	0x3da0aaee	0.07845102
10	0x3cbaeb3e	0.02281725
11	0x3afc4f59	0.0019249722
12	0x3d6acb59	0.057322834
13	0xbd9e1edc	-0.0772073
14	0x3d091a87	0.033472564
15	0xbd798585	-0.06091835
16	0xbd9e0705	-0.077161826
17	0xbc254b3a	-0.010088736
18	0x3dd5c958	0.10438794
19	0x3d8389c9	0.06422765
20	0xbcdcd334	-0.026956178
21	0x3d69438c	0.056949183
22	0x3d37e26e	0.044893675
23	0xbd94576d	-0.07243238
24	0xbd01d0f6	-0.03169342
25	0x3d6c3c16	0.05767449
26	0x3dbcb60c	0.0921441
27	0xbdd89b9a	-0.10576554
28	0xbdc7405c	-0.097290725
29	0x3d99f624	0.07517651
30	0x3dabb050	0.08383238
31	0xbd8429ef	-0.06453311
32	0xbe146546	-0.14491758
33	0xbc37482d	-0.011186642
34	0xbd397d4a	-0.0452855
35	0xbdbe88d2	-0.0930344
36	0x3e06d3c9	0.13166727
37	0xbda7d518	-0.08194941
38	0x3d5aee0a	0.053449668
39	0xbd94a80f	-0.07258617
40	0xbd7c5448	-0.061603814
41	0x3dd88f3f	0.10574197
42	0x3d404993	0.046945166
43	0x3afacb4b	0.0019134072
44	0x3a6b4aa8	0.0008975663
45	0x3d9f38de	0.077745184
46	0xbcba4a5a	-0.022740532
47	0xbdd76c30	-0.10518682
48	0x3cc269cd	0.02373209
49	0x3b80ff4d	0.003936684
50	0x3c8c5a30	0.017132849
51	0x3d831d6e	0.06402098
52	0x3db951ed	0.09048829
53	0xbd3c78a4	-0.04601349
54	0xbe06165d	-0.13094468
55	0xbda05ac5	-0.07829813
56	0xbd3187ea	-0.04334251
57	0x3d096d1f	0.03355133
58	0xbd400292	-0.04687745
59	0x3cfe83de	0.031068739
60	0x3d1b1e7d	0.037870873
61	0xbd3a33b7	-0.045459475
62	0xbdf1a6f5	-0.11799423
63	0xbda95a65	-0.082691945
64	0x3d2ab602	0.041677482
65	0xbdd8bb9e	-0.1058266
66	0xb9b8f4e0	-0.0003527766
67	0x3c9f031d	0.019410664
68	0xbde465c1	-0.111522205
69	0xbdb00098	-0.08593863
70	0xbd82f141	-0.06393672
71	0x3d1e353f	0.038625
72	0x3db90b66	0.09035377
73	0x3bcff0c6	0.006345841
74	0x3e15b53d	0.14619918
75	0xbcc8f034	-0.0245286
76	0x3d15863a	0.03650496
77	0x3c7c5a31	0.015402363
78	0xbda9afe0	-0.082854986
79	0x3cbf5444	0.02335561
80	0x3e027722	0.12740758
81	0xbd0d452f	-0.034489807
82	0x3d9fd990	0.07805169
83	0x3d7f7bc2	0.062373884
84	0x3db8038b	0.08985051
85	0xbdd390dd	-0.10330365
86	0xbcf36cc5	-0.029714951
87	0xbd23a630	-0.03995341
88	0x3dbc2782	0.09187223
89	0xbc80c835	-0.015720466
90	0xbb43f603	-0.0029901273
91	0x3df3f620	0.11912179
92	0xbd768fbd	-0.060195673
93	0xbd637824	-0.055534497
94	0x3c7a5f90	0.015281573
95	0xbe0e3a53	-0.13889436
96	0x3d5c3bc9	0.053767953
97	0xbdcc0fcf	-0.09963953
98	0xbcfef645	-0.03112329
99	0xbd8659ac	-0.06560072
100	0xbd29f617	-0.041494455
101	0xbd0ee714	-0.034888342
102	0x3d1b7cc4	0.037960783
103	0x3e042bb5	0.12907298
104	0xbcfa8312	-0.030580077
105	0xbc3e3389	-0.011608967
106	0xbd8d9dcd	-0.06914864
107	0xbbdd3538	-0.006750729
108	0x3db65063	0.08902051
109	0x3d8a0549	0.06739289
110	0xbdb16e7c	-0.08663651
111	0x3b6c602e	0.003606807
112	0x3d0ae238	0.033907145
113	0xbd907748	-0.07054001
114	0xbdcae0a9	-0.09906132
115	0x3d91dc97	0.07122152
116	0xbd4e87c3	-0.05042244
117	0x3d973639	0.07383389
118	0xbda5b90c	-0.080919355
119	0xbdf06256	-0.11737506
120	0xbd0e7c92	-0.03478677
121	0x3d9aa2ee	0.075506076
122	0xbe136150	-0.1439259
123	0xbb5297fe	-0.0032134051
124	0x3aac57cc	0.0013148724
125	0xbd220758	-0.039557785
126	0xbcb6e938	-0.022328004
127	0xbd9aa5d2	-0.07551159
128	0x3e23ea18	0.16007268
129	0xbd1e6c86	-0.038677715
130	0xbda70b27	-0.08156424
131	0xbdb59846	-0.088669345
132	0x3c4bc3d2	0.012436824
133	0x3c0ecc51	0.008715705
134	0xbd6f3243	-0.058397543
135	0xbdd98d97	-0.10622709
136	0xbdfb0669	-0.12257082
137	0x3d723068	0.059128195
138	0xbd81af0a	-0.06332214
139	0x3d9760e2	0.07391526
140	0x3d256e37	0.040388312
141	0xbd778470	-0.060429037
142	0xbc84769c	-0.016169839
143	0xbd2b8259	-0.041872356
144	0x3dfce2a9	0.123479195
145	0xbae3d52f	-0.0017382259
146	0xbdc22e91	-0.09481538
147	0x3c489088	0.01224149
148	0x3d137aef	0.03600591
149	0xbcce521f	-0.025185643
150	0xbd3cb835	-0.04607411
151	0xbe1f6bda	-0.15568486
152	0x3d3774d0	0.044789135
153	0xbd225ab1	-0.03963727
154	0xbd80925f	-0.06277918
155	0x3c562a85	0.013071661
156	0xbdef1fce	-0.11675988
157	0x3d9b4b53	0.07582726
158	0xbd348585	-0.044072647
159	0xbdf120ca	-0.11773832
160	0x3d6c16f8	0.057639092
161	0x3ca83954	0.020535149
162	0x3d99caff	0.075094216
163	0xbcbc9670	-0.023020953
164	0xbde4e479	-0.1117639
165	0xbc8dcb5d	-0.017308885
166	0xbd2421a2	-0.040071137
167	0x3c9e7399	0.01934223
168	0x3e148525	0.14503916
169	0xbdf5fbec	-0.12010941
170	0xbe0741f2	-0.1320875
171	0x3da19b8a	0.07890995
172	0xbb06568e	-0.0020498368
173	0x3b4e6c6a	0.0031497725
174	0x3d35b008	0.04435733
175	0xbccb1486	-0.02479006
176	0x3d8b6dad	0.06808028
177	0xbdcd354c	-0.10019931
178	0x3e11919b	0.142157
179	0x3d88eaed	0.066854335
180	0xbd91d28b	-0.07120236
181	0xbdcbe41b	-0.09955617
182	0x3d8e6415	0.06952683
183	0xbd97d1fe	-0.074131
184	0x3d761af4	0.0600843
185	0xbb577fce	-0.0032882574
186	0x3c296487	0.010338909
187	0x3e0645ae	0.13112518
188	0xbb8ddad0	-0.004329063
189	0xbdaaa070	-0.08331382
190	0x3d12c968	0.035836607
191	0x3d3b5759	0.045737598
192	0x3c9f6a05	0.019459734
193	0xbdf6159b	-0.1201584
194	0x3d00bdda	0.031431057
195	0xba488d05	-0.0007650408
196	0x3ce3f276	0.027825575
197	0x3d626949	0.05527619
198	0xbd066b73	-0.032817315
199	0x3dae9bc4	0.08525804
200	0xbd73ad1c	-0.05949126
201	0x3d0bf217	0.03416642
202	0x3a59c654	0.0008307446
203	0xbdc0aae7	-0.09407597
204	0x3de5f447	0.11228233
205	0x3d8b06a6	0.067883775
206	0x3d0953de	0.033527248
207	0x3de2ecba	0.11080308
208	0xbdf2b1b9	-0.11850304
209	0xbd354fe7	-0.044265654
210	0xbd8e7ee2	-0.06957795
211	0x3e0f5e2b	0.14000766
212	0x3be195f6	0.006884332
213	0x3c95df52	0.018294964
214	0xbdca5888	-0.09880167
215	0x3ddea9c7	0.10872226
216	0xbdca3c58	-0.09874791
217	0xbd8a196a	-0.067431286
218	0xbce675ac	-0.028132282
219	0xbc89802a	-0.016784746
220	0x3bf68c36	0.0075240387
221	0xbdf30d08	-0.1186772
222	0x3dc66ef7	0.096891336
223	0x3c17da28	0.009268321
224	0x3dcb3c7b	0.09923645
225	0x3dd8f49b	0.1059353
226	0xbdaa9153	-0.083285
227	0x3d8e3580	0.06943798
228	0x3d230b7a	0.039805867
229	0x3a2df503	0.0006635936
230	0xbd62c68b	-0.055365127
231	0x3d77d6bb	0.060507517
232	0xbe025b2f	-0.12730096
233	0xbd41e96f	-0.04734176
234	0xbca0e177	-0.01963876
235	0x3e05b10f	0.13055824
236	0x3de15d3f	0.110041134
237	0xbd85ee3a	-0.06539579
238	0x3c5e45a2	0.013566406
239	0xbc086ae9	-0.008326271
240	0x3dd03bee	0.10167681
241	0x3d8e2cd6	0.069421455
242	0xbdee2a27	-0.11629134
243	0xbd986ae2	-0.07442261
244	0xbd0fcee2	-0.03510941
245	0xbdb49fd6	-0.08819549
246	0x3d9595fc	0.07303998
247	0x3d8c53aa	0.06851895
248	0x3db0cbe1	0.08632637
249	0xbd588ea3	-0.052870404
250	0xbd3f16aa	-0.046652474
251	0xbd554df8	-0.05207631
252	0xbda40850	-0.08009398
253	0xbd8fdde2	-0.07024743
254	0xbd92b952	-0.07164253
255	0x3c53ae5a	0.012919987

hidden_layers.6.bias f4 [125]
0	0x3d968ea5	0.07351426
1	0xbce3d0a4	-0.027809449
2	0x3d961a00	0.07329178
3	0xbc99bbbf	-0.018766282
4	0x3d56cda0	0.052442193
5	0x3d8fc539	0.07020039
6	0x3d9fba7c	0.07799241
7	0xbd6c5a14	-0.057703093
8	0x3cbf2edd	0.023337776
9	0xbd1c5d6d	-0.038175035
10	0xbb43a619	-0.002985364
11	0x3b7e7902	0.003882945
12	0xbd9229b4	-0.071368605
13	0x3d849701	0.06474114
14	0xbb9840bc	-0.004646389
15	0xbd2b8697	-0.0418764
16	0x3dc988b7	0.098405294
17	0x3cce8898	0.025211617
18	0x3d4ea1f4	0.05044742
19	0xbd5e74a8	-0.05431047
20	0x3c806dc7	0.015677346
21	0xbd06b2b3	-0.032885265
22	0x3d6d6094	0.057953432
23	0xbc7951fe	-0.015217302
24	0x3dd6e701	0.10493279
25	0xbb9db01f	-0.004812255
26	0x3ddb1dbd	0.106990315
27	0xbc297416	-0.010342618
28	0xbd49e111	-0.049286906
29	0x3d47f42f	0.048816856
30	0xbd8b38bb	-0.0679793
31	0x3d403f13	0.046935152
32	0xbd789ebd	-0.06069826
33	0xbd7d11ed	-0.061784673
34	0xba3be518	-0.00071676215
35	0xbb951bfb	-0.0045504547
36	0xbd72b598	-0.059255213
37	0xbd999bba	-0.075004056
38	0x3bfc0701	0.0076912646
39	0xbdb969cb	-0.090533815
40	0xbc9c4420	-0.019075453
41	0xb9d80262	-0.00041200506
42	0xbd47379a	-0.04863701
43	0xbc66578d	-0.01405896
44	0x3d9593a2	0.07303549
45	0x3cf346a6	0.029696774
46	0xbc837b0b	-0.016049882
47	0xbce5fa94	-0.028073587
48	0xbc33415e	-0.010940878
49	0xbd630e1f	-0.05543339
50	0xbb16a2f6	-0.0022985316
51	0xbd9af53a	-0.075663045
52	0xbd095f72	-0.03353829
53	0xbd782bbb	-0.06058858
54	0x3ce728b2	0.028217647
55	0xbd0df60a	-0.03465847
56	0xbd859d7a	-0.06524177
57	0xbcdd4e99	-0.027015017
58	0xbd162c7b	-0.036663514
59	0x3cbf506a	0.023353774
60	0xbc80861b	-0.015688946
61	0x3d86e606	0.06586842
62	0xbce352df	-0.027749477
63	0x3d52d58f	0.051473197
64	0xbbf92a3c	-0.0076039117
65	0xbd315750	-0.04329616
66	0xba7363c8	-0.0009284583
67	0xbdcc5c04	-0.09978488
68	0xbc983b82	-0.018583063
69	0xbd12928b	-0.035784286
70	0x3d143e68	0.036192328
71	0x3db70c35	0.08937875
72	0x3be6a99c	0.007039262
73	0xbd0a1cd7	-0.03371891
74	0xbd6aaa66	-0.05729141
75	0x3d20f725	0.039298195
76	0xbc7993ea	-0.015233019
77	0x3d498fdc	0.04920946
78	0xbcd922c7	-0.026505841
79	0xbcc6c164	-0.024262138
80	0xbd762294	-0.06009157
81	0x3b96d22d	0.0046026916
82	0xbd06a4e9	-0.032872114
83	0x3d957ea0	0.072995424
84	0xbd1fddf4	-0.03903003
85	0xbd33ffdf	-0.04394519
86	0xbb7c58c5	-0.003850506
87	0x3da9e339	0.082952924
88	0x3cc57f36	0.02410851
89	0x3c6d7bc9	0.014494845
90	0xbd8748ed	-0.06605706
91	0xbc2b4b73	-0.010455
92	0xbd8724ac	-0.065987915
93	0x3c8aedf7	0.016959174
94	0xbd9fdc0f	-0.07805645
95	0xbd889c78	-0.06670469
96	0x3d6d0c93	0.05787332
97	0xbc935984	-0.01798702
98	0x3b2532dd	0.0025207319
99	0xbd48d873	-0.049034547
100	0x3d94d4de	0.07267164
101	0xbd8f8735	-0.070082106
102	0xbd8e178f	-0.06938087
103	0xbd3c2cbc	-0.0459411
104	0xbd99f8ab	-0.07518133
105	0xbd959cc5	-0.07305292
106	0xbdb95b07	-0.09050565
107	0xbb06aefe	-0.002055108
108	0xbd997a92	-0.074940816
109	0xbd89554d	-0.06705723
110	0xbda09d34	-0.07842484
111	0xbdabeb66	-0.08394508
112	0x3cb99d3d	0.022657985
113	0xba9494b9	-0.0011335827
114	0xbdb8893f	-0.090105526
115	0x3aaf36c7	0.0013367765
116	0xbd230b85	-0.039805908
117	0xbae24a44	-0.0017264565
118	0xbd41225a	-0.0471519
119	0x3c9af08f	0.018913535
120	0x3c814204	0.015778549
121	0x3c14ea7c	0.009089109
122	0x3b928076	0.00447088
123	0xbc21fbeb	-0.009886722
124	0x3d349560	0.044087768

output_layer.weight f4 [10, 125]
0	0x3d1dcf63	0.038527858
1	0xbd9864ab	-0.07441076
2	0x3d9d7ad4	0.07689443
3	0x3df612c0	0.12015295
4	0x3dc0a393	0.09406199
5	0xbded47dd	-0.115859725
6	0xbc842a6d	-0.016133511
7	0x3dfcf22e	0.123508796
8	0x3dc52bf6	0.096275255
9	0x3d2077ff	0.039176937
10	0xbe324cd1	-0.17412116
11	0x3da8f4e2	0.08249833
12	0x3e15e4cc	0.1463806
13	0xbdfc64a4	-0.12323883
14	0xbe2eb47b	-0.17061035
15	0xbe0dcf9b	-0.13848726
16	0xbe00cad7	-0.12577377
17	0x3e436624	0.19081932
18	0x3d80000b	0.06250008
19	0xbe191e54	-0.14952976
20	0x3e23c922	0.15994695
21	0x3e2a7b2f	0.16648553
22	0xbdec9ae1	-0.11552978
23	0x3d96fbc3	0.073722385
24	0x3e01a4de	0.12660548
25	0x3ba77bbb	0.0051111854
26	0x3e009612	0.12557247
27	0x3bc66fe8	0.0060558207
28	0xbdb4487e	-0.08802889
29	0xbc96e86f	-0.01842138
30	0xbd28961a	-0.041158773
31	0xbda0eb0d	-0.078573324
32	0xbdf0e511	-0.11762441
33	0xbd4ea095	-0.05044611
34	0xbb66299f	-0.0035120023
35	0x3e121892	0.14267185
36	0xbda9a77e	-0.082839
37	0xbe57bed6	-0.21068892
38	0x3c31c909	0.010851153
39	0x3db42685	0.087964095
40	0x3dc10206	0.09424214
41	0xbd8ec2d4	-0.06970754
42	0x3e176bc9	0.1478721
43	0x3e080bdd	0.13285775
44	0xbce4439a	-0.027864266
45	0xbd91150a	-0.07084091
46	0x3dca4316	0.09876077
47	0xbde1ad41	-0.11019374
48	0x3de5f661	0.11228634
49	0xbd14022d	-0.036134887
50	0xbe1ed9b9	-0.15512742
51	0xbcb165a4	-0.021654911
52	0x3dba2a7e	0.09090136
53	0xbcd844e1	-0.026400032
54	0xbd01f9bc	-0.031732306
55	0xbba4a207	-0.005024198
56	0xbd3c4f7f	-0.04597425
57	0xbe4e9636	-0.20174488
58	0x3d242982	0.040078647
59	0x3bb6e6e6	0.0055817245
60	0xbd6f8e71	-0.058485452
61	0xbe159299	-0.14606704
62	0x3c6ec3fe	0.014573095
63	0xbd584722	-0.052802213
64	0x3dbe3138	0.092867315
65	0x3d93b472	0.072121516
66	0x3dcb82ea	0.09937079
67	0x3bce7403	0.006300451
68	0x3d7c9d5f	0.06167352
69	0x3db98969	0.09059412
70	0xbe3393e7	-0.17536889
71	0x3d8e728b	0.06955441
72	0x3e04c2c2	0.12964919
73	0xbda3014a	-0.0795923
74	0xbe22e957	-0.15909325
75	0xbe2b5f34	-0.16735536
76	0x3e1dd8d5	0.15414746
77	0x3e077760	0.13229132
78	0x3d1dcbe7	0.038524535
79	0x3d989ec3	0.074521564
80	0xbe0da045	-0.13830669
81	0xbda04675	-0.078259386
82	0xbe15cb04	-0.14628226
83	0x3e0f641c	0.14003032
84	0xbe27b8b7	-0.16379057
85	0x3d554388	0.052066356
86	0xbd23ddb5	-0.04000636
87	0xbcf10477	-0.029421074
88	0x3e3db34c	0.18525428
89	0x3e29a403	0.16566472
90	0x3e110b21	0.14164402
91	0x3d36e69f	0.04465353
92	0xbd9ccc8b	-0.07656201
93	0x3e28f889	0.16501059
94	0xbe00f083	-0.12591748
95	0xbd551c2d	-0.052028824
96	0xbe0641ca	-0.13111034
97	0xbe1804d3	-0.1484559
98	0x3e36af50	0.17840314
99	0xbd2dfc8d	-0.04247718
100	0xbdcf1c34	-0.10112801
101	0x3dee808d	0.11645613
102	0x3ba51f61	0.005039141
103	0x3dc58d8e	0.0964614
104	0xbe01eea3	-0.12688689
105	0xbd831ad7	-0.06401604
106	0xbd16ffc7	-0.036865022
107	0x3e0f4d50	0.13994336
108	0xbcae6834	-0.021289922
109	0xbe0dec3b	-0.13859646
110	0x3e00ceb7	0.12578855
111	0xbe3b1f94	-0.18273765
112	0x3e05e667	0.13076173
113	0xbe2fd259	-0.17170085
114	0x3cdfab86	0.027303468
115	0x3ddf4624	0.1090205
116	0x3e061b2f	0.13096307
117	0xbe09c9c3	-0.13455872
118	0xbe03af63	-0.12859873
119	0x3e15098d	0.14554425
120	0x3d91023a	0.07080503
121	0x3df2eb5f	0.118613
122	0xbcb4246d	-0.021990025
123	0xbdd4918a	-0.10379322
124	0x3b25e2d1	0.0025312195
125	0xbe1a2d19	-0.15056266
126	0x3dfa643b	0.12226149
127	0xbdf03bb0	-0.117301345
128	0xbdb5fbd8	-0.08885926
129	0xbe1cae38	-0.15300834
130	0x3e2ab1c9	0.16669382
131	0x3d42a01a	0.047515966
132	0xbded3ad5	-0.11583487
133	0x3da9c4e8	0.0828951
134	0x3e2b319f	0.16718148
135	0x3dbfbd3c	0.093622655
136	0x3dfc0001	0.12304688
137	0xbd56970a	-0.052390136
138	0x3d717359	0.058947895
139	0x3df7c88d	0.12098799
140	0x3d8be365	0.068304814
141	0x3d63b64d	0.055593777
142	0x3d86502a	0.06558259
143	0xbe07c292	-0.13257816
144	0x3dc7fe9f	0.09765362
145	0xbe0330da	-0.12811604
146	0x3b4087d8	0.0029377844
147	0xbe3c6607	-0.18398295
148	0xbda43307	-0.08017545
149	0x3d013e73	0.031553697
150	0x3e2121f5	0.1573561
151	0x3dfccd40	0.12343836
152	0x3dd98902	0.10621835
153	0xbde365f9	-0.11103434
154	0x3e2cfa84	0.16892439
155	0x3d9bb59a	0.07602997
156	0x3d63f341	0.055651907
157	0xbda852dc	-0.08218929
158	0x3bd8514c	0.006601488
159	0xbd2e11a5	-0.042497296
160	0xbdacd3af	-0.08438813
161	0x3ddf512d	0.10904155
162	0xbe24b76c	-0.16085595
163	0x3c4f4af2	0.012652146
164	0xbd30bc26	-0.043148182
165	0x3e05bb02	0.13059619
166	0x3d160a89	0.03663114
167	0x3d469c25	0.048488755
168	0xbdb453e7	-0.088050656
169	0x3e1405d5	0.1445535
170	0x3db9ef82	0.090788856
171	0x3c4d7237	0.012539438
172	0xbdaedfc7	-0.08538776
173	0xbe0ce9ca	-0.13761058
174	0xbe3cf6c9	-0.18453516
175	0xbdce9ae1	-0.100881346
176	0x3d3bcc33	0.045849036
177	0x3dc76117	0.09735315
178	0x3e11d1be	0.14240167
179	0x3e12564d	0.14290734
180	0xbd792693	-0.060827803
181	0x3e00475c	0.12527221
182	0xbdb39cee	-0.08770166
183	0xbd94c83e	-0.07264756
184	0xbe2417ac	-0.16024655
185	0x3e29bd55	0.1657613
186	0xba396fd8	-0.0007073856
187	0xbdcd2752	-0.100172654
188	0xbe24799f	-0.1606202
189	0xbcd33261	-0.025780858
190	0xbdf4e10b	-0.11956986
191	0xbe103ab4	-0.14084893
192	0xbe25e806	-0.16201791
193	0x3d1f60b4	0.038910583
194	0xbdab7f0b	-0.08373841
195	0x3b808f33	0.0039233207
196	0x3e223901	0.15842058
197	0xbdac5faa	-0.08416684
198	0xbb921d88	-0.004459087
199	0xbe195418	-0.14973485
200	0xbbb804ab	-0.005615791
201	0xbde5c284	-0.112187415
202	0xbd2ed938	-0.042687625
203	0xbd8d987a	-0.06913848
204	0x3d3259e1	0.043542746
205	0x3cbc8c7e	0.02301621
206	0x3cfb43fc	0.030672066
207	0xbd821117	-0.06350916
208	0x3e06e7b3	0.13174324
209	0x3dfb33f3	0.12265768
210	0xbe130ce1	-0.14360382
211	0xbe1dec7a	-0.1542224
212	0xbe1b1bba	-0.15147296
213	0xbe042172	-0.12903383
214	0xbd85970d	-0.06522951
215	0xbe0b13d1	-0.13581778
216	0x3e2745dc	0.16335243
217	0x3dd05465	0.10172347
218	0xbe06b655	-0.13155492
219	0xbcab154e	-0.020884182
220	0x3d833e4d	0.06408367
221	0x3dca2a67	0.09871369
222	0x3e254cf3	0.16142635
223	0xbdeb4dd4	-0.11489454
224	0x3db1953a	0.08671041
225	0x3d4d547b	0.050129395
226	0xbdf3e263	-0.11908414
227	0xbde9b682	-0.11411764
228	0x3b919ec0	0.0044439733
229	0xbe0993f9	-0.13435353
230	0x3e156520	0.14589357
231	0x3ca856ec	0.02054926
232	0xbdaaace2	-0.08333756
233	0x3cfbc640	0.030734181
234	0xbcccd821	-0.025005402
235	0xbe12d1ca	-0.1433784
236	0x3d88f970	0.066882014
237	0x3e1bb393	0.15205221
238	0x3df11be8	0.11772901
239	0xbd17c2c5	-0.03705098
240	0x3d33af79	0.043868516
241	0xbdd634d4	-0.10459295
242	0x3e12f1cd	0.14350052
243	0x3bba270d	0.0056809247
244	0xbdea897e	-0.11452006
245	0xbde009e4	-0.109393865
246	0xbd97c6af	-0.07410943
247	0x3e17151f	0.14754151
248	0xbcc26e12	-0.023734126
249	0xbd9fc3ae	-0.07800995
250	0x3e10937c	0.14118761
251	0x3e1ca000	0.1529541
252	0xbd88facd	-0.066884615
253	0xbda5fec4	-0.08105233
254	0xbe03d105	-0.12872703
255	0x3d2fdf65	0.042937655

output_layer.bias f4 [10]
0	0xbdbe199d	-0.09282229
1	0x3d2c76e2	0.042105563
2	0xbd562172	-0.05227799
3	0x3da3f77b	0.080061875
4	0x3caf6ff1	0.021415683
5	0xbc724f50	-0.014789417
6	0x3d0095df	0.03139293
7	0x3d816e4b	0.06319865
8	0x3cef717a	0.029228915
9	0xbd14d462	-0.036335357
