Results/BayesianResult2/best_model_weights.pt (torch, 393334 bytes, 6 tensors)

hidden_layers.0.weight f4 [108, 784]
00000000: 8d3d fe3c faf9 c43b fcf2 1f3c 0ccc 9cbc
00000010: 5ade e13b e47a bc3c 5b6c 273d 1a17 803c
00000020: a3c1 1a3d 3ffe 0b3d 0632 c4bc fe1c 9b3a
00000030: e78e 263d 4cdc 65bc 3eec 8c3c baa2 86ba
00000040: a267 e8bb 0040 95ba eabe d93c f85b e93b
00000050: 4d11 95bc 0629 ca3c 8899 c2bc feaf cd3c
00000060: 8870 cebc a4df 263c b65b c03c 3448 a239
00000070: 9037 5f3c 3a3a 9dbc 0a23 b33c b47e d23b
00000080: 1de0 fa3c a260 7fbc d5aa 7cbc dac1 90bb
00000090: c883 bc3c 915f 103d b43d 4e3c d43a a5bc
000000a0: 3ca1 bfbc 19f9 b3bc b0d8 e6ba 5ea2 cdbb
000000b0: 0578 30bc 52af 813a c251 7c3c 233e 443c
000000c0: de29 993c a8b3 28bc 143e 54bb cc75 ce3c
000000d0: 6852 6bbc b8ec 24bc e9c8 0e3d 05c1 2a3d
000000e0: ac2c c23c 7f99 123d 949f e73c e06a da3b
000000f0: a66b f639 f8a6 76bc 9f84 1f3d e8d0 a0bb
00000100: 019f 2f3d 77d7 cdbc 9272 2a3c 14c2 80bc
00000110: af4c 70bb 5edd 9c3c fbdf 0fbd 9d81 213c
00000120: c694 94bc 888e eeba 60ff 38bc a6aa 5a3c
00000130: ded7 913c b026 4ebc b253 ea3c dfd3 8cbc
00000140: 13ba 763c 84e0 843c 13b8 193d 00f3 233c
00000150: b29d ae3b 0f44 f43c 89ba 073d 3cae 98bc
00000160: ccb2 e83c e6d1 acbb cbb3 e83c 9c06 293d
00000170: f9a8 fb3b accb 2cbc de87 e53b fc9c fcbc
00000180: 6472 22bd 0be9 3dbd a4b1 05bd bcd6 efbc
00000190: 639c 2fbb ab89 ca3c 706f adbc a04b da3b
000001a0: d39a de3c f012 103c 0ae0 d83c 6bab 073d
000001b0: b3c1 843c 311b fd3c fe1b bf3c 3647 cabc
000001c0: 9a52 853c a42f 3abc 1c28 bd3b a917 0c3d
000001d0: 6f32 843c d22e 39bc 8436 4fbc 6af1 333c
000001e0: d399 4dbc e41b e63c 0e64 0e3d cd1f 05bd
000001f0: 872a 2ebd f2f8 93bd a36a e1bd 8152 36bd
00000200: 21a9 7fbd 7194 58bd 49b6 3dbd e39d e8bc
00000210: ff1c 78bc fbf3 8a3c 6f3e 1bbc 70e2 74bc
00000220: 1628 5cbc 0505 f03b 2884 6ebc 478a 213d
00000230: 6ee1 cf3c 11d3 2b3d 800a aa3b 1837 2e3c
00000240: 25f9 cb3c a148 9fbc 8f79 ccbb ea63 2a3d
00000250: 1d1f 7c3c b778 98bc 140a 823b 8b85 fbbc
00000260: 3fdc 12bc 7c45 7cba 648a 8bbc eb08 8cbd
00000270: 23a6 ddbd 9ea5 a3bd 02b9 d2bd 2c20 5bbd
00000280: f4a4 01bd 2c24 503b bc16 fe3c dd67 f3bb
00000290: e7ec 123d c8dd 9dbc 5faf 68bc cb5c aa3c
000002a0: 56b5 5abc 1683 4bbc 2679 5cbc 3f1b f13c
000002b0: e82b 42bc f071 39bc e6f0 78bb ea31 d23c
000002c0: a8b2 923c 612b 3d3c 13dc 5b3c 404a 2fbd
000002d0: 2425 bebc 7b77 bb3c 196c fb3c c9b8 36bd
000002e0: 21b2 9bbd d541 b9bd f4d5 c5bd f134 7dbd
000002f0: abca f03b e8a4 21bd af5d 003d aac9 913c
00000300: 80dd 65bb d941 e8bc 84f9 1abc 1d55 13bb
00000310: 4e88 d1bc b9c8 34bc e7bd bf3c 5a46 b7bc
00000320: f246 f93c 84aa 19bc 714e 1bbd 6f0f 933c
00000330: 738d 893c 9f03 243b c797 d7bc 4045 a6bc
00000340: c50f 8abc 0f26 893c d0a5 a3bc 98dc 9ebd
00000350: 2d63 bbbd 83e8 a1bd 50f2 81bd f80b febc
00000360: 7b8f 33bd bb50 edbc a761 c3bc aaf8 c9bd
00000370: 1aec 6bbd b53e f1bc 6d16 90bb 8cee b2ba
00000380: ccaf d43c 974b a33b 2da6 ba3c d8bd ba3b
00000390: 28ca a73a f4b1 9e3b b8f6 753b c279 afbc
000003a0: a941 2fbc 9c3d 8cbd 2d59 f2bb 1268 44bd
000003b0: f032 6c3b ddd3 063d 1dbc bebc 99fc bbbd
000003c0: 8cb7 a0bd 2273 51bd f8a6 3bbd 7413 1d3b
000003d0: 22e5 a3bd 9b28 40bd ae2f 87bd 6764 84bd
000003e0: 7716 2cbd 2888 5dbd 1bcd ea3c b72c f5bb
000003f0: 7084 dc3c d2ff 2ebc bef0 58bc 5025 183d
0.03103521 0.006011245 0.009762522 -0.019140266 0.0068929614 0.023007818 0.04087482 0.015636016
0.037782323 0.034178015 -0.023949634 0.0011834202 0.040663626 -0.014029574 0.017202493 -0.0010271885
-0.007092432 -0.0011386871 0.026580293 0.007121559 -0.018196726 0.024677765 -0.02375485 0.025108334
-0.025200143 0.010185156 0.023481231 0.00030952843 0.013624087 -0.019192804 0.021867294 0.0064237956
0.030624444 -0.015587004 -0.015421589 -0.00441764 0.023012057 0.03524739 0.012587953 -0.020169653
-0.023392312 -0.021969365 -0.0017612185 -0.006275459 -0.010770802 0.0009894168 0.015400352 0.011977705
0.018696722 -0.01029674 -0.0032385634 0.025202654 -0.014362909 -0.010066204 0.03485957 0.041687984
0.023702942 0.035790917 0.028274335 0.0066655725 0.0004700098 -0.015054457 0.038944837 -0.004907716
0.042876247 -0.025127156 0.010403292 -0.015717544 -0.00366668 0.019148525 -0.035125714 0.009857562
-0.018137347 -0.0018200437 -0.011291355 0.01334635 0.017803129 -0.012582466 0.028604362 -0.017190872
0.015059012 0.016220339 0.037529062 0.010006666 0.0053288573 0.02981761 0.03313688 -0.018637769
0.02840557 -0.0052740453 0.028406044 0.04126607 0.007680055 -0.010546606 0.007004722 -0.030836575
-0.039659873 -0.046364825 -0.032640114 -0.029277198 -0.0026796095 0.024723848 -0.021171302 0.0066618472
0.027173435 0.008793578 0.026474018 0.03312246 0.016205644 0.030896755 0.023328777 -0.02469216
0.016274739 -0.0113638975 0.0057726037 0.03420225 0.01613733 -0.011302667 -0.012647275 0.010982851
-0.012548882 0.028089471 0.03476339 -0.03250103 -0.042521026 -0.07225217 -0.110066675 -0.044512276
-0.062417153 -0.05287594 -0.04631642 -0.028395599 -0.015143632 0.016962042 -0.009475335 -0.014946565
-0.013437292 0.007324817 -0.014557876 0.039438512 0.025376048 0.041949335 0.00518924 0.010633253
0.024899075 -0.019443812 -0.006240077 0.04159919 0.015388277 -0.018612249 0.0039684866 -0.030703327
-0.008963644 -0.0009623391 -0.017033763 -0.068376385 -0.10822704 -0.07990573 -0.10289194 -0.05349748
-0.031651452 0.0031759841 0.0310167 -0.007428153 0.03587046 -0.019270793 -0.014201968 0.0207962
-0.013348898 -0.01242139 -0.013456618 0.029431937 -0.011851288 -0.011318669 -0.0037985384 0.025658567
0.017907456 0.011545987 0.013419169 -0.04279542 -0.02321107 0.022884121 0.030691193 -0.04460982
-0.07602335 -0.090457596 -0.09659949 -0.061818067 0.0073483787 -0.039463907 0.031339344 0.017796356
-0.0035074651 -0.028351711 -0.009458903 -0.0022481151 -0.02557769 -0.011034184 0.023405982 -0.022372413
0.030429337 -0.009379033 -0.037916604 0.017951695 0.016791081 0.0025026572 -0.02631749 -0.020296693
-0.016853223 0.01674178 -0.019976526 -0.07756919 -0.09149776 -0.07905676 -0.063450456 -0.031011567
-0.043838006 -0.02896916 -0.023850275 -0.09861882 -0.05759821 -0.029448846 -0.0043972046 -0.0013651415
0.025962733 0.0049833762 0.022784317 0.0056989007 0.0012801336 0.004842991 0.003753109 -0.021420363
-0.010696807 -0.068476886 -0.0073958845 -0.04795081 0.0036041103 0.032916892 -0.023283059 -0.091790386
-0.07847509 -0.05113519 -0.04581353 0.0023967894 -0.08002688 -0.046913724 -0.06600891 -0.06464463
-0.04201361 -0.054084927 0.028662255 -0.007482137 0.02691862 -0.0106811095 -0.013240991 0.03714496

hidden_layers.0.bias f4 [108]
00000000: 62c0 1ebc 73df 713c 11ec 9a3c 5c43 043d
00000010: 2205 ee3c 69a0 bb3b 02fb 213d d3ad bbba
00000020: 4b2e a93c a7f5 163d 90c5 3ebd 177c 1e3d
00000030: 2488 ce3b a3fa c9bc 4046 0b3d 25aa abba
00000040: b478 ca3c b38b 8ebc cfd7 a83b 2839 353c
00000050: 5af8 b8bc b6b5 16bd 00f7 773c bfa8 8f3c
00000060: 1e5e b0bb ad29 eebc b1c0 c53c 776a 883b
00000070: 81cd ba3c a6ef f0bc c35a b1bc af1f 1dbc
00000080: c517 8cbb 3fcb 06bd bb4a 50bc 3799 01bc
00000090: 84d2 6e3b 10ab 08bd fed5 f73b e81b 98bc
000000a0: b89b e9ba acd4 c2bc 9fab bc3c 682d 25bc
000000b0: d92e 2539 5725 0c3c 2a9c 08bd 5be1 55bc
000000c0: 207c 933c dbac 0c3c f0f7 53bc 9cce 07bd
000000d0: 732e 96bb 943f af3b 4160 3c3c a429 c43c
000000e0: 565c 0e3c edc2 813c c08b 0e3c 573c d0bc
000000f0: 3b91 a03c e6e7 c0bc 4d2f bf3c 824f e83c
00000100: e361 b53c de24 90bc d3f0 26bc 1aac 85bc
00000110: 420c 883c 572f 00bd 4ee3 43bc 54c4 12bb
00000120: ebec f0bc 1abc fd3c c924 92bc 40a3 123c
00000130: 14ee 01bd 7d88 12bc ce40 4b3c 0d73 e7bc
00000140: a328 8abb 8077 0dbd 21bb 163b 09d1 8e3c
00000150: 1be8 4f3c d2f8 c03c e685 663c 64ac dcbb
00000160: 8df7 cdbc 3da1 e13c c082 e739 9ece f7bb
00000170: 1d52 ff3c 97c6 67bb a5a1 ec3b 03cd 863c
00000180: 2a65 99bc 0345 b73c 145c eebc de34 eb3c
00000190: 90e0 083a 03ae 1cbc 8406 e3bc d8c0 78bc
000001a0: ce86 8a3b ff12 19bc 99c1 03bd ebef 7e3c
-0.009689422 0.014762747 0.018911393 0.0322908 0.029055182 0.0057259095 0.03954602 -0.0014318771
0.020651957 0.036855366 -0.04657513 0.03869256 0.0063028503 -0.024655646 0.034002542 -0.0013096972
0.024715759 -0.017400598 0.0051526795 0.01106099 -0.02257936 -0.036794387 0.015134573 0.01753652
-0.0053823134 -0.029072607 0.024139734 0.004163082 0.02280307 -0.029411148 -0.021649724 -0.0095900735
-0.0042752945 -0.032908674 -0.01271313 -0.007910064 0.0036441395 -0.033366263 0.0075633517 -0.018567994
-0.0017822897 -0.02378305 0.023031054 -0.0100816265 0.00015753078 0.008553824 -0.033352055 -0.013054217
0.018003523 0.008586134 -0.012937531 -0.033156022 -0.004583174 0.0053481553 0.011497558 0.023945637
0.008689007 0.015840018 0.008700311 -0.025419397 0.019600501 -0.023548078 0.023337984 0.028358225
0.022141403 -0.017595705 -0.010189253 -0.016317416 0.016607407 -0.031295147 -0.011956049 -0.0022394853
-0.029409846 0.030973483 -0.017839806 0.008950055 -0.03172119 -0.008943674 0.012405587 -0.028253103
-0.00421627 -0.034537792 0.002299972 0.01743366 0.012689616 0.023556147 0.01407001 -0.0067344178
-0.025142455 0.027542705 0.0004415717 -0.0075624725 0.031167084 -0.0035366172 0.007221418 0.01645518
-0.018724997 0.022371775 -0.02909664 0.028711732 0.00052214507 -0.009562972 -0.027713068 -0.015182696
0.0042274958 -0.009342908 -0.03216705 0.015560131

hidden_layers.3.weight f4 [108, 108]
00000000: 8b90 203e 0b96 7f3c ef70 3d3d ebc5 3d3d
00000010: de90 7abd ad72 cbbd 7349 07bc b331 8d3c
00000020: 7834 9a3d d0c4 d13d 691d ad3b 3f31 82bd
00000030: 181c 493d d39f 253e 713d 1ebe 24cc 1d3d
00000040: 9ad5 2f3c fbbd a0bc ff17 e03d c936 2a3e
00000050: e392 993c dfa5 c4bd 6000 13be e212 003e
00000060: 5101 20bc 5b58 7d3d 28ee f0bd 01da 153d
00000070: ca79 e4ba ea25 44bd 8bac e33d 33c0 173c
00000080: 8b02 213e ff66 afbd e8f7 a7bd 264d bcbd
00000090: 7ec8 a6bc e41f 89bc 4dad 383e 90ac e3bc
000000a0: 6182 42bd 0fad aabd ec21 34bd 077c bb3d
000000b0: d83d 63bc c166 763d da82 993d dad1 403d
000000c0: 86b8 003d 5a47 b1bd af0b 083e e87f 04be
000000d0: e7f9 e13c 0d5c 02be 4039 d83a ce2d 063b
000000e0: 2030 5c3b 75bc 30bc 1b15 b5bd 8342 083e
000000f0: 974c 663d 713d acbd fe93 1d3e 65f5 e73d
00000100: b295 babd 4393 e53c cc11 8f3c 12bb e0ba
00000110: 1bf9 c2bd 4274 7e3d 09d2 60bb 3a39 513d
00000120: 9956 aebc 7130 423d 3c4f 01bd 4b4e 00be
00000130: 003e 98bd 31ec e63c 5c52 903d 967a 583d
00000140: 1206 e33d c0b2 abbc 3873 d0bb 3e4e 433d
00000150: ab44 1a3e 212b e13d 28ef 0abe 4b48 803c
00000160: c1c3 6c3d c418 773d e873 d9bc c7f3 cebc
00000170: 7048 a73d a2ea 193d 124d 943d 8919 f03d
00000180: 5c2f ef3c bea5 45bd a187 353c 78f4 14bd
00000190: 0b83 9bbc 25f0 053d 174d 9d3d e602 0bbe
000001a0: 11ac e03c ae75 0fbd 3aa2 963c 224c 4abd
000001b0: 7d7d 33bd 1e04 8fbd 79ca adbd 022a c5bd
000001c0: 39a8 ca3c bd0f 053e 4730 123d 9f22 fe3d
000001d0: 7bdf 6d3d b8bf e1bd a9fe b8bd 2a74 2b3c
000001e0: 43e4 bbbd afee 2f3c 7176 c5bc b506 c83d
000001f0: a76b dfbc f14d ca3d 24ee 153d abfc 8c3b
00000200: 5136 4a3e 779e 913c 1e22 0bbc f1be 5f3d
00000210: 127c 13be 9c30 afbd 46b5 743d b0d8 163e
00000220: a920 8fbd 21ee 06be 9028 413d 1e16 dfbd
00000230: cac1 8dbd a360 bb3d aa2c 47bc 7c63 233e
00000240: 5941 923d e27b de3d f68c 923b 397b 9bbc
00000250: 5603 b9bc 4dbe 363d f113 bc3d 6fd8 9b3d
00000260: 1dfc f9bd 1612 c6bd 2941 a63d dbea 73bd
00000270: 1263 6fbd d7b2 8fbc 788f ea3c fbfc 0d3e
00000280: 0d71 ae3d 3a30 8e3d c39c 5cbd 0550 5c3d
00000290: 7638 573d 63ab a6bd 8e99 b73d 19bd b7bd
000002a0: 12f4 843d dbd1 083e c5f0 2dbe 1d09 a7bd
000002b0: 18dd edbc f5d1 c63b dc11 ca3d aa05 453d
000002c0: e9fc 6f3d b381 913d 6c06 aabd d37d 8b3d
000002d0: 0c41 6dbd c4c7 07be f6da 57bd c6ba 953c
000002e0: 96f2 adbd 0986 ac3c fb25 02be 955b 643d
000002f0: 5b09 c9bd 61e6 e9bd 23ed 7fbd 228e e3bd
00000300: d639 01bd 5652 18bd 65c9 9a3c 62cf f0bc
00000310: a05e 4dbd 6a7f 573d 5e79 cdbd c7ad 74bd
00000320: 440c 663c 7fdd 2e3c 65ab 9b3d 9452 15bc
00000330: cd5f 413d a28d 98bd a6c3 2b3d 64bb 12bd
00000340: b495 88bd e85c 613d 2461 b1bd 2a1b 573e
00000350: 1c85 bb3d 0c18 f1bd 6af4 f53d 2bbf c03d
00000360: 47c9 423d d600 50bd 3432 1a3d 065f f2bb
00000370: bfb9 113e f4ef a43c 5035 f0bc 5e8e fabc
00000380: 12ca 483d d4f8 1fbe 5c40 723d 26c8 363d
00000390: 920a 703d 8e2b fe3d 9353 d0bd ed24 b5bc
000003a0: d958 1b3d 4dd9 c3bd 2e5a 08be 8a90 a8bc
000003b0: f336 123c ba5f 883d a995 ac3d a1d8 5ebd
000003c0: afbf c1bd 6899 5ebd 4549 bf3d b1b6 04bd
000003d0: 953e b53c e508 22bd 574d 183d d4c8 c73a
000003e0: f6ce 43bd e683 ebbc 158e acbd c92c 323d
000003f0: a71e 953d 46c9 0abd 5711 4c3c c519 d4bd
0.15680139 0.015599738 0.04625028 0.046331327 -0.061173312 -0.09933982 -0.008257258 0.017235612
0.07529539 0.10242617 0.005283047 -0.06357049 0.049099058 0.1617425 -0.15453126 0.03852476
0.010732079 -0.01962184 0.10942077 0.16622461 0.018746799 -0.0960195 -0.14355612 0.12507203
-0.009765939 0.06185184 -0.11764175 0.036584858 -0.0017431316 -0.04788772 0.11116894 0.009262132
0.15723626 -0.08564567 -0.08201581 -0.091944024 -0.020359274 -0.01673884 0.18034859 -0.027792245
-0.04748762 -0.083337896 -0.043977663 0.09154516 -0.013869725 0.060156588 0.07495661 0.04707513
0.031425975 -0.08656187 0.13285707 -0.12939417 0.027584983 -0.12730427 0.0016496554 0.002047408
0.003359802 -0.010787119 -0.08841916 0.13306622 0.056225386 -0.084101565 0.15388486 0.11326102
-0.09110583 0.028024321 0.01746454 -0.0017145595 -0.09520169 0.06212259 -0.0034304878 0.051079966
-0.021281527 0.04740948 -0.031569704 -0.12529866 -0.074337006 0.028188797 0.07046959 0.052851282
0.11085142 -0.020959258 -0.0063613914 0.04768204 0.15065257 0.10994554 -0.13567793 0.015659472
0.057803873 0.060326353 -0.026544526 -0.025262726 0.08168113 0.03757728 0.072412625 0.117236204
0.029197387 -0.048253767 0.0110797 -0.036365956 -0.018983385 0.032699723 0.07680719 -0.13575324
0.027425798 -0.035024337 0.018387903 -0.049389012 -0.043820847 -0.06983207 -0.08485884 -0.09627153
0.024738418 0.12994285 0.035690572 0.12408947 0.058074456 -0.110228956 -0.090329476 0.010464707
-0.09174397 0.010738059 -0.024104329 0.09766904 -0.027273012 0.098781474 0.03660406 0.0043025813
0.19747283 0.017775757 -0.008492021 0.054625455 -0.14402798 -0.085541934 0.05974319 0.14731097
-0.06988651 -0.13176776 0.047157824 -0.108928904 -0.06921728 0.09149291 -0.012156645 0.15955919
0.0714137 0.108634725 0.0044723703 -0.018979656 -0.022584599 0.04461508 0.09183491 0.07609641
-0.1220629 -0.09671418 0.08117897 -0.059550148 -0.05844409 -0.017541332 0.028632864 0.13866036
0.085176565 0.06942792 -0.053860437 0.05378725 0.05254408 -0.08138158 0.08964835 -0.089716144
0.06491865 0.13361304 -0.16986378 -0.08156035 -0.02903609 0.0060675093 0.09866688 0.048101105
0.058590803 0.07104816 -0.08302006 0.068111084 -0.05792336 -0.13259798 -0.05269905 0.018277537
-0.08493535 0.021060007 -0.12709801 0.055751402 -0.098162375 -0.114208944 -0.06248201 -0.11111094
-0.031549297 -0.037187897 0.01889486 -0.029395763 -0.05013907 0.052611746 -0.100329146 -0.05973604
0.01404101 0.010672926 0.0760105 -0.009113926 0.047210503 -0.07448889 0.04193463 -0.03582324
-0.066691786 0.055020243 -0.08661106 0.21006456 0.09156248 -0.11772165 0.12009509 0.094114624
0.047555234 -0.050782047 0.037645534 -0.0073965816 0.14231013 0.02013395 -0.029322296 -0.030585464
0.049020834 -0.15622264 0.05914341 0.04462447 0.05860383 0.12410651 -0.101721905 -0.022112334
0.03792653 -0.09562931 -0.13315651 -0.020576734 0.008924234 0.066588834 0.08426983 -0.054405812
-0.09460389 -0.05434552 0.09340147 -0.03240079 0.022124568 -0.039559264 0.037183132 0.0015242347
-0.047804795 -0.028749418 -0.084255375 0.04349974 0.07281237 -0.033883356 0.012455306 -0.10356478

hidden_layers.3.bias f4 [108]
00000000: c0bb 3fbc 1585 8dbc b4a2 48bd 8271 953d
00000010: fa06 0cbd 2dd7 04bd 81c4 30bd 593d 693d
00000020: 1e91 8fbd ffac 173d 9c55 6e3d 1168 943d
00000030: 2351 a43d a654 8e3c 3f2f b63d eac2 45bd
00000040: 6ace 95bd d0e1 c1bd 1541 fdbc ed37 943d
00000050: 10e3 473d 6159 a43d 4416 1f3c 759f 383c
00000060: ff00 c33c b984 a23d 78a7 063d 65cf fbbc
00000070: 4155 b23d e555 14bd 615e 31bd 061b 11bd
00000080: dd71 60bc 3e52 a1bd 3619 8b3d 31af 713d
00000090: 8755 a83d 1ae5 cebd ab95 10bc b0a1 3d3b
000000a0: c76f 103d 681a 3b3d 4120 803c 6652 b63d
000000b0: d1da 83bc f020 8e3b 7187 b03d 7418 763c
000000c0: 825d b1bd c04d 7a3d 632f 583d 13ef 8abd
000000d0: d5b4 fa3c a41f bf3d 7984 dfbc c2c3 83bd
000000e0: 7898 6e3c 6a67 54bd c372 19bd b524 53bd
000000f0: f921 37bc 8235 d13c 42e9 7abd 1596 603d
00000100: b9ab 5bbd 3383 86bd b7ff a03d 1ece 8b3d
00000110: 2f2a c6bd 7d07 67bd 74be 203d e91d 2bbd
00000120: 3cda 58bd 4aa2 3bbd 1802 0ebd 044a fa3d
00000130: b83b cfbd 433b 89bd 6747 a93d 1c87 ecbd
00000140: cdde 143b e923 b33c 6d67 983d 7501 ec3b
00000150: 6f34 ec3d b128 7d3c 076a 993c f4de b03d
00000160: b9ca 70bc aea7 0b3c 505c a73d aef6 703d
00000170: 96f5 883d 1ced bebc 2647 0d3d 6611 a33d
00000180: 828e 873c 0121 ee3c 2249 1fbc e3d3 93bd
00000190: ca77 6bbd 6c0f d83b bb2a 59bd 2d97 71bd
000001a0: 9023 28bd 31ae 853d 8064 a63d 0ebe 0abd
-0.011702478 -0.017275373 -0.04898329 0.072970405 -0.03418634 -0.03243177 -0.04315615 0.05694327
-0.07010101 0.037030216 0.058187112 0.072464116 0.08023288 0.017374348 0.0889573 -0.048281588
-0.07314761 -0.094668984 -0.030914823 0.072372295 0.048800528 0.0802486 0.009709898 0.011268486
0.023804186 0.07935471 0.032874554 -0.030738542 0.08707667 -0.036214728 -0.043302897 -0.035426162
-0.013699022 -0.078770146 0.06791918 0.059004966 0.08219438 -0.101022914 -0.008824746 0.0028935485
0.03526285 0.04567948 0.01564038 0.08902435 -0.01609555 0.0043374225 0.086195834 0.0150204785
-0.08660413 0.061109304 0.052779566 -0.06783881 0.030603806 0.09332207 -0.027284848 -0.06433822
0.014562719 -0.051856436 -0.03746296 -0.05154868 -0.011177533 0.02553821 -0.06125761 0.05483063
-0.053630564 -0.06567993 0.07861274 0.06826423 -0.09676015 -0.056403626 0.03924413 -0.04177657
-0.0529425 -0.045809068 -0.034669966 0.122211486 -0.10118812 -0.067007564 0.08265572 -0.115492076
0.0022715807 0.02186771 0.07441602 0.007202322 0.115334384 0.015451596 0.018727316 0.08636275
-0.01469677 0.008523865 0.08171904 0.058829002 0.06687467 -0.023306422 0.03449168 0.07962303
0.016547445 0.029068472 -0.009722026 -0.072181486 -0.057487287 0.0065936353 -0.053019267 -0.058982063
-0.04104954 0.06527365 0.081246376 -0.033872657

output_layer.weight f4 [10, 108]
00000000: 7718 1ebe 5cc2 283e ea4b 7d3e dcaf 47be
00000010: 3415 073e 852e c8bd ee2b 323e bf0e e13d
00000020: 3182 283e 6f4b 9d3c 245b 83be d4d7 4cbd
00000030: d13f 7bbe 4224 a83b 38d7 053e fa95 93bd
00000040: 25d8 4c3e 2b40 133e 4a9e 7d3d d16b cebd
00000050: f711 cf3c 4108 4abe 0176 d53c 118c 22bd
00000060: 04f7 19be 1c8d e13b e47c 45bc 7575 23bd
00000070: 7fed 4ebe 1dbd f1bd 3b7a b7bc abb0 773e
00000080: dcab 8d3d 37fa 8b3d 8699 1ebd 472e e03d
00000090: 6cb9 f7bd c266 1bbe c7b8 a73d 8c04 1dbe
000000a0: 3314 d9bd 29c5 e13d 56c7 2bbe 88fe aabd
000000b0: 3651 afbd 30eb 2ebe 37c2 69be 89c2 eb3d
000000c0: 68bc 0bbe 1c9b 57be 00ea 143e eef5 35bd
000000d0: 0f11 583d 39b6 34be fab0 09be 61e3 a23d
000000e0: c73e 2b3e 00d7 bf3d 8c12 d53d f65f 0cbe
000000f0: 218b babd 7b6e 053e cec3 0cbd e002 713e
00000100: bf56 2cbe 1238 273e a256 9a3b e9d5 c2bb
00000110: 6e56 f93d 097e 6ebe bb2c 93be 7b76 27be
00000120: e56e 883d de5b 403c a77a d1bd 7a51 2cbc
00000130: d5d1 70bd 0c7a 5cbe 26d3 81bd 401f 91bc
00000140: fd4e afbd 4453 5d3e 1c79 37bd f168 193e
00000150: e0a7 293d 032e 073e d1fd 4abc 0e03 17be
00000160: d9f9 083d e9cb 39be fd04 8dbd eeaf 6cbc
00000170: 14c8 34be 0ec2 f83d a31b 183e 0344 d63d
00000180: 92af 0d3e ab39 073e f717 7fbd e564 12be
00000190: 75b1 293e 3a88 47be 8930 72bd 08f2 d6bd
000001a0: c294 02be d5ed f63d de49 c13d 37d7 e43d
000001b0: 278f 68bb ab8a 00be 4b5f 813d 118f ba3d
000001c0: 7fa2 73be a15f 95bd 5502 2abe b28d ecbd
000001d0: 1841 0d3e 3266 303e 4a61 3abd a010 d93d
000001e0: b5be f53d b799 0b3e 1e46 3fbd cd9b d33d
000001f0: 300c 05bd 25d9 70bd aa19 37be 2b6c 41be
00000200: f948 ffbd 8718 aabd 8df2 5bbe 4b34 263e
00000210: 895a 103e 16ea c9bd bfbc 173e 7319 50be
00000220: ae5c c63d 6cbb 1a3e 49f5 3ebe e9d2 123e
00000230: 4327 ccbd 3711 243e eaf2 383d bb7f edbc
00000240: b673 313e d20d 1f3e a80d 44be 5ce0 b63c
00000250: c7b2 dbbd 0500 1cbe f5e4 293e 7614 13be
00000260: 59c5 223e 958d 163e 8541 a33d d66f 1abe
00000270: 47a3 cf3d d70d 0a3e 3103 acbc 570f 1e3e
00000280: a6f0 d8bd 5385 b53d 6fc0 eebd c972 363e
00000290: 1d7d 103e caa4 213d f0c7 12be e27c 6a39
000002a0: 8f57 243e 613d 61bd f9b2 04bd bba6 abbc
000002b0: 64bc 5bbe c220 d7bd ef8f cfbd 47c9 e73d
000002c0: b907 2ebe fae2 1d3d d52c 5ebd 274f 373d
000002d0: 6b5b ebbd e2a3 9f3d 35c6 b83d adaf 3cbe
000002e0: f10f adba a746 993d 631d 623e 3c62 033e
000002f0: c5ce c43d 697d 5f3e cbd6 2b3e 757f 3f3e
00000300: 9414 063d 87ca a3bd fb6e d23d 4db6 1c3e
00000310: d8c3 93bd 850f 87bc 5fe9 cfbd 1e76 2e3e
00000320: 0b01 2b3e b0f7 1b3d 2bdf 273e 2620 1bbe
00000330: cbb9 1abe ec3d 1a3e 5bac 3e3e 47f0 a03d
00000340: dcd2 2abe d3b6 f53d 3c1c 0fbe 21ac 0cbd
00000350: 8e2d 0ebe 20b4 9a3d 34e4 09be 0576 3cbe
00000360: faca c33d 77fc 1abe 952f 82bd 0868 ff3d
00000370: f4c1 6cbc 48eb 4ebe 1a7c 09be e5b0 c9bc
00000380: f7e0 633e 4a5c a3bb d344 2bbe 2479 2a3e
00000390: d6e8 4dbd 84ae 2abe 8460 b53d cacb 9ebd
000003a0: 0ae8 17bd a6a7 18be cd00 1abd b610 8a3d
000003b0: ad9b 423e 0184 a13d 3513 4cbe 467b 193e
000003c0: 699d 80be 0af2 223e ec0b 253e 942b 71bd
000003d0: 68fb 94bd 1863 81be 8c5d f2bd b6b4 13be
000003e0: f1c4 c93d 89fe ea3d e54f 2f3e 7023 2ebe
000003f0: 2484 1f3d 66ea b5bd ee89 393e 7ce4 1e3e
-0.1543902 0.16480392 0.2473599 -0.19500679 0.13191682 -0.09774498 0.1739957 0.10989141
0.16455914 0.019201009 -0.25655472 -0.050010517 -0.24536063 0.0051312754 0.1307038 -0.0720634
0.20004328 0.14379947 0.061918534 -0.10079158 0.025277121 -0.19729711 0.026057245 -0.03968436
-0.15035635 0.0068832766 -0.012053702 -0.039906938 -0.20207785 -0.118036486 -0.022397151 0.24188487
0.06917545 0.06834834 -0.03872063 0.10946327 -0.12095913 -0.15175918 0.0818954 -0.15333766
-0.10599556 0.110239334 -0.1677526 -0.08349329 -0.08560412 -0.17081904 -0.22827993 0.11511714
-0.1364609 -0.21055263 0.14542389 -0.04442399 0.052750643 -0.17647637 -0.13446417 0.07953525
0.16723166 0.0936718 0.10403928 -0.13708481 -0.09108568 0.13030426 -0.03436642 0.23536253
-0.16829966 0.16329983 0.0047100345 -0.0059459102 0.12174688 -0.23290266 -0.28745064 -0.1635379
0.066617765 0.011740653 -0.10228472 -0.010517472 -0.05879386 -0.21530932 -0.063391015 -0.017715096
-0.08559988 0.21613795 -0.044793233 0.14981438 0.041419864 0.13201146 -0.012389616 -0.14747259
0.0334414 -0.18144192 -0.06885717 -0.014446242 -0.17654449 0.12146388 0.14854293 0.10462191
0.13836506 0.13205592 -0.062278714 -0.142963 0.165716 -0.1948556 -0.059128318 -0.104953825
-0.12752059 0.120570816 0.09437917 0.111738615 -0.0035485716 -0.12552898 0.06317004 0.09109319
-0.23792456 -0.072936304 -0.16602452 -0.11550464 0.13794363 0.17226484 -0.04550294 0.10598874
0.11999265 0.13632856 -0.04669773 0.10332451 -0.032482326 -0.058800835 -0.17880884 -0.18888919
-0.1246509 -0.083054595 -0.21479245 0.16230886 0.14097036 -0.098591015 0.14818095 -0.20322208
0.09685646 0.15110558 -0.18648256 0.14338268 -0.09968426 0.16022192 0.045153536 -0.02899157
0.17329296 0.15532616 -0.19145834 0.02232378 -0.107274584 -0.15234382 0.16591246 -0.14363274
0.15895595 0.14702447 0.07971481 -0.15081725 0.101385646 0.13481842 -0.020997616 0.15435539
-0.10592775 0.0886332 -0.116577975 0.17817225 0.14110227 0.039463796 -0.14334083 0.00022362501
0.16049026 -0.054990176 -0.032397244 -0.020953527 -0.21458584 -0.10504295 -0.10134875 0.113176875
-0.16995133 0.03854654 -0.054241974 0.04475322 -0.11492046 0.0779493 0.0902218 -0.1842639
-0.0013203603 0.07484179 0.22081523 0.12830442 0.09609751 0.21825184 0.16781156 0.18700965
0.03273447 -0.079976134 0.10275074 0.15303917 -0.072150886 -0.016486892 -0.10151934 0.17037246
0.16699617 0.03807801 0.16393726 -0.15148982 -0.15109937 0.15062684 0.18620436 0.07858329
-0.16681999 0.119977616 -0.13975614 -0.034343842 -0.13884565 0.07553887 -0.13465959 -0.18404396
0.09560199 -0.1513537 -0.06356732 0.12471014 -0.014450539 -0.2020694 -0.13426247 -0.024620483
0.22253786 -0.004985367 -0.16725473 0.16647774 -0.050270878 -0.16668135 0.088562995 -0.077537134
-0.037086524 -0.14907703 -0.03759842 0.067414686 0.19004698 0.07886506 -0.19929202 0.14988431
-0.25120094 0.15912643 0.16117829 -0.05887945 -0.072745144 -0.25270915 -0.11834249 -0.14424405
0.09852017 0.1147433 0.17120321 -0.17005706 0.03894438 -0.088825986 0.18119022 0.15516847

output_layer.bias f4 [10]
00000000: 7ea4 053d 6861 5fbd 00bb af3d a7bc 6f3d
00000010: 5266 33bc d532 1cbc 810e d2bd fd1e dc3c
00000020: d357 35bd be76 17bd
0.032627575 -0.054536253 0.08580589 0.058529522 -0.010949688 -0.009533604 -0.10256673 0.026870245
-0.04427321 -0.036978476
