Results/SFResult3/best_model_weights.pt (torch, 361576 bytes, 4 tensors)

hidden_layers.0.weight f4 [113, 784]
0.033706732 0.026428122 0.03450901 0.0088945925 -0.011575553 -0.007028315 -0.008526436 -0.010589794
-0.031487945 0.008266688 -0.027534034 -0.026044957 0.030786112 0.02478055 0.008973504 -0.033474557
-0.007355314 -0.032049894 -0.010911294 -0.0236894 0.011690279 -0.010165905 0.03226483 -0.011511167
0.0036766247 0.016940188 -0.008519628 0.024686076 0.028278235 -0.013724961 -0.031064441 0.0009364841
0.028937485 0.0072533092 -0.032418646 0.010565403 -0.014891658 0.0012949097 -0.02560668 0.0020071862
-0.0057656565 0.033158354 -0.011647713 -0.017688887 -0.021418702 -0.026897855 -0.013000186 -0.025807256
-0.008027583 -0.027021546 0.02271356 0.014667259 -0.017041195 -0.012395649 0.027593143 -0.015860006
-0.026219908 0.012722046 -0.008598632 0.019969203 -0.02178375 0.0328665 0.019721225 0.012712571
-0.0325134 0.009389741 -0.02390729 -0.032629192 -0.041106008 0.017487392 -0.038196698 0.019382136
-0.018162241 -0.027002862 0.023887161 0.015192294 -0.034222953 -0.04080453 -0.017141245 0.02817301
-0.034218367 0.005984398 -0.022687268 0.017056778 0.02596556 -0.0073400834 -0.030002996 0.002370813
-0.012396577 0.0032043953 0.008350942 -0.01473927 0.00572235 0.0060275304 -0.009071404 -0.041225173
0.008357264 0.0009949494 0.011970139 0.029879019 0.03186795 0.009087981 0.05528073 0.026004992
0.053362507 0.031415336 0.029574145 -0.02268181 0.016045157 0.012606268 -0.0017669506 -0.017052002
-0.0044595744 -0.0008987375 0.03008885 -0.019263957 0.010651283 -0.012684693 -0.020005155 -0.046613432
-0.007444812 -0.032996014 -0.04436916 -0.01374129 0.011156054 -0.016568914 -0.10319243 -0.012566534
-0.02184972 0.031145506 0.05367559 0.0567504 -0.0029188294 0.011642926 0.03480609 0.033499718
0.037355367 0.03070601 0.018460885 0.0058216187 0.0054789935 0.016240962 -0.02735513 0.023689
0.015052054 -0.022176905 0.01152414 -0.018800834 -0.032521162 -0.031051261 -0.0030306824 -0.06660887
-0.13849041 -0.15620291 -0.118896216 -0.012985826 -0.099781886 -0.12933679 0.032408886 0.048696958
-0.020590799 -0.07654282 0.01329973 -0.008915013 0.036097858 0.005884715 0.00015595532 0.025936222
0.027368091 0.028292123 -0.012593635 -0.01752488 0.033430744 0.020477263 0.038332663 0.03123878
0.051518425 0.04040358 0.0095102945 -0.025715224 -0.15002413 -0.15971003 -0.13123481 -0.084830545
-0.073167495 -0.14595455 -0.017167263 0.05800046 0.06501343 -0.05459056 0.057194613 0.017684609
0.036669772 0.0076608392 0.013141816 0.030542381 0.0051931483 0.03029719 0.0011276392 0.010257685
0.051239178 0.04951518 0.116787314 0.08731469 0.07178696 0.09438071 0.020899361 0.04061989
0.031746976 -0.052981857 -0.12786217 -0.101882294 -0.008959578 0.027388874 0.013554954 0.044706143
0.092128456 0.004625028 0.03995851 0.09113486 0.022705315 0.049614415 -0.023146214 -0.036131002
-0.025255224 -0.0028673226 0.01148048 0.06285101 0.082134284 0.026880737 0.06363822 0.048009064
-0.08858094 -0.007840611 0.07245304 0.055875607 -0.03209753 -0.017981192 -0.100383766 -0.0020396248
0.123755634 0.03078049 0.04102749 0.049378283 0.1356464 0.07545434 0.05587793 0.066889785
0.048118874 0.0097951945 -0.016746009 -0.012619575 0.0125125935 0.022469057 -0.009688926 0.0415368
00000000: 1210 0a3d ca7f d83c 5259 0d3d a0ba 113c
00000010: 63a7 3dbc c84d e6bb 77b2 0bbc d180 2dbc
00000020: 81f9 00bd 0171 073c 0e8f e1bc 3c5c d5bc
00000030: 2833 fc3c 9400 cb3c 9b05 133c 9e1c 09bd
00000040: d904 f1bb c046 03bd 49c5 32bc 4610 c2bc
00000050: 9588 3f3c e58e 26bc 2028 043d 5599 3cbc
00000060: 87f3 703b 26c6 8a3c e995 0bbc 743a ca3c
00000070: c2a7 e73c a9de 60bc db7a febc 627e 753a
00000080: 4e0e ed3c 2bad ed3b 6ac9 04bd 831a 2d3c
00000090: 24fc 73bc f6b9 a93a 1ac5 d1bc ff8a 033b
000000a0: d5ed bcbb 0ed1 073d 0dd6 3ebc 49e8 90bc
000000b0: 4676 afbc e458 dcbc bbfe 54bc bd69 d3bc
000000c0: 2086 03bc 4a5c ddbc ca11 ba3c f14e 703c
000000d0: fa99 8bbc 1f17 4bbc 040b e23c d8ec 81bc
000000e0: 22cb d6bc 2170 503c 47e1 0cbc 7496 a33c
000000f0: d673 b2bc 069f 063d 688e a13c 6348 503c
00000100: c52c 05bd 6ed7 193c 39d9 c3bc 30a6 05bd
00000110: c65e 28bd b841 8f3c 2474 1cbd 49c7 9e3c
00000120: fbc8 94bc 1b35 ddbc 02af c33c 19e9 783c
00000130: 5e2d 0cbd a722 27bd cc6b 8cbc 16cb e63c
00000140: 8f28 0cbd c518 c43b a6da b9bc a8ba 8b3c
00000150: bab5 d43c 1585 f0bb d8c8 f5bc a45f 1b3b
00000160: 031b 4bbc d500 523b 64d2 083c fb7c 71bc
00000170: 8d82 bb3b 9782 c53b 3aa0 14bc badb 28bd
00000180: e8ec 083c f668 823a 671e 443c d8c4 f43c
00000190: f887 023d c1e5 143c 0c6e 623d 6c08 d53c
000001a0: a592 5a3d 5ead 003d 7a45 f23c 34cf b9bc
000001b0: 2271 833c 858a 4e3c 0699 e7ba a4b0 8bbc
000001c0: 9f21 92bb 4199 6bba e47c f63c 72cf 9dbc
000001d0: b882 2e3c 75d3 4fbc dae1 a3bc baed 3ebd
000001e0: 9cf3 f3bb d426 07bd 70bc 35bd 2623 61bc
000001f0: e2c7 363c 88bb 87bc 8e56 d3bd dde3 4dbc
00000200: 2ffe b2bc dc24 ff3c efda 5b3d 1c73 683d
00000210: d549 3fbb f9c1 3e3c d590 0e3d 0037 093d
00000220: f101 193d 2c8b fb3c 483b 973c 47c3 be3b
00000230: 2189 b33b c40b 853c de17 e0bc 6f0f c23c
00000240: e49c 763c 57ac b5bc bfcf 3c3c 3504 9abc
00000250: e934 05bd 375f febc 6a9e 46bb 3b6a 88bd
00000260: 6ed0 0dbe a8f3 1fbe dc7f f3bd 80c2 54bc
00000270: 725a ccbd dd70 04be 2ebf 043d 7676 473d
00000280: 09ae a8bc 7bc2 9cbd 1ce7 593c 4610 12bc
00000290: 59db 133d 91d4 c03b f087 2339 3378 d43c
000002a0: 0c33 e03c e2c4 e73c 8955 4ebc 5690 8fbc
000002b0: adee 083d efbf a73c b602 1d3d 78e8 ff3c
000002c0: fc04 533d 397e 253d 11d1 1b3c bca8 d2bc
000002d0: ed9f 19be 078b 23be 6b62 06be a3bb adbd
000002e0: d7d8 95bd 1c75 15be 5ca2 8cbc e491 6d3d
000002f0: c325 853d 5a9a 5fbd e644 6a3d 50df 903c
00000300: 0b33 163d c707 fb3b c550 573c 0434 fa3c
00000310: 492b aa3b d031 f83c 4bcd 933a d90f 283c
00000320: 2ce0 513d 6ed0 4a3d 302e ef3d 0bd2 b23d
00000330: 0b05 933d ac4a c13d 2335 ab3c 0b61 263d
00000340: 1e09 023d 8103 59bd 4dee 02be aaa7 d0bd
00000350: 32cb 12bc a25e e03c 9915 5e3c ca1d 373d
00000360: d8ad bc3d 8c8d 973b 89ab 233d eaa4 ba3d
00000370: 7f00 ba3c 7c38 4b3d 219d bdbc 1afe 13bd
00000380: 0be4 cebc b1e9 3bbb a018 3c3c 08b8 803d
00000390: 0536 a83d fe34 dc3c c154 823d 27a5 443d
000003a0: ed69 b5bd e875 00bc 4262 943d d2dd 643d
000003b0: b378 03bd 4b4d 93bc 0196 cdbd 3aab 05bb
000003c0: 9873 fd3d 5e27 fc3c 710c 283d e240 4a3d
000003d0: e4e6 0a3e ce87 9a3d 42e0 643d 83fd 883d
000003e0: 4c18 453d 067c 203c ed2e 89bc 55c2 4ebc
000003f0: 9f01 4d3c 0711 b83c 4dbe 1ebc 7e22 2a3d

hidden_layers.0.bias f4 [113]
-0.025059693 0.021802332 -0.008655098 -0.006974826 0.01416329 -0.019921873 -0.011633124 0.0151995905
0.021319147 -0.0047846353 0.0064231874 -0.024549302 -0.012840684 -0.027989296 0.029118387 0.01591793
0.020711718 -0.0175569 -0.005043763 0.03340813 0.022261195 0.024312004 0.03969304 0.007008489
0.019254379 0.03382156 -0.036374394 -0.026996396 -0.015174768 0.026444828 0.023875598 0.017870694
0.0012273098 -0.013905816 -0.0016202851 -0.026777292 -0.030319639 0.032164436 0.040585686 -0.015386943
0.014983789 0.0019823594 0.037399027 -0.014941356 0.02702332 -0.024576826 -0.017951861 0.035724994
0.00546793 0.005058895 0.026613696 0.045383763 -0.019763723 0.027400307 -0.008041959 0.014716608
-0.011524946 0.03340853 0.016454827 0.015906105 -0.0007419764 -0.0015761397 0.0146154 -0.021845214
0.025250738 -0.040124595 0.009922748 -0.024420515 0.025497748 -0.008453385 0.0026970913 -0.0063647786
0.02509552 -0.012180964 0.007304448 -0.005110895 0.02526663 -0.00790878 0.0013924564 -0.018053696
-0.0064400462 0.013747828 0.028706284 0.00039640677 0.022291457 -0.019091653 0.023942659 -0.0140079
0.022336265 0.021887662 -0.03252713 -0.0044883266 -0.026791288 -0.02937039 0.021888845 0.032798182
0.009360192 -0.030822406 -0.0036827368 -0.0018348207 -0.02053423 -0.02001783 -0.012541368 -0.017260803
-0.025793284 -0.021799501 0.032741938 0.016027274 -0.012259651 0.018252937 -0.028433567 -0.018383164
-0.019819379
00000000: fc49 cdbc ce9a b23c 1dce 0dbc 158d e4bb
00000010: 250d 683c 3233 a3bc dc98 3ebc b407 793c
00000020: 7ea5 ae3c 6ec8 9cbb 9a79 d23b 9e1b c9bc
00000030: bb61 52bc cf49 e5bc af89 ee3c 5266 823c
00000040: 9fab a93c 7dd3 8fbc 2746 a5bb f7d6 083d
00000050: 1c5d b63c f829 c73c 2b95 223d 78a7 e53b
00000060: 5cbb 9d3c 7a88 0a3d 51fd 14bd 8c27 ddbc
00000070: 979f 78bc d3a2 d83c c296 c33c 9065 923c
00000080: afdd a03a 38d5 63bc bf5f d4ba 0d5c dbbc
00000090: e460 f8bc dbbe 033d 2d3d 263d 8419 7cbc
000000a0: 917e 753c 79ea 013b b92f 193d 97cc 74bc
000000b0: 0260 dd3c 5755 c9bc c80f 93bc 5f54 123d
000000c0: 522c b33b 16c5 a53b f704 da3c 53e4 393d
000000d0: 88e7 a1bc 9c76 e03c 6cc2 03bc ee1d 713c
000000e0: 21d3 3cbc 62d7 083d 46cc 863c 854d 823c
000000f0: 3181 42ba 7996 ceba 6e75 6f3c bcf4 b2bc
00000100: a3da ce3c b059 24bd 0693 223c 880d c8bc
00000110: a7e0 d03c 1180 0abc afc1 303b a28f d0bb
00000120: 1f95 cd3c ab92 47bc 275a ef3b 4b79 a7bb
00000130: f7fb ce3c d493 01bc 1583 b63a 58e5 93bc
00000140: 0607 d3bb 923e 613c 7129 eb3c d1d4 cf39
00000150: 939c b63c 1966 9cbc 6523 c43c 6481 65bc
00000160: 8bfa b63c c14d b33c 2b3b 05bd d012 93bb
00000170: 6779 dbbc 2c9a f0bc 3c50 b33c 6357 063d
00000180: 7e5b 193c 457f fcbc 125a 71bb 5e7e f0ba
00000190: 6737 a8bc 6ffc a3bc 4f7a 4dbc 8766 8dbc
000001a0: 704c d3bc de94 b2bc 691c 063d a14b 833c
000001b0: b4dc 48bc 2f87 953c 83ed e8bc 4a98 96bc
000001c0: 405c a2bc

output_layer.weight f4 [10, 113]
-0.088287935 -0.055715617 0.19855146 0.27335924 -0.14577423 0.1647266 -0.33076358 -0.20011874
0.05499866 -0.34623098 -0.14103442 0.100425914 -0.1078354 -0.065089926 -0.23021835 -0.3568419
0.33419064 0.0709198 0.2773763 -0.25357625 0.1449114 0.36132476 -0.29272625 -0.4498468
-0.23697065 -0.30168217 -0.22683401 -0.28928825 0.13928618 -0.114721894 -0.12602559 0.023565697
0.13677208 0.10017206 -0.136804 -0.07707982 -0.18038462 0.054895148 0.23676729 0.10974496
0.22152902 0.05352975 0.3000249 -0.26307878 0.22886029 0.24799941 -0.28950682 0.085807286
0.03161862 -0.18236607 0.19357054 0.15870783 0.25737178 0.28183535 -0.03415245 -0.15497848
0.019935781 -0.42428842 0.048478745 0.06031994 -0.028627353 -0.2376184 -0.2654299 0.14039694
-0.128832 0.32976267 0.35575962 -0.19168325 0.012145106 0.28374264 -0.0791404 0.30609915
0.2632644 0.09473243 -0.17097479 -0.05769548 -0.4179926 0.20536292 0.0612129 -0.120332755
0.02236747 0.21633789 0.024001487 -0.20782943 -0.08255265 -0.1366111 0.12694152 0.108471036
-0.04836105 0.06570613 -0.14814274 -0.13015787 -0.19885865 -0.2867702 0.08187623 0.19286574
0.09426195 -0.17648315 0.07757208 0.086474776 -0.10443183 0.13706301 -0.19078094 0.2886046
0.0027989591 -0.15626632 0.16556484 -0.031347815 -0.039285123 -0.16938469 -0.23215918 -0.16784865
0.025876945 -0.014177204 0.32453173 0.22956061 0.15852584 0.07592497 -0.30116022 0.29095393
0.22449118 -0.20128922 0.22046094 -0.1840884 0.06322842 -0.28261733 -0.03858661 0.026410645
-0.0132562425 -0.084755786 0.22422573 -0.20144263 -0.12637874 0.074250095 -0.027037032 -0.23916867
0.016639348 -0.24780226 -0.09236718 0.2916486 0.19917105 -0.20099534 0.088080555 0.06776879
0.2017801 -0.1785432 0.2136689 0.20612703 0.22405334 -0.06357388 0.2638799 -0.16625814
-0.082912184 0.31232643 -0.1780247 -0.25337544 0.25948733 -0.20075949 -0.18692245 0.005421155
0.18569295 -0.32530874 0.13000083 -0.19742268 -0.21299951 -0.16710664 -0.11754891 0.011924955
0.21285869 -0.1403708 -0.3561869 -0.18991645 -0.19805138 0.14492281 -0.14954567 0.2425059
0.16456367 0.33344668 0.28363767 0.1903179 0.09882524 0.17241949 0.13334104 0.17823741
0.110158585 -0.11578435 -0.18889233 -0.062031712 -0.19068056 -0.03212221 0.16200374 0.09275578
-0.10194401 -0.23568793 -0.2083764 0.08913057 -0.018929258 0.28052166 0.21669441 -0.18688977
0.12317332 0.16440558 0.14376749 -0.074536346 -0.15879126 -0.27057064 0.14509135 -0.21702662
-0.03798454 0.1402286 0.084642455 -0.04529966 -0.17517917 -0.03065557 0.08846703 -0.09346818
-0.19153117 0.095581576 0.2737688 -0.124941915 -0.029798357 -0.0846586 0.04855283 0.14912635
0.15559673 -0.27050912 -0.13658692 0.24747264 0.12404264 0.17169961 0.07758223 0.1740203
-0.09939006 0.19780222 -0.045492806 -0.046549447 -0.30676407 -0.20444165 -0.13331261 0.074358836
0.26811272 0.06900955 -0.03097405 -0.18741614 -0.04345149 -0.2534899 0.021590007 -0.113501266
0.16342928 -0.21587998 0.31397122 -0.20209743 -0.19661526 -0.24264632 0.084610775 -0.008235737
00000000: 4ed0 b4bd 0f36 64bd 1351 4b3e bef5 8b3e
00000010: d745 15be 17ae 283e d859 a9be edeb 4cbe
00000020: 4646 613d 3045 b1be 546b 10be 1aac cd3d
00000030: ced8 dcbd de4d 85bd 5cbe 6bbe fbb3 b6be
00000040: 091b ab3e 663e 913d 4404 8e3e bfd4 81be
00000050: a763 143e 8fff b83e 37e0 95be 5252 e6be
00000060: 6fa8 72be 1676 9abe 2d47 68be 971d 94be
00000070: 09a1 0e3e 50f3 eabd da0c 01be d90c c13c
00000080: fb0d 0c3e 0227 cd3d 5916 0cbe 06dc 9dbd
00000090: bfb6 38be bcd9 603d 2073 723e f7c1 e03d
000000a0: 81d8 623e 0342 5b3d dd9c 993e 43b2 86be
000000b0: 5a5a 6a3e 8ff3 7d3e 3d3a 94be bbbb af3d
000000c0: 8782 013d 2cbe 3abe 5b37 463e 4e84 223e
000000d0: 3cc6 833e b94c 903e 70e3 0bbd aeb2 1ebe
000000e0: 5d50 a33c 553c d9be a691 463d 0b12 773d
000000f0: e983 eabc 3d52 73be 6ee6 87be 37c4 0f3e
00000100: 89ec 03be a7d6 a83e 2026 b63e 9d48 44be
00000110: 44fc 463c b746 913e 5d14 a2bd 07b9 9c3e
00000120: 97ca 863e 1403 c23d 0414 2fbe 1852 6cbd
00000130: 2003 d6be a84a 523e 61ba 7a3d 0571 f6bd
00000140: fc3b b73c ae87 5d3e c49e c43c 3dd1 54be
00000150: 5d11 a9bd c8e3 0bbe f5fc 013e 1026 de3d
00000160: 3d16 46bd ef90 863d bbb2 17be 1b48 05be
00000170: 9aa1 4bbe 8bd3 92be baae a73d 997e 453e
00000180: 690c c13d 00b8 34be 1cde 9e3d b019 b13d
00000190: 5be0 d5bd 3f5a 0c3e 145c 43be fbc3 933e
000001a0: be6e 373b 4704 20be d489 293e 9166 00bd
000001b0: 70e9 20bd 2e73 2dbe 23bb 6dbe 84e0 2bbe
000001c0: e3fb d33c 8147 68bc 0629 a63e f011 6b3e
000001d0: 9954 223e 8d7e 9b3d ac31 9abe eaf7 943e
000001e0: 04e1 653e c31e 4ebe 83c0 613e ab81 3cbe
000001f0: e77d 813d 38b3 90be fe0c 1ebd 235b d83c
00000200: b630 59bc 7194 adbd 6e9b 653e fa46 4ebe
00000210: 6e69 01be 6f10 983d c47c ddbc a2e8 74be
00000220: 3e4f 883c e0bf 7dbe 012b bdbd f752 953e
00000230: 7ff3 4b3e b9d1 4dbe 9463 b43d 5dca 8a3d
00000240: 719f 4e3e 07d4 36be 05cc 5a3e f712 533e
00000250: 3d6e 653e 0633 82bd 441b 873e 933f 2abe
00000260: ddcd a9bd 40e9 9f3e 1b4c 36be 6dba 81be
00000270: 86db 843e e593 4dbe 9968 3fbe f2a3 b13b
00000280: 4b26 3e3e de8e a6be f01e 053e 2c29 4abe
00000290: 8b1c 5abe 011e 2bbe 7cbd f0bd e360 433c
000002a0: a1f7 593e 5dbd 0fbe 215e b6be 7579 42be
000002b0: fbcd 4abe a566 143e 8022 19be 7753 783e
000002c0: 6183 283e 86b9 aa3e f538 913e b2e2 423e
000002d0: e364 ca3d bc8e 303e 8e8a 083e de83 363e
000002e0: d39a e13d 5820 edbd fe6c 41be f714 7ebd
000002f0: c441 43be 9492 03bd 4fe4 253e bef6 bd3d
00000300: 05c8 d0bd 2d58 71be 9f60 55be 178a b63d
00000310: 8811 9bbc 89a0 8f3e 24e5 5d3e 0860 3fbe
00000320: 4b42 fc3d f059 283e c937 133e 83a6 98bd
00000330: 2d9a 22be 3c88 8abe d492 143e 3a3c 5ebe
00000340: ad95 1bbd 1698 0f3e 0659 ad3d 238c 39bd
00000350: 2b62 33be 6421 fbbc 342e b53d 3f6c bfbd
00000360: bf20 44be 46c0 c33d 6d2b 8c3e 8ce1 ffbd
00000370: af1b f4bc 7d61 adbd 55df 463d 94b4 183e
00000380: c054 1f3e 2c80 8abe 71dd 0bbe 7869 7d3e
00000390: 110a fe3d 06d2 2f3e 6fe3 9e3d 6132 323e
000003a0: 048d cbbd aa8c 4a3e aa56 3abd a2aa 3ebd
000003b0: 2e10 9dbe 2759 51be 1a83 08be 7249 983d
000003c0: 1246 893e e154 8d3d 4abd fdbc 04ea 3fbe
000003d0: 31fa 31bd 6ec9 81be 87dd b03c 5a73 e8bd
000003e0: 015a 273e a40f 5dbe d6c0 a03e a1f2 4ebe
000003f0: 8355 49be 4778 78be 6a48 ad3d 2fef 06bc

output_layer.bias f4 [10]
-0.08504801 0.0475906 -0.010880662 -0.029229298 -0.02189756 0.047072947 -0.10348815 0.08460182
0.050508134 -0.08492134
00000000: a72d aebd 5cee 423d ce44 32bc 4872 efbc
00000010: 8362 b3bc 90cf 403d 98f1 d3bd b843 ad3d
00000020: 9ee1 4e3d 3deb adbd
