Results/BayesianResult/best_model_weights.pt (torch, 342504 bytes, 4 tensors)

hidden_layers.0.weight f4 [107, 784]
0	0xbc84df40	-0.016219735
1	0xbcd50472	-0.026003096
2	0xbccd6512	-0.025072608
3	0xbc5a9a29	-0.013342419
4	0x3cf6e904	0.030140407
5	0x3ce51ebd	0.027968759
6	0x3cc1ccda	0.023657251
7	0xbcc5b2b7	-0.02413307
8	0xbcafdbab	-0.02146705
9	0x3cd8476d	0.026401246
10	0x3c7d488f	0.015459194
11	0x3bda1981	0.0066558723
12	0x3d039370	0.03212303
13	0x3cbbb0a8	0.022911385
14	0x3cc0f4a1	0.023554148
15	0x3ced6ba8	0.028981999
16	0x3d10e3fc	0.035373673
17	0xbc22b357	-0.009930453
18	0xbc311ff3	-0.01081084
19	0x3d045344	0.03230597
20	0x3b8bb75e	0.0042638024
21	0xbc928042	-0.017883424
22	0xbcefc306	-0.0292678
23	0xbce3f791	-0.02782801
24	0xbc8bbd32	-0.017057989
25	0xbbe45ea5	-0.0069692903
26	0xbc473069	-0.012157538
27	0x3ba201c2	0.004944057
28	0x3bb5a1de	0.0055429777
29	0x3c9f75df	0.019465385
30	0x3d078b66	0.033091925
31	0x3d290b72	0.04127068
32	0x3bbe1f66	0.005802083
33	0xbb84636e	-0.0040401733
34	0xbca0c719	-0.019626187
35	0x3cd1d28a	0.025613088
36	0x3c80d4e8	0.015726522
37	0xbc5798ed	-0.013159019
38	0x3c6cba21	0.014448673
39	0x3cd02d8d	0.025412345
40	0xbbc34282	-0.005958856
41	0xbcdd92ca	-0.027047534
42	0x3c24ef27	0.010066784
43	0x3c87067b	0.016482582
44	0x3d0f830f	0.035037097
45	0x3cfd3261	0.030907812
46	0x3ca3f4ef	0.020014254
47	0x3cd84bef	0.026403395
48	0xbb7556a4	-0.0037435675
49	0x3c8e2650	0.017352253
50	0xbb754400	-0.0037424564
51	0x3d13f5b4	0.036122993
52	0xbcba7a34	-0.02276335
53	0xbccfaf6c	-0.025352202
54	0x3c7bca6f	0.015368088
55	0xbcc2182b	-0.023693165
56	0x3ced6a6d	0.028981412
57	0x3c685b09	0.014181861
58	0x3cf84f0d	0.030311132
59	0x3ce86acf	0.028371243
60	0x3c314a2f	0.010820909
61	0x3ced2e71	0.028952809
62	0xbc940b8d	-0.018071914
63	0x3c8bfbd7	0.01708786
64	0xbb8d145c	-0.0043054055
65	0xbcb23a99	-0.021756457
66	0x3bedb3f0	0.0072541162
67	0x3cc55ee4	0.024093099
68	0xbc910894	-0.017704286
69	0x3ce7ba26	0.028287005
70	0x3bca6201	0.0061762338
71	0x3d01619a	0.03158722
72	0x3ca4581f	0.02006155
73	0xbcbbfa0e	-0.022946384
74	0x3c49b8af	0.012312098
75	0xbb49d97d	-0.00307998
76	0xbc1292bb	-0.008946116
77	0xbb14cbe5	-0.0022704538
78	0x3cc746b6	0.02432571
79	0xbc7cf0d7	-0.01543828
80	0x3d1b6851	0.03794128
81	0xbcd1589c	-0.025554948
82	0xbcb822f2	-0.0224776
83	0xbb1f4b57	-0.002430638
84	0x3c27263e	0.010201989
85	0x3ce1ae5d	0.027548963
86	0x3cd2174d	0.025645876
87	0xba8c4e9c	-0.001070458
88	0xbb12992d	-0.0022369132
89	0x3c87af11	0.01656297
90	0xbce89262	-0.028390113
91	0x3cbf18c4	0.023327239
92	0x3cefa0c4	0.029251464
93	0xbce20c11	-0.027593644
94	0x3c94a92a	0.01814707
95	0xbc7c2807	-0.015390403
96	0x3c59b065	0.013286685
97	0xbca87fe9	-0.020568805
98	0xbad38ebf	-0.0016140564
99	0x3bc295ca	0.0059382664
100	0x3d2a541f	0.04158413
101	0xbc7eba36	-0.015547326
102	0xbca1fec4	-0.019774802
103	0xbc12a497	-0.008950374
104	0x3d263a98	0.040583223
105	0xbbb3e4de	-0.0054899296
106	0xbcacd2f2	-0.02109668
107	0xbcd73ea5	-0.026274988
108	0x3d28d221	0.04121602
109	0x3d28a73a	0.041175105
110	0x3d21dc34	0.039516643
111	0xbb8ac8dc	-0.00423537
112	0xbc812412	-0.01576427
113	0x3c8fb349	0.017541545
114	0x3d0a8802	0.033821113
115	0x3b18e875	0.0023331915
116	0x3b27a419	0.0025579988
117	0xbccccdb7	-0.025000436
118	0x3c309b13	0.01077916
119	0x3c80d248	0.01572527
120	0x3d25ff72	0.040526815
121	0xbb5eb7a1	-0.0033983963
122	0x3c664bc5	0.014056151
123	0xbc83ef6b	-0.016105374
124	0xba8bb67c	-0.0010659243
125	0xbb369aa5	-0.0027863171
126	0x3cb752d3	0.02237836
127	0x3ce08742	0.027408246
128	0xbcd9a6bd	-0.026568765
129	0x3c9eb68b	0.019374153
130	0xbb4eede7	-0.0031574906
131	0x3c160ea1	0.009158761
132	0x3c483154	0.012218792
133	0xbc9f5eac	-0.019454323
134	0x3bb4c105	0.005516174
135	0xbca8449e	-0.020540532
136	0x3c580901	0.01318574
137	0x3d01d5a0	0.03169787
138	0x3c861191	0.016365798
139	0x3b9e7055	0.0048351684
140	0x3ca485d1	0.02008334
141	0xbc93757b	-0.018000355
142	0xbc66ac56	-0.014079174
143	0x3d25803e	0.040405504
144	0xbbc6649d	-0.0060544745
145	0x3d074b6a	0.033030905
146	0xbc6c879e	-0.0144366305
147	0x3cad6f98	0.021171376
148	0x3cbd584f	0.023113398
149	0x3c92825b	0.017884424
150	0x3d0e89dc	0.03479944
151	0x3cf2fc0a	0.029661197
152	0x3c4aceb7	0.012378386
153	0xbd1ab53f	-0.037770506
154	0xbd11b587	-0.03557351
155	0x3a172a3c	0.0005766486
156	0xbbade839	-0.005307224
157	0x3c4dce4b	0.012561391
158	0xb7866fb2	-1.6026057e-05
159	0x3cd3f52d	0.025873745
160	0xbca19360	-0.019723594
161	0x3d1cf94b	0.03832368
162	0xbbd9b869	-0.006644298
163	0x3ca84fdb	0.02054589
164	0x3d020fb3	0.031753253
165	0x3d0dd2cd	0.034624863
166	0x3d1065f2	0.035253473
167	0x3d23d43d	0.039997328
168	0xbc2ea0ed	-0.010658485
169	0x3d0f8314	0.035037115
170	0x3d267e78	0.040647954
171	0x3d008fa1	0.031386975
172	0x3a402bbe	0.0007330737
173	0x3cb0599e	0.021527108
174	0xbb2c0e2a	-0.002625356
175	0xbcd6a703	-0.026202684
176	0x3b5b3857	0.003345033
177	0xbc8c11d6	-0.017098349
178	0x3c00de0e	0.007865442
179	0xbc453d51	-0.012038545
180	0x3c941056	0.018074196
181	0xbd038aed	-0.03211491
182	0x3d07fc04	0.033199325
183	0x3bec94f9	0.0072199074
184	0xba9a3b82	-0.0011767002
185	0x3d0ce4d3	0.03439791
186	0x3cbef9bc	0.023312442
187	0x3cbafc5b	0.02282541
188	0x3a785bfe	0.0009474157
189	0xbbbb3ef3	-0.0057142912
190	0xbb62144c	-0.003449696
191	0x3cf0d0ba	0.029396404
192	0xbcef6626	-0.029223513
193	0x3becf01d	0.007230772
194	0x3c4f8c0b	0.012667666
195	0xbc12b7a5	-0.008954917
196	0xbb7d18d8	-0.0038619544
197	0x3cce61d4	0.025193132
198	0x3c9123cf	0.01771727
199	0xbbe9d1b9	-0.0071355966
200	0x3c54fd41	0.012999834
201	0x3c289fef	0.010292037
202	0x3d1528ac	0.03641574
203	0x3d13dd66	0.036099814
204	0x3c7ed9b5	0.015554835
205	0xbc91f84f	-0.017818598
206	0x3c2fa4d9	0.010720455
207	0x3d13058c	0.03589396
208	0x3bdc7e51	0.0067289253
209	0xbceb3bbd	-0.028715009
210	0xbbb74c2f	-0.0055937986
211	0xbcf87b3d	-0.030332202
212	0x3cc1ce3c	0.02365791
213	0xbd20b3c6	-0.039233945
214	0x3b8d1fe6	0.004306781
215	0xbd1bc8c8	-0.038033277
216	0x3cfb9dc8	0.030714884
217	0x3c8b97fd	0.017040247
218	0x3cfab2d1	0.030602844
219	0x3ce59d9a	0.028029252
220	0xbc97a1ed	-0.01850983
221	0x3d00cf57	0.031447735
222	0x3ba4d4d3	0.0050302534
223	0x3ce49ce1	0.027906837
224	0x3bdabcdc	0.006675346
225	0x3c59b745	0.013288324
226	0xbce36a23	-0.02776057
227	0x3c3c5781	0.011495472
228	0x3ceca518	0.028887317
229	0x3d1614a2	0.03664077
230	0xbb1bda4d	-0.002378124
231	0xbca26feb	-0.019828757
232	0x3c3689e4	0.011141274
233	0xbccf326e	-0.025292601
234	0x3bb55120	0.0055333525
235	0x3c6dba34	0.014509726
236	0x3c8ba0cd	0.01704445
237	0xbccbba8a	-0.024869222
238	0x3c47ecab	0.012202422
239	0x3b0f3416	0.0021851114
240	0xbcb548bc	-0.022129409
241	0xbd0357e7	-0.032066252
242	0x3ce8e7b8	0.028430805
243	0xbced1ac4	-0.028943427
244	0xbbe90ae2	-0.007111893
245	0x3d1e0191	0.038575713
246	0xbcb0a057	-0.021560831
247	0x3cd07038	0.025444135
248	0x3a0f9b57	0.00054781645
249	0xbc6efb22	-0.014586242
250	0xba925ee4	-0.0011167196
251	0x3cb6a23d	0.022294158
252	0x3c972a3c	0.018452756
253	0x3d0bfc93	0.03417642
254	0x3d143fae	0.036193542
255	0xb7feca8c	-3.0373478e-05

hidden_layers.0.bias f4 [107]
0	0xbbb364dd	-0.0054746703
1	0xb86147c1	-5.3711006e-05
2	0xbc95aa28	-0.018269613
3	0xbc582211	-0.013191716
4	0xbc95f5cc	-0.018305682
5	0xbca1afc5	-0.019737134
6	0x3ae0bae3	0.001714554
7	0xbbdaae2d	-0.0066735954
8	0xbd275229	-0.04084984
9	0xbd01807c	-0.031616673
10	0x3c499a19	0.012304806
11	0x3d13104f	0.035904225
12	0x3b6d5d0d	0.0036218793
13	0x3cb16566	0.021654796
14	0x3b930c8a	0.0044875788
15	0xbccebecc	-0.025237463
16	0x3c46f21a	0.012142682
17	0x3cb3bea5	0.021941492
18	0xbc8151f7	-0.015786154
19	0xbc9800ad	-0.01855501
20	0x3d17479f	0.036933538
21	0x399b019b	0.000295651
22	0x3bd021a8	0.0063516684
23	0xbce081d7	-0.027405662
24	0x3cccd2dc	0.02500289
25	0xbcf06463	-0.029344743
26	0xbca22358	-0.019792244
27	0xbc7f5f73	-0.015586722
28	0x3bfcc571	0.0077139665
29	0x3ce0b3df	0.02742952
30	0x3caf21f0	0.021378487
31	0x3c0078b2	0.007841276
32	0xbbffe8a5	-0.007809716
33	0x3cca7852	0.024715576
34	0x3c707a95	0.014677663
35	0x3d06d559	0.032918308
36	0xbc8ca5e2	-0.017168943
37	0x3ceb584e	0.02872863
38	0xbbf03636	-0.007330681
39	0x3cbe92fc	0.023263447
40	0x3c274075	0.010208239
41	0xbc8b802a	-0.017028887
42	0xba0b3ef0	-0.00053118076
43	0x3caf77fd	0.02141952
44	0x3ccaba56	0.024747055
45	0x3ce4bb42	0.027921323
46	0xbc270bfa	-0.0101957265
47	0xbd0441b9	-0.03228924
48	0xbc7f7406	-0.015591627
49	0x3c7b05eb	0.015321235
50	0x3cea365c	0.028590374
51	0xbca39f49	-0.019973414
52	0x3cc4bce0	0.024015844
53	0xbcbabc59	-0.02279489
54	0x3ca21453	0.019785082
55	0x3cbd1a60	0.023083866
56	0x3bbe7171	0.005811863
57	0xbc50fbfa	-0.012755388
58	0xbc084836	-0.008317998
59	0x3c81c9d0	0.015843302
60	0xbc32d35a	-0.010914648
61	0xbce33960	-0.02773732
62	0x3d0843e6	0.033267878
63	0x3c9ce143	0.019150382
64	0xbbf504e1	-0.0074773883
65	0x3cf539bc	0.029934756
66	0xbc8670a4	-0.016411133
67	0xbd24a508	-0.04019645
68	0xbd16d2ce	-0.036822133
69	0x3bc5467a	0.0060203644
70	0xbca81157	-0.02051608
71	0x3d254ffc	0.040359482
72	0xbc5f696f	-0.013635977
73	0xbc1ac188	-0.0094455555
74	0x3d2572e8	0.040392786
75	0x3cbdb559	0.023157762
76	0xbbd71a74	-0.0065644328
77	0xbbaf240d	-0.0053448738
78	0xbd0685be	-0.03284239
79	0x3be52555	0.0069929757
80	0x3ca6bbca	0.020353217
81	0xbcf6cfb1	-0.030128332
82	0x3cee3b51	0.029081019
83	0x3c4b51ba	0.012409622
84	0xbc7cceff	-0.015430211
85	0xbd215c00	-0.03939438
86	0xb8b68cf1	-8.704689e-05
87	0x3d180e5f	0.03712308
88	0xbc6b46e6	-0.014360165
89	0x3bd68d80	0.00654763
90	0xbc0eaca4	-0.008708153
91	0xbd0eec25	-0.034893174
92	0xbafdba7a	-0.0019357943
93	0xbc5be01c	-0.013420131
94	0x3d0e3dff	0.034727093
95	0xbcdc4afa	-0.02689122
96	0x3cba6362	0.022752468
97	0x3bf6c99a	0.007531357
98	0x3ca5d505	0.020243177
99	0xbcede5af	-0.029040186
100	0xbc23ab0a	-0.009989509
101	0xbca8035e	-0.020509418
102	0xbcac0b72	-0.021001551
103	0x38aad32d	8.145566e-05
104	0x39e12c17	0.00042948194
105	0x3cf89d41	0.030348422
106	0xbd2aa37c	-0.041659817

output_layer.weight f4 [10, 107]
0	0xbd7a051d	-0.061040033
1	0x3d9abf72	0.075560465
2	0x3dee4f4f	0.11636221
3	0xbba78aa4	-0.005112963
4	0xbdf8dc85	-0.12151436
5	0x3d4e9de9	0.050443564
6	0xbe4ee18a	-0.20203224
7	0xbd49a5f4	-0.04923053
8	0x3c5234b7	0.012829951
9	0x3d9451a7	0.072421364
10	0x3cf398ad	0.029735887
11	0xbe2aded4	-0.16686565
12	0xbdb64167	-0.08899193
13	0xbd553428	-0.052051693
14	0x3ceac839	0.028659927
15	0xbdf8f954	-0.121569306
16	0x3e036be0	0.1283412
17	0xbd83410f	-0.06408893
18	0x3dc972c8	0.09836346
19	0xbdcd50c1	-0.10025168
20	0x3dc9acc3	0.09847405
21	0xbe48690d	-0.19571324
22	0x3b3c0aec	0.0028693033
23	0x3e139dd3	0.14415674
24	0xbe0b89bd	-0.13626762
25	0xbd85d521	-0.06534792
26	0x3ca4b183	0.020104175
27	0xbd8531a0	-0.06503606
28	0x3df99c50	0.12188017
29	0x3c9e84af	0.019350378
30	0x3c8deced	0.01732489
31	0x3d94f197	0.07272642
32	0xbcb79289	-0.02240874
33	0x3dad338c	0.084570974
34	0xbd89777f	-0.06712245
35	0xbe57dc01	-0.21080019
36	0xbe1b4e5a	-0.15166607
37	0xbded82f1	-0.11597241
38	0x3db0ef36	0.08639376
39	0x3e1b50db	0.15167563
40	0x3bec7d61	0.007217095
41	0xbcbae29e	-0.022813138
42	0x3e0332b3	0.12812309
43	0x3db1d2c3	0.08682778
44	0xbe3b0a3a	-0.1826562
45	0x3c9ae0f2	0.01890609
46	0xbdd86344	-0.105658084
47	0xbd4d0e3f	-0.050062414
48	0xba52fddd	-0.0008048693
49	0x3d9a151d	0.07523558
50	0xbd071b8c	-0.032985255
51	0x3e1f2d07	0.1554452
52	0x3cc81aa3	0.024426764
53	0xbe1ed4c4	-0.15510851
54	0x3da7cca8	0.08193332
55	0x3d99e6f4	0.07514754
56	0xbcef0d95	-0.029181281
57	0x3de0d2d9	0.10977716
58	0x3b57aa6d	0.0032907978
59	0xbd9c3aeb	-0.07628425
60	0xbe1b09b4	-0.1514042
61	0xbd3f723d	-0.046739805
62	0x3dada4bf	0.084786884
63	0xbe4f8263	-0.20264582
64	0x3d540ff8	0.05177304
65	0xbe01fb93	-0.12693624
66	0xbd312062	-0.043243773
67	0x3da30e70	0.07961738
68	0xbd926a9a	-0.07149239
69	0x3d861d50	0.0654856
70	0xbdef615c	-0.11688492
71	0x3dca1f40	0.09869242
72	0x3dd88fa0	0.10574269
73	0xbcba7847	-0.02276243
74	0x3d6aa4d8	0.057286114
75	0x3cc7a3f8	0.024370179
76	0xbdd6cc00	-0.10488129
77	0x3d24c39f	0.04022562
78	0x3cf4a3a0	0.029863179
79	0x3cff0ac6	0.031133067
80	0xbcd99fce	-0.026565459
81	0xbdb28401	-0.08716584
82	0xbc40c051	-0.011764602
83	0x3d95cadf	0.07314085
84	0x3d5df842	0.054191835
85	0x3b20b52f	0.0024522056
86	0xbca36429	-0.019945221
87	0x3d111aed	0.03542607
88	0x3c3abd7c	0.011397716
89	0xbe4cb9af	-0.19992708
90	0x3e0a18c2	0.13486007
91	0x3d721429	0.059101257
92	0xbdf64b4b	-0.1202608
93	0x3caadb7f	0.020856617
94	0xbd985ebe	-0.07439946
95	0xbd6947f8	-0.0569534
96	0x3dcdfb79	0.1005773
97	0x3cba505d	0.022743398
98	0xb9968f3b	-0.00028716945
99	0xbc77c5a0	-0.015122801
100	0x3dff532c	0.12467036
101	0xbd95b133	-0.07309189
102	0xbbc6f2f3	-0.0060714423
103	0x3c8472f1	0.01616809
104	0xbda965ef	-0.082713954
105	0x3dddf320	0.10837388
106	0xbd73c960	-0.059518218
107	0xbd3c06a1	-0.04590476
108	0x3d8247b4	0.063613325
109	0x3d7ee91e	0.062234037
110	0x3d44f748	0.04808739
111	0x3e13d3ad	0.14436217
112	0xbe383b7a	-0.17991439
113	0x3d2683f5	0.040653188
114	0xba1f0c41	-0.00060671946
115	0xbcc9dc1b	-0.024641087
116	0xbe2475c6	-0.16060552
117	0x3bc02158	0.00586335
118	0x3d934c78	0.0719232
119	0xbd68b529	-0.056813393
120	0xbe49460a	-0.19655624
121	0x3d15dfd0	0.036590397
122	0xbdee5cfd	-0.1163883
123	0xbe0c01ac	-0.13672513
124	0xbdcc52aa	-0.099767044
125	0xbded6529	-0.115915604
126	0xbd6e6675	-0.05820318
127	0x3d96d051	0.07363952
128	0x3df0407f	0.11731052
129	0x3d6bdf36	0.057585917
130	0xbe260170	-0.16211486
131	0x3dd61d96	0.10454862
132	0xbe4ea945	-0.20181759
133	0xbc94710b	-0.01812031
134	0xbe056c2c	-0.13029546
135	0xbcca4701	-0.02469206
136	0xbe1db121	-0.153996
137	0xbbc6645f	-0.0060544456
138	0xbc07b90c	-0.008283865
139	0x3db29bda	0.087211326
140	0xbe6aa1a6	-0.22913226
141	0x3cbc95c2	0.023020629
142	0xbd9459c2	-0.072436824
143	0x3c750827	0.014955557
144	0x3ce3a384	0.027787931
145	0xbda8cb4a	-0.08241899
146	0x3dd7ee60	0.10543513
147	0xbc4c3db5	-0.012465884
148	0x3e02b359	0.12763728
149	0xbd9ff04a	-0.078095034
150	0xbddabb95	-0.1068031
151	0x3c7bcdae	0.015368862
152	0xbe6e5fef	-0.23278783
153	0x3cb37bd3	0.02190963
154	0x3dab2498	0.08356589
155	0xbd758218	-0.05993852
156	0xbc11a6b5	-0.008889844
157	0x3cd72304	0.026261814
158	0xbdb250a4	-0.08706787
159	0x3ce9032b	0.028443893
160	0x3db1185f	0.086472265
161	0x3dcd3d6a	0.100214794
162	0x3dc546d1	0.09632648
163	0x3ccdf6dd	0.025142128
164	0xbe327a62	-0.17429498
165	0x3bdd42f7	0.0067523676
166	0xbd8c9d0b	-0.06865891
167	0x3de303c2	0.11084701
168	0x3e0f66dc	0.14004081
169	0xbe50cdd1	-0.20391013
170	0x3dc8ecc0	0.098107815
171	0xbd50ebf3	-0.05100627
172	0xbe34511a	-0.17609063
173	0x3d1424d0	0.03616792
174	0x3c267fd5	0.0101623135
175	0xbd971233	-0.07376518
176	0x3d95dfb7	0.07318061
177	0x3d84dce5	0.06487445
178	0xbd2e695d	-0.04258095
179	0x3d3f617c	0.046723828
180	0xbd868bb4	-0.06569615
181	0x3db990f2	0.09060849
182	0x3c84ad24	0.016195841
183	0x3db766e5	0.089551724
184	0x3d53c665	0.051702876
185	0xbc9db7b1	-0.01925263
186	0x3d69eca1	0.057110433
187	0x3da82544	0.08210233
188	0xbe39e20e	-0.1815264
189	0xbc67ac9e	-0.014140276
190	0xbda61b7e	-0.081107125
191	0x3bb21f8d	0.00543589
192	0xbd02380d	-0.031791735
193	0xbc6a0853	-0.014284211
194	0xbe034b6b	-0.12821738
195	0xbb8a595c	-0.0042220782
196	0x3d45b7d9	0.048271034
197	0x3d037286	0.03209164
198	0x3d106633	0.035253715
199	0x3c8b14f0	0.016977757
200	0xbd9714d1	-0.07377017
201	0xbc6ff5ff	-0.014646052
202	0xbdbde263	-0.092716955
203	0xbe18b4fe	-0.14912793
204	0x3d8e0262	0.06934048
205	0xbdc97af2	-0.09837903
206	0x3c73e822	0.014886888
207	0xbe641cce	-0.22276613
208	0xbd95cbff	-0.073143
209	0xbb9f9eee	-0.004871241
210	0x3e03e75e	0.12881228
211	0xbcf3722a	-0.029717524
212	0x3e06fb44	0.13181788
213	0xbd838b92	-0.06423105
214	0xbd996ff5	-0.07492057
215	0xbd74bbd2	-0.059749432
216	0x3bcffb34	0.0063470844
217	0x3d91e5ba	0.07123895
218	0xbd1b3654	-0.03789361
219	0x3e0cc0fe	0.13745496
220	0x3d95128a	0.07278927
221	0x3c67b118	0.0141413435
222	0x3a80fa6a	0.0009840254
223	0xbd7c9283	-0.061663162
224	0xbe1b0919	-0.15140189
225	0xb975351e	-0.00023384808
226	0xbbbefe32	-0.0058286423
227	0x3d990437	0.07471507
228	0xbbd4ef28	-0.006498236
229	0x3c8dd28f	0.017312316
230	0xbde2cab7	-0.11073821
231	0x3d6e715a	0.05821357
232	0x3ddd4646	0.10804419
233	0xbe0d7eea	-0.13817945
234	0x3de04acb	0.109517656
235	0xbc0a16f9	-0.008428329
236	0xbe181b9c	-0.14854282
237	0x3da349bb	0.07973047
238	0xbde1c484	-0.110238105
239	0x3cc48f9a	0.023994256
240	0x3d2629e8	0.04056731
241	0x3d9cf08a	0.07663067
242	0x3e0d6d4f	0.13811229
243	0x3d095e49	0.033537183
244	0xbdb725e4	-0.08942774
245	0x3d69b79b	0.057059865
246	0xbc61b963	-0.01377711
247	0x3dada940	0.084795475
248	0xbe05636d	-0.13026209
249	0xbe5b9d86	-0.21446809
250	0x3dee367f	0.11631488
251	0xbe0cc3c4	-0.13746554
252	0x3d6ff586	0.05858376
253	0xbd0ff2ee	-0.035143785
254	0x3d981809	0.07426459
255	0x3c93ba82	0.01803327

output_layer.bias f4 [10]
0	0x3d959fd8	0.073058784
1	0x3d276a25	0.04087271
2	0x3c240017	0.010009787
3	0xbc6fb3b0	-0.014630243
4	0x3c5ff075	0.013668169
5	0xbc478105	-0.012176757
6	0x3da7adfb	0.08187481
7	0x3d549cb0	0.05190724
8	0x3d41e468	0.047336966
9	0x3d9350e0	0.0719316
