Results/RandomResult/best_model_weights.pt (torch, 521732 bytes, 8 tensors)

hidden_layers.0.weight f4 [124, 784]
00000000: e385 ff3b a1f5 07bd efe1 1abd 2d09 333c
00000010: 1134 f33b 6f4e c13c d353 a4bc f6a9 323b
00000020: 97d8 e5bc 3775 7f3b 0343 c73c 03c3 abbc
00000030: e536 06bc 2553 2cbd 9984 b9bc 778f ea3a
00000040: 3fc9 27bd a91e 31bd 1581 183c a1b4 be3c
00000050: 55e0 04bd ad42 9ebc b357 28bd 2a14 883b
00000060: d998 29bd 9d71 dfbb cbc4 7a3c 216d 543c
00000070: 298b a73c f5ae 8ebc 930a 253c 293c 9a3b
00000080: 6d92 87bc cddb bdbc d3ac 5f3c c188 d0bb
00000090: c3b8 de3c 7f01 d03c e0ba 133c 574c c5bc
000000a0: bb26 433c f853 933c ebfc 2dbd 4e76 17bd
000000b0: eb65 9638 2e21 febc d6aa 83bc d990 0f3c
000000c0: 99cd d7bc 27f5 a43c dad1 a23b e52e 1fbd
000000d0: d95e baba e3eb 54bc 9bc5 0bbd 4d43 ce3c
000000e0: 6f11 1abd e5a7 e03c 03c9 cebb 677e d33b
000000f0: 49fb 1abd 993d 86bb bb66 d6bc be0a eabb
00000100: d819 fbbc ce22 dd3c 65c8 d03c a198 2e3c
00000110: 8c4f 003d 8c75 b53a f24d 3e3a 4765 d33c
00000120: af0e 82bc dd5a b63b 82dd 53bc edb7 5dbd
00000130: 59cd 37bc 7525 1e3c 20e6 c23c 3cff 19bd
00000140: fd87 12bc 370a 1cbc 6bd4 73bc 0d11 7e3c
00000150: 3516 f439 5f00 963c 3155 02bd ad23 223c
00000160: c986 c3bc b187 04bb 1648 b7bc 7b0d adbc
00000170: 07e5 693d 6577 183c 2a9f 2f3d fd28 0a3d
00000180: 6423 243b 2ce2 303d 655b 9c3c e532 09bd
00000190: de52 e73c 9fc8 1ebc f621 2ebd 12e1 75bc
000001a0: 2d47 2abd 23a6 eb3b 5967 033d 7cd1 11bc
000001b0: 77d0 fd3b 3fb2 05bd 8e0e 63bc ad78 b0bc
000001c0: 61c2 aabc a3f5 323c c590 1abc 5d53 30bb
000001d0: bddd d63c 2873 2bbd cc6a 803c c02d 913b
000001e0: 3a44 a03c cd36 f13c e588 5a3d 60ed 203c
000001f0: ee86 ec3d 5a21 143e 043b 373e adbb d43d
00000200: ab6d 9e3d 87d1 3f3d 35f4 1f3d d050 4abd
00000210: 6412 38bd ac87 92bd 4528 c0bd 5e98 2f3b
00000220: 3ed7 15bd 4476 f438 c5a4 29bd 3fb3 e83b
00000230: 9589 04bd 8b8b dd3b c30a eabb bf78 9fbb
00000240: b63e 07bd 417a f93c 22fc 5b3c 812f 1c3d
00000250: 8a5b b33c 0bf9 ca3a d4fa a43d 3f95 c83d
00000260: 5439 1c3e 3d49 533e eee0 643e b6be 843e
00000270: 852d 343e 22f9 113d abf6 693d 3d81 6d3c
00000280: 567e 08bd bed6 63bd 914f 65bd a163 acbc
00000290: bc9c 61bc 3ecf d6bc d046 ab3b 2929 9b3c
000002a0: 6b1d ff3b a767 513a 1859 a5bc b011 6c39
000002b0: f9d5 11bd 0601 263d 1d6d c5bb fc81 6e3d
000002c0: c775 fcbc f5d4 e93c 9f23 4f3d 0984 893d
000002d0: 59b0 203e 26c5 063e 6b0d 033e 48d8 273e
000002e0: 9a2c 4c3e d222 843d 9b76 7b3d 588b 1b3d
000002f0: e3a3 993c e8ea 153d 3f2a 76bc 6cf4 33bd
00000300: 1e2c 84bd 11dc 86bc 501f 10bc efb1 823c
00000310: 8b3c 0ebd dc96 13bd 5660 ec3a f05f c5bc
00000320: f8c0 c2bb 1f08 19bc 95a4 233d b5f4 013d
00000330: ca28 2e3d 041d d9bc fe15 0a3a 3171 2cbd
00000340: 77e2 96bc 2b31 31bd b6e0 d83c 8bf7 353d
00000350: f117 363e 8362 073e 235e c73d 1047 513d
00000360: 7494 853d 49a8 4e3d 2074 263d 28a7 1ebd
00000370: c022 e7bc 37cd dcbc c5a4 1c3c 3356 103c
00000380: 9937 40bc 7136 89bc acc0 593c 4a50 b63b
00000390: 3f06 f33c 8972 ed3c c468 afbc 3599 eabc
000003a0: 476b 4cbd 8f11 74bd 363e 633b 3c4f c4bd
000003b0: 870a cdbd 0b69 e2bd 07f6 bcbd 5696 b83c
000003c0: b61c ae3d 82e3 cc3d 3393 b63d 7017 e03d
000003d0: 8135 c33d 1630 e23d 7373 4f3d 3f27 22bc
000003e0: 921e 44bd a18b 91bd 2c10 b8bc fb67 74ba
000003f0: 252f a03c 7a14 a73c b3f8 b33c b257 08bd
0.007797943 -0.033193234 -0.037813123 0.010927481 0.0074219783 0.02359697 -0.020059502 0.002726195
-0.02805738 0.0038979778 0.024323946 -0.020967012 -0.008191799 -0.04207148 -0.022646235 0.0017895539
-0.040963408 -0.04324213 0.009308119 0.02327949 -0.032440502 -0.019318903 -0.04109926 0.0041527944
-0.041405533 -0.0068189637 0.015305708 0.0129654715 0.020452099 -0.01741741 0.010073322 0.0047068787
-0.016549313 -0.023176098 0.013652044 -0.0063639586 0.02718771 0.025391338 0.009016722 -0.024084253
0.0119110895 0.017984375 -0.04247753 -0.03697806 7.171541e-05 -0.03102168 -0.016072672 0.008762562
-0.026343154 0.020136429 0.004968864 -0.03886308 -0.0014218941 -0.012995693 -0.034123998 0.025178576
-0.037614282 0.027423808 -0.0063105836 0.0064542773 -0.0378373 -0.0040966985 -0.026172033 -0.007142394
-0.030651972 0.026994135 0.02548618 0.010656507 0.03132586 0.0013844236 0.00072595396 0.025805129
-0.015876142 0.005565031 -0.01293123 -0.054130483 -0.011218392 0.009652485 0.023791373 -0.037596926
-0.008943555 -0.00952392 -0.014882187 0.015506995 0.00046555852 0.018310724 -0.031819526 0.009896201
-0.023867982 -0.002022248 -0.02237324 -0.021124592 0.057103183 0.00930581 0.0428764 0.033730496
0.0025045509 0.043184444 0.019086549 -0.033495802 0.028237756 -0.0096913865 -0.042512856 -0.015007274
-0.041571785 0.007191436 0.032080982 -0.008900043 0.007745798 -0.03264069 -0.013858451 -0.021541918
-0.02084464 0.010922822 -0.00943393 -0.0026905157 0.02622878 -0.04185787 0.015675925 0.0044305027
0.019563783 0.029445076 0.05335321 0.00982222 0.11549173 0.14465848 0.17893606 0.10387359
0.07735761 0.04683068 0.039051253 -0.049393475 -0.044939414 -0.071547836 -0.09382681 0.0026793699
-0.036582224 0.00011656855 -0.041416902 0.007101446 -0.03235777 0.0067610196 -0.007142396 -0.004866689
-0.03301879 0.030453803 0.013426812 0.03813124 0.021894235 0.0015485598 0.08055654 0.097940914
0.15256244 0.20633407 0.22351429 0.2592675 0.1759549 0.035637982 0.057120007 0.014496145
-0.03332361 -0.055624716 -0.055984084 -0.0210436 -0.013770279 -0.026221868 0.0052269474 0.018940525
0.0077854893 0.00079881627 -0.020184085 0.00022513303 -0.03560445 0.04052832 -0.00602497 0.05822943
-0.03081788 0.028543929 0.05057108 0.06714637 0.15692271 0.13161144 0.12798087 0.16391098
0.19938889 0.06451954 0.061392408 0.037974685 0.018754905 0.036600977 -0.015024721 -0.04393427
-0.06453727 -0.016462358 -0.008796528 0.015953986 -0.034725707 -0.036032543 0.0018034081 -0.024093598
-0.005943414 -0.009340315 0.03995188 0.03172751 0.04251937 -0.026503094 0.00052675593 -0.042100135
-0.018418534 -0.04325978 0.026474338 0.04442553 0.1778257 0.13221173 0.09734752 0.05109316
0.06522456 0.050453458 0.04063809 -0.03873363 -0.028214812 -0.026953323 0.0095607685 0.008809614
-0.0117320055 -0.016749592 0.013290565 0.0055637704 0.029666064 0.028985279 -0.02141226 -0.028637508
-0.049906995 -0.059587058 0.0034674532 -0.09585425 -0.100117736 -0.110551916 -0.092266135 0.022532623
0.0850157 0.10004331 0.08914795 0.1094197 0.095316894 0.11044328 0.05064721 -0.009897052
-0.047880717 -0.0710671 -0.022468649 -0.00093233556 0.01955373 0.020395506 0.021969175 -0.033286758

hidden_layers.0.bias f4 [124]
00000000: 2101 a9bc aa0c d1bb ad94 8ebc eaf7 10bd
00000010: c92f b13c 6320 9f3b e5ce c1bc 8130 a03c
00000020: 8692 05bd 5e68 2dbb 549f 27bc 2bb9 adba
00000030: a1dc 95ba 0c1e 01bd f1d2 18bd 463d 14bd
00000040: 6e87 fbb9 2f0b b53c 5d85 07bd aea0 cf3a
00000050: ebe9 fcbc e2b5 e63c aadf 8ebc 8da2 153d
00000060: f2d7 1abd 7b6f d8bb d416 eabc 505d 5c3c
00000070: fb19 d2bc c74c bbbc 70d3 d0bb 2538 febc
00000080: 20bd fe3b 9082 bcbc 86a8 cebc 7ed2 13bd
00000090: 5a80 20bd bb25 1fbd 1474 a1bb 9d4a 9dbb
000000a0: d022 9cbb f1ba b7bb 5acb 60bc ba88 02bd
000000b0: 94ac 6bbc b118 383c f384 3dbd e7cf b33c
000000c0: 10bb 0fbc b586 abbc cb64 263c 97d6 ff3c
000000d0: 38a4 62bc 22c6 133d a3f7 2fbd 0bac eb3c
000000e0: fb1a 1ebd 8bb1 023d 35da 0cbd 6c02 9fbc
000000f0: f5ae 99bb ea6e d63c d888 ab3c fb3c 433b
00000100: d23b e7bc 094a ee3c 662b b73c d7b4 85bc
00000110: 0a39 e33c 285f 18bd f10a 16bd c379 26bd
00000120: 653f f53c 533c cc3c f0f6 423b c20b eb3c
00000130: dcf0 103d fd8b 1f3c 2c3c e23b 75e0 05bc
00000140: c456 d93c a8ca 81bc 3c68 fc3b 2519 0ebc
00000150: 7d04 0bbd b32b b6bc 807e b2bc 0a63 b6bc
00000160: 7ea0 c4bc 78bb 2a3c 2762 9bbc a9ce d4bc
00000170: 0661 b43c 61e6 11bd 6892 82bc f2de 1bbd
00000180: 6a90 8abc 3841 13bd a021 37bc c6ab 04bd
00000190: 7225 97bc 2a00 c93b ffed 413c 6e07 60bc
000001a0: 2c85 b7bc 20a2 d1bc bc90 8e3c d0d1 6cbc
000001b0: ddb7 04bd c5ce 07bd e4f5 9e3c 0c2f 983c
000001c0: bec1 be3c e5b2 ce3c b5fb 1dbd 302a 26bb
000001d0: 9fc3 33bd 7fce 57bc 1773 b1bc 0690 163c
000001e0: 1f08 193c 3fad 5bbb f8f8 15bd 8eb8 09bc
-0.020630421 -0.0063796835 -0.017404879 -0.03539268 0.021629231 0.0048561557 -0.023658225 0.019554378
-0.03261044 -0.0026459913 -0.010230858 -0.0013254037 -0.001143355 -0.031522796 -0.037310544 -0.036191247
-0.00047975354 0.02210006 -0.03308617 0.0015840733 -0.03087326 0.0281629 -0.017440636 0.036531974
-0.037803598 -0.0066050864 -0.028575338 0.013449982 -0.025647154 -0.022863759 -0.0063728616 -0.031032631
0.0077740103 -0.023011476 -0.025226843 -0.036089413 -0.039184906 -0.038854342 -0.0049271677 -0.0048001544
-0.004764892 -0.005607002 -0.013720358 -0.031868674 -0.014384408 0.011236356 -0.04626937 0.021949722
-0.0087726265 -0.020938257 0.010155867 0.031230254 -0.013833098 0.036077626 -0.042960774 0.02876856
-0.03859995 0.0319076 -0.034387786 -0.019410335 -0.004690046 0.026175935 0.020939276 0.0029790986
-0.028226767 0.029088037 0.022359561 -0.016321583 0.02773716 -0.037200123 -0.03663153 -0.040643465
0.029937455 0.024931109 0.0029749237 0.02869213 0.03538595 0.009737966 0.0069041457 -0.0081711905
0.02653063 -0.015843704 0.0077028554 -0.008672987 -0.033939827 -0.022237634 -0.021788836 -0.022264022
-0.02400231 0.010420673 -0.018967701 -0.02597745 0.02201892 -0.035620097 -0.015938953 -0.038054414
-0.016914565 -0.03595087 -0.01117745 -0.03239038 -0.018450473 0.0061340528 0.011836528 -0.013673646
-0.022402368 -0.025590003 0.017403 -0.01445432 -0.03240191 -0.033156175 0.01940436 0.018577121
0.023285743 0.025231788 -0.038570125 -0.0025354736 -0.04388773 -0.013171791 -0.021661324 0.009189611
0.009340315 -0.003352001 -0.03661439 -0.008405818

hidden_layers.3.weight f4 [124, 124]
00000000: 0ba2 2fbe a58a b0bd e2d7 bb3d 5990 9a3d
00000010: 847b 853d 3571 5f3d 041e 9ebd 76bf e3bd
00000020: 51aa 16bd 5960 923d e3d6 63bd a817 743d
00000030: 1565 893d 426a 9cbc b640 bb3c b38c 4ebd
00000040: a94f 88bd db31 023e eda8 bd3d 915b 9dbd
00000050: 71f1 6cbd e93f 343c 96d6 0f3d 4b03 5bbd
00000060: 6b6d 42bd 14b5 bcbd f4da 0a3d 031d 90bd
00000070: 7ba4 04bc 8452 823d 4b18 49bd e2c6 59bb
00000080: b135 f2bd d08f 963c 63af e13d a718 dcbc
00000090: 7032 283c 02dd 3cbc 4f37 843d 6f18 a9bd
000000a0: 25cd 903d 071d 9d3d 8e6c a13d 1044 89bd
000000b0: 653c 0b3d 7a70 9c3d 727e 66bd 763c bf3d
000000c0: 09f6 5c3d 2318 8d3b b4d8 77bd 1060 ae37
000000d0: 6591 9a3d ad45 c93d 8600 78bd 2180 2bbe
000000e0: 2343 543d 3e89 5cbd befc 5ebd 094e 783d
000000f0: 688a e8bc 1fcd ac3d c178 54bd 4d7e 0cbd
00000100: 42f1 6d3d 1d6e 7abb 8a98 9a3d 40b7 823c
00000110: 316d 963d cb71 153d 219a 65bb 2abd 163d
00000120: 09a6 b63c 40c7 6cbc 823d 18bd 8769 a73c
00000130: 39d1 5fbe cde1 41bd d276 d5bb a333 99bd
00000140: 1501 2c3d dde9 c33c 0e88 9d3d 0be7 76ba
00000150: 0880 903d 5072 883d a210 2ebd 5e0f 82bc
00000160: f74b 0fbc c7c3 613d 5023 733d 00cd 213e
00000170: 1852 02bd d69e 21bc 6a20 a8bd 9fe6 fa3c
00000180: bf13 84bd cbbb 78bd 5581 b8bd dddc 35bd
00000190: fe24 1c3d 9e0d 5e3c 7e4a e93d bcc2 a3bd
000001a0: bcf7 e23c 4165 9ebd 40ad 34bd 736c 003e
000001b0: b295 b6bb 2269 b33d fd22 d0bc c794 b6bd
000001c0: 9315 d33d d87b 743d 006e 35be 7d62 18be
000001d0: 5f1b e0bd 0784 783d db45 2d3d 7b5c 183e
000001e0: dec3 8fbd 0197 e43c 7527 b8bd 903a a33d
000001f0: f6a8 bfbd 30a3 20bd c600 723d 271b 97bd
00000200: 3254 05be 766b 42bd 3cb2 e0bd fa1f bbbd
00000210: 969d be3d 2894 b83d 5f34 8c3d dea1 f2bc
00000220: c477 a93d 04a8 c23d bf91 82bd 53a3 34bd
00000230: c270 9b3d e4cc c5bc 1f55 763d 61c2 4abc
00000240: a42e f53d 3847 88bd 4cc6 3c3c c2f8 8e3d
00000250: f0b9 d83c e283 23bd 794a 6cbd 5c83 3fbd
00000260: 4798 23bd 99fa 1c3e 8ad1 f4bd bd7d 26bc
00000270: 1e70 fc3c af93 773d 2cef 023e 7bfa 10bd
00000280: b000 fdbc df25 da3d 1f59 61bc dea6 cc3c
00000290: 55c4 a8bd 6cb8 963d ca05 b53d 8793 c13c
000002a0: 9776 4a3d fcb7 60bd 07d1 3abd 74f8 37bd
000002b0: 9a3a 25bc 6249 243d 8731 e63c 5e94 7f3d
000002c0: 8aa2 573d 7135 44bd 2c8f 84bd 6f66 0dbd
000002d0: 6a08 68bd 9816 70bd 044e aebc 755f a33d
000002e0: 851e 483d 88f7 273c bf29 e03c 6bc3 4f3c
000002f0: 5315 7d3d 16b7 8a3d b145 cf3c 5a8c 7f3c
00000300: 51ba 543d bbee 77bd 9cf6 10bd 1086 86bd
00000310: 8e5d c83d eb97 a9bc fcf2 093d f4f6 c0bd
00000320: a864 a43c 3b23 85bc 88b8 b83c 6218 d9bb
00000330: 6feb 373d bd70 863d 1c85 83bd 9c89 983c
00000340: ab4a df3c 477d 4b3d 14ee 39bd 17bc 923d
00000350: e7c8 0fbe e8ec 2dbc 5336 183c f956 e4bb
00000360: 57e4 273d ab59 84bd 034f b9bc 3d4c 383d
00000370: e698 383d 975b 443d 9899 3b3d 54b2 8dbd
00000380: 4ced 85bc b429 94bd ce55 7d3d 5780 493c
00000390: 8be3 86bd b5a3 0bbd a39a 433d acba 7d3d
000003a0: 58ff 9c3d 2df1 88bd a1d7 6dba 6e95 023d
000003b0: c862 b83d be0d 95bd b154 4d3d 94af 663d
000003c0: 7421 f5ba 9785 c9bc 9756 8ebd 1ee1 153c
000003d0: 7de1 83bd a78b 3cbd f0a0 abbd 7b70 773c
000003e0: 8ba3 bdbd 46c7 bf3d 2201 aa3d 0952 39bc
000003f0: 2570 3f3d 0a61 1cbe 58ba 23bc 6fdf 143d
-0.17151658 -0.08620194 0.09172036 0.075470634 0.06517699 0.054551322 -0.07720569 -0.11120503
-0.03678352 0.07147283 -0.055624854 0.059592873 0.06708733 -0.019093636 0.022858005 -0.05042715
-0.06655819 0.12714331 0.09260736 -0.076834805 -0.057847444 0.0110015655 0.035116754 -0.053469937
-0.04746763 -0.092142254 0.033900216 -0.070367835 -0.008095856 0.06363395 -0.049095433 -0.0033230116
-0.11826647 0.018379122 0.110197805 -0.026867224 0.0102659315 -0.011527302 0.06455862 -0.082566135
0.07070378 0.07671552 0.07882033 -0.06702435 0.033993144 0.07638641 -0.05627293 0.09337704
0.053945575 0.004305856 -0.0605094 2.0787149e-05 0.07547263 0.09827743 -0.060547374 -0.16748096
0.05182184 -0.05384182 -0.054440252 0.060621295 -0.02838631 0.08437561 -0.051872972 -0.034300137
0.05809141 -0.0038212605 0.07548626 0.015956521 0.07345045 0.036485475 -0.0035034495 0.036801495
0.022295969 -0.014451802 -0.037168033 0.020436062 -0.21857156 -0.04733448 -0.0065144086 -0.07480552
0.04199322 0.023915226 0.07691966 -0.00094185834 0.0705567 0.066624284 -0.04249633 -0.015876468
-0.008746139 0.05511835 0.05935985 0.15800858 -0.031816572 -0.00986453 -0.082093075 0.030627547
-0.06449079 -0.06072597 -0.09009043 -0.044400085 0.038121216 0.013553051 0.113911614 -0.07996127
0.02770602 -0.077341564 -0.044110537 0.1254137 -0.0055720443 0.08760287 -0.025407309 -0.08915096
0.10306849 0.05968842 -0.17717743 -0.1488132 -0.109427206 0.060672786 0.042302947 0.14879028
-0.070197806 0.027904036 -0.08991901 0.07970154 -0.093583986 -0.039218128 0.05908277 -0.07378226
-0.13020399 -0.047465764 -0.109714955 -0.091369584 0.09307401 0.090126336 0.068459265 -0.0296182
0.082747966 0.09504703 -0.06375455 -0.04410107 0.07589866 -0.024145551 0.06013977 -0.012375445
0.119717866 -0.06654209 0.011521887 0.069810405 0.02645585 -0.039920695 -0.05768821 -0.046756133
-0.039940145 0.1532997 -0.11954029 -0.010161814 0.03081518 0.060443576 0.1278655 -0.035395127
-0.030884117 0.106517546 -0.013754158 0.024981912 -0.08240572 0.073593944 0.08838995 0.023629917
0.049429502 -0.05486296 -0.0456095 -0.044914678 -0.0100847725 0.040109046 0.028099788 0.062397353
0.052645244 -0.04790253 -0.0647262 -0.034521516 -0.05664865 -0.058615297 -0.021277435 0.07977191
0.04885723 0.010251887 0.027363656 0.012680869 0.061787914 0.06773202 0.025301786 0.015597427
0.051935498 -0.060530405 -0.035391435 -0.06568539 0.09783469 -0.020702323 0.033678994 -0.094221026
0.020067528 -0.01625215 0.022548929 -0.006625221 0.04490226 0.06564472 -0.06421873 0.018620305
0.027257284 0.04968002 -0.045393065 0.071647815 -0.14041482 -0.010615565 0.009290296 -0.0069683758
0.040989246 -0.06462415 -0.022620684 0.04499458 0.04506769 0.04793891 0.045800775 -0.06918779
-0.016348504 -0.07234517 0.061849408 0.012298665 -0.06586369 -0.03409167 0.047754895 0.061945602
0.076658905 -0.06686626 -0.0009072964 0.03188079 0.09003216 -0.07278012 0.050129596 0.056319788
-0.0018701986 -0.024599833 -0.069501095 0.00914791 -0.06439493 -0.04603162 -0.08380306 0.015102501
-0.09259709 0.0936418 0.08300997 -0.011311063 0.04673781 -0.15271392 -0.009993158 0.036345895

hidden_layers.3.bias f4 [124]
00000000: 9e13 63bd dc62 70bb ac23 af3d 4550 163d
00000010: ffed 51bd 7774 993c 2982 353d 8691 ec3d
00000020: c3d2 c5bd 594c 013d ac9d 673d bfe4 3e3d
00000030: 9816 a63d dcce e3bc c70a 5bbd a6a7 913d
00000040: ac36 1f3d 9d2e 623d 29f3 bfbd fabd 90bd
00000050: c850 babc a902 f3bc 7d17 c33d 027e 813c
00000060: dd93 c43d 1d3a 9ebd f8fa 933c 8234 bdbd
00000070: c4e1 233d 5109 6b3d a8dc 3cbd 17b6 d3bd
00000080: 9bcc a7bd 3d1a 5abd fdf3 c33c 329c 8a3d
00000090: a606 c73d 383c e73b 66a7 43bd 4aea 95bd
000000a0: 6606 3fbd ce2a c73a 0824 a8bd 9c9b f9bc
000000b0: 3fb4 dc3c 5fcd 9f3d 7551 8abd 6606 703d
000000c0: 056e b6bc 1707 4f3d 46e8 88bd ce24 2fbd
000000d0: 681f 8d3d 2479 2abd 3e10 1dbc aad8 be3d
000000e0: f49c 98bd 2d84 93bd 3c0a 4bbd 52f7 b23d
000000f0: 5910 a83d e747 6b3d 22a5 65bd 2a62 45bd
00000100: 4416 58ba 712f f13c eb11 e83c 466f 6d3c
00000110: c4a6 2c3b e4d7 073e 0c97 683d a826 b4bc
00000120: d925 d93c 2d72 8a3d 5c4d e6bd 6722 3b3d
00000130: c82a 11bd 7c94 22bd 3ceb 73bd 91c4 bdbc
00000140: ad36 80bd a583 d0bb f76b 6abd 0d4f 8abd
00000150: 719a 1f3d 1522 f43c a458 84bc c621 bfbb
00000160: bbee 26bd 1bcc eabd aeb7 ad3d 450c 633c
00000170: ed8c 353d 2a31 523d 84e6 b6bc c688 18bd
00000180: f196 293d fdf7 26ba 7079 783d f7d0 4dbd
00000190: a75d ce3d d223 d4bc b135 9d3d 03be 253d
000001a0: b271 83bc 46da 223d adcf 813d 5f62 313d
000001b0: cda0 7cbd 17bb 763d 7adf acbc 3f24 1c3d
000001c0: 2b81 5abd cfab 223d 1d95 36bc bfa9 d43d
000001d0: 69ed de3d 9d32 98bd b082 013e 4473 bd3d
000001e0: 320e 943d 0440 f83c e216 4c3c b66c b63d
-0.05543863 -0.0036680019 0.08551726 0.036697645 -0.05125236 0.018732293 0.044313584 0.11551194
-0.0965934 0.03156695 0.056546852 0.046604868 0.08109778 -0.0278086 -0.053477075 0.071120545
0.0388705 0.055220235 -0.09372551 -0.07067485 -0.022743598 -0.029664354 0.095259644 0.015807156
0.09598515 -0.07725928 0.018064007 -0.09238531 0.04001023 0.05738193 -0.04610887 -0.10337465
-0.08193322 -0.05324768 0.023920054 0.06768073 0.09718065 0.007056739 -0.047767065 -0.07320078
-0.04663696 0.0015195252 -0.082099974 -0.030469708 0.026941417 0.07802843 -0.06753818 0.058599852
-0.022269258 0.05054387 -0.06684928 -0.04275971 0.06890756 -0.041619435 -0.009586392 0.09318669
-0.074518114 -0.07202945 -0.049570307 0.08738579 0.08206243 0.05744162 -0.056065686 -0.04818932
-0.0008243064 0.029441567 0.028328856 0.014491862 0.0026344517 0.1326595 0.056784675 -0.021991089
0.026507305 0.067600586 -0.11245224 0.045687106 -0.03544119 -0.039692387 -0.05955051 -0.02316502
-0.062604286 -0.0063633495 -0.05723187 -0.06753359 0.038965646 0.029801408 -0.016155548 -0.0058328835
-0.040755015 -0.11464711 0.084823 0.013857906 0.04432385 0.051316418 -0.022326715 -0.037239812
0.041403715 -0.00063693506 0.060662687 -0.050248113 0.100764565 -0.025895987 0.076762564 0.040464412
-0.016045425 0.039758943 0.06338439 0.043306705 -0.06167679 0.060237017 -0.021102656 0.038120504
-0.05334584 0.03971463 -0.01114395 0.10383939 0.10885126 -0.07431529 0.1264751 0.09250501
0.0722927 0.030303963 0.012456628 0.08907454

hidden_layers.6.weight f4 [124, 124]
00000000: 4aeb 983d 677b a13d db2c 7aba b63a 8f3d
00000010: adc5 9dbd 4327 f73d 5f2e 7a3d 4d10 ed3d
00000020: d00d 783c 191d 07be 9333 493e 38af 15bd
00000030: 993a 57bb a300 1abd 84d7 d73d e420 8dbc
00000040: fb95 f3bb 43d9 89bd 9eda a03d d622 2f3d
00000050: 743b 7e3d 68c1 d03c 8468 a73c 2b68 81bd
00000060: cc76 8c3d 0bef 1c3e 3977 14bd 47af 0bbe
00000070: 6196 bfbd 2825 e1bd ad3f 8c3d f658 fd39
00000080: db50 083d e2b8 9dbd 8147 84bc 11cc 9bbd
00000090: 54c5 ed3c 3ad2 a7bd 81d4 e63c c6b3 553c
000000a0: 805a 973d ba1f 183e a392 54bd a74b 6fbd
000000b0: 6222 78bd 06e5 513d e575 823d 2403 fcbd
000000c0: d0b2 92bc ba81 9f3d ae4b 793d d6e7 363d
000000d0: c808 0a3d aefa c83d 9126 543c f0fc 8abd
000000e0: 8664 f03d ed3a 67bd b602 3a3d 9b89 a83d
000000f0: 2eec c13d cb95 5d3c 61b9 a6bd ed6a 023e
00000100: bdef fdbd 978c 86bc c89f 943c 2a6a 433e
00000110: a4d4 4e3d abd9 43bd b48e d53c aa37 26be
00000120: a009 273e f213 9f3d 6df2 463d 1e79 833c
00000130: 66bd 8b3d 8aa5 c9ba 00ca 6b3d 4a73 ab3c
00000140: 3276 793b 3297 11bd 1698 263e 48bd e53d
00000150: 8df6 0d3c ebce 603c 3ecf 61bd b443 af3d
00000160: cc6c 2139 b7ee 7bbd 89a1 8d3d edf0 dd3c
00000170: e0d3 5fbd da46 90bd a606 c73c dfc6 1d3e
00000180: 4ec8 0e3e f268 f2bd 876a 073d 17b8 f13d
00000190: eeb0 5abd 3e5b d5bd 6856 983d 3b2c 9b3d
000001a0: 88e6 073e 407c fe3b 6f70 6f3d 8c47 1cbe
000001b0: 5e9d 1c3e 1ddd 92bd 7082 233e bf0d 51bd
000001c0: 0aeb ee3c 3a40 a8bd 6341 663c 911a e33c
000001d0: 534c c0bd 4245 ad3c 613b 9b3d 2db8 8abd
000001e0: 0d03 f2bd 3947 ef3c 3b70 d7bd f597 333c
000001f0: 951f fe3a 77d1 143d ce62 133d d010 8e3c
00000200: 51a5 843d 721f 25bd 036d 0f3d 5a42 8f3d
00000210: 1b2a edbc 7d2a a9bd 261f 633a 7f40 b5bc
00000220: 274d 853d 43b7 5abd af53 253c c44e 013d
00000230: bc13 bbbd 26b0 f03d 6ce8 b5bc b2c2 8abd
00000240: 9300 74bd 3594 ac3d 7452 d3bc 68f4 ab3c
00000250: fb50 443b f2c2 1f3d d277 63bd 9224 a2bc
00000260: e4c9 8dbd ecb1 2f3d 130e 8fbc 867f 1e3d
00000270: 0ee6 e4bd b5dd b63d 039d 833d 5f2f 43bb
00000280: a72e 053e 51d8 45bd f09b bd3d 1743 5d3d
00000290: 9284 91bd fe98 683c 42d7 9e3d b0b0 dc3d
000002a0: 3f2b 283d 6e1a 94bd 431b 9f3d e5c1 e7bd
000002b0: b188 873c ccd9 9dbd 2e52 413d c932 d33c
000002c0: 04ec a63c ab62 57bd 82a6 803d 4157 ce3c
000002d0: 624d a33c 508e a8bd d8e8 9fbb c834 963d
000002e0: c485 adbb 3252 8f3d bc22 0e3d 6e22 7f3b
000002f0: d2e1 32bb 0dcb 663d 3c98 0abd cfa9 2ebd
00000300: 583c 69bc 9509 1e3d 1710 303c dd27 21bd
00000310: 4caf bbbd f319 37bd 0c27 9b3c aa95 febd
00000320: 367c 923c 67dc 9f3d 4b28 bf3c 5f4e a8bd
00000330: c628 b13d b77e 823d cbd1 293b 0d27 15be
00000340: db98 97bb be9c 13be 9161 b83d 11b7 42bd
00000350: c0d3 a6bd 7afc b0bd 0aca 2abd d06a 973d
00000360: aee8 c8bd 0e2b afbd 2209 753d 750f b93d
00000370: 4a73 74bb e541 803d 2350 ac3d dbff 8f3d
00000380: 4b45 023d 60bc 823d 2108 2c3d 5821 82bd
00000390: 43f8 81bd 2b7c 593d ec60 9cbd e406 0bbd
000003a0: 956a 8fbd 2444 913d 1ab2 52bd 5137 cebd
000003b0: 911c 23bd e505 f8bd 7e52 c3bd 1aa7 913d
000003c0: 1267 dcbd 648e 983d 2626 c23d 0820 953d
000003d0: 1d6d 1ebc dcbe 95bd c310 1c3d 35b0 2a3e
000003e0: c1f4 d7bc 577b 83bc 98b9 49bd b8cb 033e
000003f0: ddb8 30bb 49d6 6c3d 4f5e 143e 32b2 9c3d
0.07466753 0.07884865 -0.0009543427 0.0699362 -0.07703719 0.120680355 0.06107938 0.11575375
0.015140012 -0.13194694 0.1964858 -0.036544055 -0.0032841323 -0.037598263 0.10539153 -0.017227598
-0.0074336505 -0.067308925 0.07854198 0.04275783 0.062068418 0.025482848 0.02043558 -0.063186966
0.06858596 0.15325563 -0.036246512 -0.13641082 -0.093548544 -0.10993415 0.06848083 0.00048322201
0.033280235 -0.07701279 -0.016147377 -0.07607282 0.029024757 -0.081943944 0.028177502 0.01304335
0.073903084 0.14855853 -0.051897656 -0.058421757 -0.060579665 0.051243804 0.06370143 -0.123052865
-0.01790753 0.07788415 0.06086319 0.04465469 0.03369978 0.09813438 0.012948648 -0.06786525
0.11737923 -0.05645268 0.04541274 0.08229371 0.09468876 0.013524483 -0.08140827 0.12736101
-0.12399242 -0.01642446 0.018142596 0.19083467 0.05049576 -0.047815006 0.026069023 -0.16232172
0.16312265 0.07767476 0.04857104 0.016048964 0.06823234 -0.0015384417 0.05756569 0.020928998
0.0038064835 -0.03554458 0.16268954 0.11217743 0.008664739 0.013721208 -0.055129282 0.08557835
0.00015394686 -0.061506953 0.06915576 0.027092421 -0.05464542 -0.07044764 0.024295162 0.15407895
0.13943598 -0.11836423 0.033060577 0.118026905 -0.05339139 -0.10417794 0.07438356 0.07576796
0.13271534 0.0077662766 0.058456834 -0.15261668 0.15294406 -0.0717108 0.15967727 -0.0510385
0.02916481 -0.08215375 0.014053675 0.027722629 -0.09389558 0.021151189 0.07579685 -0.0677341
-0.11816988 0.029208766 -0.10519453 0.010961522 0.0019388074 0.036332574 0.0359829 0.017342001
0.06476844 -0.04031319 0.03501607 0.069950774 -0.028950742 -0.08260057 0.0008664004 -0.02212548
0.06508856 -0.05339743 0.0100907525 0.031569257 -0.091346234 0.11752348 -0.022205554 -0.067754164
-0.05957086 0.08426706 -0.025796153 0.020990565 0.0029955495 0.039004274 -0.05553419 -0.019792829
-0.06923273 0.04289429 -0.017462766 0.038695835 -0.11176692 0.08929006 0.06426432 -0.0029782874
0.13006078 -0.048302 0.09258258 0.05401906 -0.07105364 0.014196632 0.07755901 0.10775888
0.041056868 -0.072316036 0.07768872 -0.11316279 0.016544672 -0.07707557 0.047197513 0.025781052
0.020376213 -0.05258433 0.06281759 0.02518809 0.01993436 -0.08230269 -0.004880052 0.07334286
-0.005295487 0.069980994 0.034701094 0.0038930434 -0.0027295244 0.056345988 -0.03383659 -0.04264241
-0.0142355785 0.038583357 0.010746024 -0.039344657 -0.091642946 -0.04470248 0.018939517 -0.1243089
0.017881494 0.0780571 0.023334643 -0.08218073 0.08650355 0.06371825 0.00259124 -0.14565678
-0.004626376 -0.14415261 0.09002984 -0.047537867 -0.08145857 -0.08641906 -0.041696586 0.0739342
-0.09810005 -0.08553134 0.059823163 0.09036151 -0.0037300163 0.062625684 0.08413722 0.070312224
0.031804364 0.06383586 0.04199994 -0.06354016 -0.0634618 0.05309693 -0.07635674 -0.03394212
-0.07002751 0.07093075 -0.051439382 -0.100691445 -0.039822165 -0.12110499 -0.095372185 0.0711195
-0.107618466 0.07449034 0.094799325 0.072815 -0.009669569 -0.07311794 0.038101923 0.1666878
-0.026361825 -0.016050024 -0.04924926 0.12870681 -0.0026965656 0.057821546 0.14489101 0.076511756

hidden_layers.6.bias f4 [124]
00000000: ebb5 443d c5d7 913d 5521 b53b 2c42 27bd
00000010: 429c 8ebc a2cf fa3d 1d1d 67bd f4e1 033e
00000020: 9946 36bd 04cb 53bd b316 b23d 61c0 c23c
00000030: 3b8c 6a3c 7a2c a23d 5010 ab3d 3683 14bd
00000040: 2451 a5bd 24bf 963d 6e74 8b3d bc21 b3bd
00000050: 7373 00be 9fbc 6dbc 1904 6abd d347 963d
00000060: d577 febc 3ff7 4bbd 426c c6bb e452 5fbc
00000070: 9562 f03d 6afc 193e 4eff 093d e424 013d
00000080: 20dc 26bc cf95 13bd edae a23d 9d47 66bd
00000090: 9ced 863d bd58 57bd 0344 a2bd 8f61 71bd
000000a0: 040d 20bd 19ed 43bd 9e33 553d 9b27 c73d
000000b0: 3928 973c a53d 3fbd 5376 acbc c0e6 7b37
000000c0: c171 cabb c106 b53d 7165 5d3d f79e 183d
000000d0: 4f5b 6c3d 20df 4ebc 97bc 06bd d47c 573d
000000e0: 59ba e13b bcb0 583b f037 953b ff17 c53d
000000f0: a5b8 eb3d 4295 38bd 66ec d539 d1b7 42bd
00000100: b487 8c3c 83f7 eb3c 857a be3d 7a4f 1c3d
00000110: 19e0 cbbc 762b c33d c6c4 d8bd eee8 943d
00000120: e639 5fbc d48c e73c 360f c13c 0c63 933c
00000130: e020 3b3d 74eb 78bd 0898 1bbd ee5c 153c
00000140: cca0 193d 6003 af3d 68fc 453d 7eb6 a2bc
00000150: 9fc7 c3bb 9393 d2bc 2986 debd 3c39 9b3c
00000160: 392b 3bba 1e7f 823d d195 4ebd 55ca d53d
00000170: 1557 993c 12d0 413d 38b9 083d 7be9 91bb
00000180: 0432 cf3d f203 383c 156b b83d bcec e93d
00000190: 7889 783d 55e5 9ebc 09ea 82bc f10b eeba
000001a0: 7396 893c 3d8f d8bc 8a1f ae3d fccd 70bd
000001b0: 15e2 ad3d 6bfb 42bd d8da 40bc e6eb 43bd
000001c0: 1664 cd3d 1daf d33b 56c3 19bd 265f db3d
000001d0: ab13 63bd 2295 803d c341 6dbd e921 033d
000001e0: 0433 febb 2ba2 27bd 2d6e a3bc bd13 9e3d
0.048025053 0.07121233 0.005527655 -0.04083459 -0.017408494 0.12246634 -0.05642425 0.12879163
-0.04450092 -0.051707283 0.08695736 0.023773374 0.01431566 0.079186395 0.08352721 -0.036257945
-0.08072117 0.07360676 0.068093166 -0.08746669 -0.1254404 -0.014510303 -0.057132814 0.07337918
-0.031063 -0.04979634 -0.006055386 -0.0136306025 0.11737553 0.15037695 0.033690743 0.031529322
-0.010184318 -0.03603154 0.07943521 -0.05622064 0.06588289 -0.05257486 -0.079231285 -0.05893093
-0.039074913 -0.047833536 0.05205118 0.09724351 0.018451797 -0.04668965 -0.021052515 1.50144915e-05
-0.0061781113 0.08839179 0.05405182 0.037260976 0.057704266 -0.012626439 -0.032894697 0.05260928
0.0068886694 0.0033064326 0.0045537874 0.096237175 0.115098275 -0.04506422 0.00040802656 -0.047538582
0.017154552 0.028804546 0.093007125 0.038161732 -0.024887132 0.09529774 -0.105844066 0.0727099
-0.013624644 0.028265394 0.023566823 0.017991565 0.04568565 -0.06077142 -0.037986785 0.009116394
0.037506863 0.085455656 0.048336416 -0.01986241 -0.0059747244 -0.025705134 -0.10865433 0.01894819
-0.00071399246 0.06371902 -0.050435845 0.104389824 0.018718282 0.047317572 0.033379763 -0.004452882
0.101169616 0.011231409 0.09004799 0.114221066 0.060677975 -0.019396463 -0.015980737 -0.0018161518
0.016795373 -0.026435489 0.08502109 -0.058790192 0.08490387 -0.047603052 -0.011770926 -0.047832392
0.100288555 0.006460084 -0.037539802 0.107115075 -0.05543868 0.06278445 -0.057924043 0.03201476
-0.0077575464 -0.04092614 -0.019949997 0.077186085

output_layer.weight f4 [10, 124]
00000000: b1fa 3ebc 315e 14be ab3a 853d 8ce2 efbd
00000010: 9540 37bc 7813 0fbe 75ed 47be 1c6d 66be
00000020: 303c 9f3d 99d0 98bd 08c0 14bd 2fdd c3bd
00000030: c018 6ebd 7ce2 a53d 19cb 2dbe 96e8 fdbd
00000040: 6f62 31be cbf4 10be 86e4 1f3d dbbd adbd
00000050: d437 0dbe 6e5f e1bd a832 e9bd ea60 333d
00000060: 586c 863d 00ca 773d c7eb 513c 5f4c a13d
00000070: 9ad7 b13d 615c 34be 0320 f43c bb23 83bd
00000080: e442 9c3d 6fca b33c e8e6 b23d 352f 973d
00000090: 4533 39bc 8da5 c9bd 40ef 063d 10d9 e0bd
000000a0: 0641 b93d c516 9bbd c58f e2bd 257f 22be
000000b0: 2f92 e8bd d5ab 79bd 8ec4 423d 9c22 60b8
000000c0: 6262 92bd b430 bfbd 7e59 d3bb 332f 89bc
000000d0: 156a e33d f455 12be 83a9 fcbd 22b8 ae3d
000000e0: 0914 15be c52e 59bd 1705 c3bd 61b1 46bd
000000f0: d754 88bd 343b 1239 63af d5bd 168c bf3b
00000100: fd24 833c 14b1 a0bd 5f6a 32be 095d 7e3d
00000110: a8fe 9e3d a924 b3bd c034 c4bd 4514 abbb
00000120: ad21 bebc 46fe e8bd b53a 18be a49f 453d
00000130: 9108 d93d e24c d8bc f91b ae3c 6cf2 7abd
00000140: ad27 14bd e912 23be a742 9fbd 56a4 0e3d
00000150: 0b85 cb3d f54b a93b 8edf ee3d b75f d9bc
00000160: a7dd aebb c2cc 4abd 7a49 a2bd 4b4a 153d
00000170: 64e9 51be 08fd e03d c272 693d 876b 963d
00000180: 3762 843d c342 ebbd 2c16 3f3d 05ef 0dbe
00000190: 91c3 3ebe 9de9 553d c4d8 94bd c669 6abe
000001a0: 6031 1abe d482 f83c 97f0 46bc 1f7c 253c
000001b0: 7241 c43c 8861 88bd b01d 9fbd 85e4 ab3d
000001c0: c3ee 15be f5b7 02be 63fd d6bd 2c43 0b3d
000001d0: b4c2 253d ed72 16bd 99d1 79bd a63b 2fbd
000001e0: b6a5 8d3d 882c a13d e838 ef3c c9f3 dfbd
000001f0: 0d70 093e af71 96bc 71b0 633c 2c33 80bd
00000200: 9bfd bd3c ec47 d5bd 19df 793b 7a6a 813d
00000210: 3177 0fbe 8c7b 1fbd 1381 08be 5280 853c
00000220: e775 783d 52d4 72bd b437 3abe b2f9 103d
00000230: 7c61 873d 7e3a 1fbb bf37 cabd 9dad c63c
00000240: 9be7 b53c 7861 e7bd ca5d 393d f649 f3bd
00000250: 80c6 a9bd eb6f a7bd bd51 01be ef19 a1bd
00000260: d9fa 07be 9330 9d3c efb1 f23d 0e0c 11bc
00000270: 73b9 a4bd 19d9 2dbe c8a0 dfbd 2800 173d
00000280: e15a 07be d335 d1bc df41 62be b70a ac3d
00000290: 66ae a4bc 2a2a 2dbe 12d8 3bbc d831 e63d
000002a0: df4d 38bd 4410 513d 78aa a1bd 7da3 a9bd
000002b0: b90d 1fbe dfde 12bd d9f2 f63c 578d 04be
000002c0: f2aa 92bd 91b5 da3d 7f2a 873d e7b7 943d
000002d0: 6744 363d 2eea ae3d a36e a33d 5e6e d5bd
000002e0: 949f 05bd a404 a1bd b60f 0abe 7fe9 eabd
000002f0: 41bc fcbc fd52 1b3d ff08 913c 05fe d2bd
00000300: 6f93 49be b71f 30bb 1cd8 06be 0b1d 89bd
00000310: ac95 893c 9539 a1bd d6b1 903d dc47 6e3c
00000320: 9c2a bfbd eee4 9d3d c0fc 163c c398 09be
00000330: 7d36 ac3d c1bd 83bc 9838 c1bd dd0f 2ebe
00000340: 73d3 e1bd a3d3 c3bd 6a9a eb3c ee85 383d
00000350: 4ff9 1ebe de56 093e 7255 5b3d e032 0abe
00000360: 888f a73d 632f 35be ac99 1e3d 2797 e7bc
00000370: a451 2abe 99a4 0f3e b543 b4bd 6925 5dbd
00000380: 83d9 8b3d 6a11 b8bd de40 1cbe e6b3 b33d
00000390: 913a 0dbb ce4e 3ebd 33c0 18bd 8aff e6bd
000003a0: 0ac3 adbd e2bb aebd 2037 20be fc97 acbc
000003b0: 567d e23d 1935 fbbd 1340 c83d fa9b 0b3c
000003c0: 983e 0abe e2ff de3d 396c 31be af52 21bd
000003d0: 9ec1 bdbc 8fb5 a4bd 584f 183e eb04 953d
000003e0: d7b7 3cbd bb0e 983d 6250 5d3d f829 e1bd
000003f0: 12a2 833d bc0d b93c e978 a9bd e2d1 50be
-0.011656449 -0.14489056 0.06505331 -0.11713132 -0.011184831 -0.1397227 -0.19524176 -0.2250256
0.07775152 -0.07461662 -0.036315948 -0.09563672 -0.058129072 0.08099839 -0.16972007 -0.12397878
-0.17322706 -0.14155881 0.039036296 -0.08483478 -0.13790828 -0.1100453 -0.11386615 0.043793596
0.06563634 0.060495377 0.012812561 0.07875895 0.08683701 -0.17613365 0.02980042 -0.064032994
0.07629946 0.021947114 0.08735448 0.07382051 -0.0113037275 -0.098460294 0.03294301 -0.109789014
0.09045605 -0.07572702 -0.11062578 -0.15868814 -0.11356007 -0.060954887 0.04755073 -5.3437994e-05
-0.07147671 -0.09335461 -0.0064498773 -0.01674614 0.11104218 -0.14290601 -0.12337019 0.08531214
-0.14558424 -0.05302312 -0.09522455 -0.048509005 -0.06656807 0.000139457 -0.10433843 0.005845557
0.016008848 -0.07846275 -0.1742339 0.062100444 0.077634156 -0.08747227 -0.09580374 -0.005220922
-0.023209417 -0.11376624 -0.14866145 0.04824795 0.10597337 -0.026403848 0.021253573 -0.061266348
-0.03617065 -0.15925182 -0.07776385 0.03482469 0.09937485 0.0051665255 0.116637334 -0.026534898
-0.0053364816 -0.04951168 -0.07924171 0.036447804 -0.20499188 0.10985762 0.056994207 0.07344728
0.064640455 -0.11487343 0.046652004 -0.1386071 -0.1862929 0.052224744 -0.07267907 -0.22891912
-0.15057898 0.030335821 -0.012142322 0.010100394 0.023956988 -0.066592276 -0.07769334 0.08393196
-0.14641862 -0.12765487 -0.104975484 0.033999607 0.040468886 -0.036730696 -0.060990904 -0.042781495
0.069163725 0.07869822 0.02920194 -0.1093517 0.1342165 -0.018364755 0.013897047 -0.0625976
0.023192218 -0.10414109 0.0038127361 0.06319137 -0.14010312 -0.038936183 -0.13330488 0.01629654
0.060659315 -0.059284516 -0.18185312 0.035394378 0.066103905 -0.0024296339 -0.09873914 0.024252707
0.022205165 -0.112978876 0.04525546 -0.11879341 -0.08289814 -0.081756435 -0.12628837 -0.078662746
-0.13279285 0.019188201 0.118503444 -0.008852972 -0.08043184 -0.16977347 -0.109193385 0.036865383
-0.13218261 -0.02553836 -0.2209544 0.08400481 -0.02010269 -0.16910616 -0.011465089 0.11239976
-0.04499614 0.051040903 -0.078938425 -0.08283136 -0.15532579 -0.035857078 0.030145096 -0.12944542
-0.071615115 0.10679162 0.06599902 0.07261639 0.044498827 0.0854076 0.07980087 -0.104214415
-0.03262289 -0.07862213 -0.13482556 -0.11470317 -0.030851485 0.03792094 0.017704485 -0.10302357
-0.19685148 -0.0026874372 -0.13168377 -0.06694993 0.016795002 -0.07872311 0.070651695 0.0145435
-0.09334299 0.077096805 0.009215534 -0.1343718 0.0840883 -0.016081693 -0.094346225 -0.16998239
-0.11026659 -0.09561851 0.028760154 0.0450496 -0.15524791 0.13412043 0.053548284 -0.1349597
0.08181673 -0.17693858 0.03872077 -0.028270317 -0.16632706 0.14027633 -0.088019766 -0.053990755
0.068285964 -0.089876965 -0.1525912 0.08774547 -0.00215498 -0.046461873 -0.03729267 -0.11279209
-0.084844664 -0.085319296 -0.15646029 -0.021068566 0.11059062 -0.12265987 0.09777846 0.008521074
-0.1350044 0.108886495 -0.1732644 -0.039385494 -0.023163613 -0.08042442 0.14874017 0.07276329
-0.04607376 0.074246846 0.054031737 -0.10994333 0.06427397 0.022589557 -0.08275015 -0.20392564

output_layer.bias f4 [10]
00000000: 2fcf 233d ffe1 0cbd 18d4 833d e83a 3ebd
00000010: 2666 933d c1b4 883c b27f a5bd eb1f 01bd
00000020: 4262 e23d 18ea 45bd
0.039992508 -0.034395214 0.06436938 -0.046442896 0.07197218 0.016687753 -0.080809966 -0.03152458
0.110538974 -0.048318952
