Results/RandomResult4/best_model_weights.pt (torch, 399720 bytes, 4 tensors)

hidden_layers.0.weight f4 [125, 784]
0	0x3c039df9	0.008033269
1	0xbb61f4b6	-0.0034478134
2	0x3c81a7b4	0.015827037
3	0xbc68644a	-0.014184067
4	0xbc4be5e7	-0.01244495
5	0xba7f8dd7	-0.0009748614
6	0x3b0a515b	0.002110562
7	0x3c1fac3d	0.009745655
8	0xbb3bbc26	-0.002864608
9	0x3cea44f3	0.02859733
10	0x3ca4ba7b	0.020108452
11	0x3c2880ca	0.010284612
12	0xbb7ae6d7	-0.0038284564
13	0x3d2ab708	0.04167846
14	0xbc8c32ae	-0.01711401
15	0xbc9033f1	-0.017602893
16	0xbcb6a888	-0.022297159
17	0xbc3258a3	-0.01088539
18	0x3c4dce60	0.012561411
19	0xbcf1d27e	-0.029519316
20	0xbc5f756e	-0.013638837
21	0xb972d1a1	-0.00023157011
22	0x3c2653bc	0.0101518
23	0x3c8fface	0.017575648
24	0x3b4eaeb8	0.0031537246
25	0x3c0454ea	0.008076886
26	0xbc01d8c5	-0.007925217
27	0xbc984b0a	-0.018590469
28	0x3ccab1a7	0.024742914
29	0x3d16f3c7	0.036853578
30	0xba854ec3	-0.0010170568
31	0x3c7e069b	0.015504505
32	0xbcbd8488	-0.023134485
33	0xbb1984ec	-0.0023425175
34	0x3d1e2285	0.03860714
35	0x3c2d3757	0.010572276
36	0x3c6760c5	0.014122193
37	0x3d0df0f7	0.03465363
38	0x3cb6d4c7	0.022318257
39	0x3c8c11a3	0.017098254
40	0x3cee63aa	0.029100258
41	0x3bd83109	0.0065976423
42	0x3ce5184c	0.027965687
43	0xbcda1e6a	-0.02662583
44	0xbc07543d	-0.00825983
45	0x3c0ee33c	0.008721169
46	0x3d2868c8	0.041115552
47	0xbc2afae9	-0.010435798
48	0x3ceaa4cc	0.028643034
49	0x3aa090d1	0.001225019
50	0x3cc436f5	0.023951987
51	0x3c1fceaa	0.009753862
52	0xbc91dada	-0.017804552
53	0xbc6c283d	-0.01441389
54	0xbcd1f6cc	-0.025630377
55	0x3c968955	0.018376032
56	0x3c417fc9	0.0118102515
57	0x3c97e76c	0.018542968
58	0xbbf86818	-0.0075807683
59	0x3c95bdac	0.01827892
60	0xbb7ee820	-0.0038895682
61	0x3bf785f6	0.007553811
62	0x3d1aea78	0.037821263
63	0x3caef2fb	0.021356096
64	0x3c9c03c1	0.019044759
65	0xbcb79861	-0.022411527
66	0x3ca58bbb	0.02020823
67	0xbb224095	-0.0024757732
68	0x3cc133ba	0.023584235
69	0x3ab667d1	0.0013916438
70	0x3c1b7586	0.009488469
71	0x3cf5f7ec	0.030025445
72	0x3c39c888	0.011339314
73	0xbcc5cf1f	-0.024146615
74	0x3c4544eb	0.012040357
75	0x3d160e3f	0.03663468
76	0xbc991400	-0.018686295
77	0x3cfe8256	0.031068008
78	0x3cd4f030	0.025993437
79	0x3d2477cb	0.040153306
80	0xbb5237fe	-0.003207683
81	0xbbbc913a	-0.005754617
82	0xb9c6cbb4	-0.00037917274
83	0xbc9d25b1	-0.019183012
84	0x3c231aee	0.009955151
85	0x3c28b457	0.010296903
86	0x3a24ef9d	0.00062918087
87	0x3ca9d65b	0.020732095
88	0x3bc3e1db	0.005977852
89	0x3c10988a	0.008825431
90	0xbc05fa8f	-0.008177414
91	0xbb607dde	-0.003425471
92	0x3d0c16d3	0.034201454
93	0x3cb41957	0.02198474
94	0x3c9d9271	0.019234868
95	0x3d249b8b	0.0401874
96	0x3d0ebfe4	0.03485097
97	0xbcc18b03	-0.023625856
98	0xbcd5a3e5	-0.026079128
99	0xbc1134ee	-0.008862717
100	0xb7c646ec	-2.3636465e-05
101	0x3cc8016b	0.024414739
102	0xbc963880	-0.018337488
103	0x3ce822bf	0.02833688
104	0x3d1b3df0	0.037900865
105	0x3c69fff2	0.0142822135
106	0x3d251824	0.040306225
107	0x3cc45337	0.023965461
108	0xbccadda7	-0.024763895
109	0x3d14a56b	0.036290567
110	0x3af3aa8b	0.0018590254
111	0xbcf1637c	-0.029466383
112	0xbb1d3cb8	-0.002399249
113	0x3cfcbe3c	0.03085243
114	0xbc69a39c	-0.014260199
115	0x3c1c18e1	0.009527416
116	0x3c12b8aa	0.00895516
117	0xbcd4baf6	-0.025968056
118	0xbbb264b2	-0.0054441327
119	0x3c6830f3	0.014171827
120	0x3c91a4f2	0.017778847
121	0xbbdfdab2	-0.0068314904
122	0x3c7112dd	0.01471397
123	0xbc9b965b	-0.018992594
124	0xbc2cb61e	-0.010541467
125	0x3c96ccf0	0.018408269
126	0x3cd45046	0.025917184
127	0xbc65a0cf	-0.014015391
128	0x3be63198	0.007024955
129	0xbccbd7ba	-0.02488314
130	0x3c0075e7	0.00784061
131	0xbc2a3b48	-0.01039011
132	0xbcb92334	-0.022599794
133	0x3c8ce55f	0.017199216
134	0x3d07aa86	0.03312161
135	0x3d0439c8	0.032281667
136	0x3b9f8f11	0.0048693498
137	0x3bee4a77	0.0072720605
138	0x3d21fc45	0.039547224
139	0xbc287469	-0.010281661
140	0xbcd34c6a	-0.025793273
141	0x3bcfb592	0.0063387835
142	0x3c5b3ab7	0.013380698
143	0xbc4a2dbd	-0.012340006
144	0x3bb7e436	0.0056119217
145	0x3d110ab2	0.03541059
146	0x3aa81965	0.0012824951
147	0x3be80f09	0.0070818705
148	0xbca496e5	-0.020091483
149	0x3b79ef40	0.003813699
150	0x3d10a71d	0.03531562
151	0xbb575eaa	-0.003286282
152	0x3af10c0b	0.001839043
153	0xbb3c4b1b	-0.002873129
154	0xbcbfbb92	-0.02340487
155	0x3c2ed789	0.010671505
156	0x3d153149	0.036423955
157	0x3bbb78a6	0.0057211695
158	0x3cb4ec1c	0.022085242
159	0xb9081d13	-0.00012980802
160	0x3c0efe75	0.0087276595
161	0x3d13aee9	0.03605548
162	0xbcd71a2e	-0.0262576
163	0x3d005ea8	0.03134027
164	0x3c46c19f	0.012131124
165	0xbcddfc6b	-0.027097901
166	0xbc13d98f	-0.009024038
167	0xba3129d9	-0.000675825
168	0xbad91b55	-0.0016563932
169	0x3d2b5a83	0.041834366
170	0x3c1dd07d	0.009632227
171	0x3d1421ca	0.036165036
172	0x3d01a212	0.031648703
173	0x3c2baf97	0.010478876
174	0x3ccc4df5	0.024939517
175	0xbc27c675	-0.010240187
176	0x3d096d57	0.03355154
177	0x3c94752b	0.018122276
178	0x3ca7ac16	0.0204678
179	0x3ba17cbc	0.0049281996
180	0x3d15882e	0.036506824
181	0x3b89489b	0.0041895634
182	0x3c958b60	0.018254936
183	0xbcef8bad	-0.029241407
184	0x3c1908ea	0.009340504
185	0xbc9ee2f8	-0.019395337
186	0x3cbfc136	0.02340756
187	0xbc05bc1d	-0.0081625255
188	0x3c0fba4a	0.008772442
189	0x3b971a7b	0.004611311
190	0x3ce5cb1d	0.028050954
191	0x3b006363	0.001959049
192	0x3cd22140	0.02565062
193	0x3d08a7f9	0.033363316
194	0x3ad8bed3	0.0016536362
195	0x3d101e33	0.03518505
196	0x3c72890f	0.014803185
197	0xbb97a3f1	-0.0046276976
198	0x3ca6198b	0.020275852
199	0xbc93b7a1	-0.018031897
200	0x3c053f48	0.008132763
201	0xbb54aced	-0.0032451705
202	0x3cc6bcb3	0.0242599
203	0x3cb4bfd5	0.022064129
204	0x3cb99675	0.022654751
205	0xbc6126eb	-0.013742189
206	0xb7b16d0a	-2.115082e-05
207	0x3c324a7c	0.010882016
208	0x3d1247c1	0.03571296
209	0xbb361e8e	-0.0027789208
210	0x3c8a124a	0.016854424
211	0x3c69448e	0.014237536
212	0xbccbc5ed	-0.024874652
213	0x3cab7a53	0.020932352
214	0xbc1b5979	-0.009481781
215	0xbc84c21e	-0.016205844
216	0xbc5ac0c0	-0.013351619
217	0x3c29f979	0.01037442
218	0xbcbda8e7	-0.023151828
219	0xbcb957a8	-0.022624806
220	0xbc213ca4	-0.009841118
221	0xbcb9f673	-0.022700524
222	0x3cc9369c	0.024562173
223	0xb9dbde74	-0.00041936676
224	0x3ca57de4	0.02020163
225	0x3ccc9e23	0.02497775
226	0xbcd5bffb	-0.02609252
227	0x3a675959	0.00088252645
228	0xbc4fadcf	-0.012675717
229	0xbb95267c	-0.004551707
230	0x3d220312	0.03955371
231	0x3a9ffebc	0.0012206654
232	0xbc7173ca	-0.014737079
233	0xbb39bcdf	-0.0028341336
234	0x3c8f1361	0.017465295
235	0x3c464dee	0.012103541
236	0xbc0467e8	-0.008081414
237	0x3c646109	0.013939151
238	0xbcb5c2bf	-0.022187589
239	0x3c2db07c	0.010601159
240	0x3ca37646	0.019953858
241	0x3d06f21a	0.03294573
242	0xbc5a7899	-0.013334417
243	0xbac71e1a	-0.0015191466
244	0x3c83051f	0.015993653
245	0xba45cb94	-0.0007545289
246	0xbbb3fa3d	-0.005492477
247	0xbc62fc37	-0.013854078
248	0xbcebc9fe	-0.02878284
249	0x3ca79129	0.02045496
250	0xbc9a878a	-0.018863458
251	0xbc44278c	-0.011972319
252	0x3ceb8efc	0.028754704
253	0x3d205b60	0.039149642
254	0x3a48522c	0.0007641639
255	0x3c877325	0.016534397

hidden_layers.0.bias f4 [125]
0	0xbc756d33	-0.014979648
1	0xbbea5099	-0.0071507213
2	0xbd1cdeba	-0.038298346
3	0x3cb09b89	0.02155854
4	0xbc022bf2	-0.007945048
5	0xbc9097fb	-0.017650595
6	0xbc871c20	-0.016492903
7	0x3c84d839	0.016216384
8	0x3cc8eadb	0.02452605
9	0xbbdd6536	-0.00675645
10	0x3d0aaa9b	0.03385411
11	0xbd1597db	-0.036521774
12	0x3cca08d3	0.02466241
13	0x3ce322d7	0.027726574
14	0xbd11fdf2	-0.03564257
15	0xbd027a0a	-0.031854667
16	0x3c17f3a2	0.009274395
17	0x3c434118	0.011917375
18	0xbd1b698a	-0.037942447
19	0xbcf1188e	-0.029430654
20	0xbd16ea00	-0.036844254
21	0x3d057a3e	0.032587282
22	0x3cf444b0	0.029817909
23	0xbba129c7	-0.0049183103
24	0x3d00840d	0.031375933
25	0x3c887657	0.016657991
26	0xbc706434	-0.014672328
27	0xbc198dbd	-0.009372172
28	0xbc030119	-0.007995867
29	0x3c243ebc	0.010024723
30	0xbb84a46b	-0.0040479205
31	0x3cb07c76	0.021543723
32	0x3c4597b5	0.012060096
33	0xbc1bb397	-0.009503267
34	0xbc6da22b	-0.014503996
35	0xbc6cb795	-0.014448066
36	0xbc1ddd6a	-0.009635309
37	0x3c1737cd	0.009229613
38	0x3aae566a	0.00133009
39	0xbc870574	-0.016482092
40	0x3ab5fed5	0.001388515
41	0x3c9c2e8a	0.01906516
42	0x3cb7fdfa	0.022459973
43	0xbcd1d024	-0.025611944
44	0xbd0b47b2	-0.03400392
45	0x3ca3979b	0.019969752
46	0x3be16622	0.0068786303
47	0x3c6244a6	0.013810312
48	0xbd2820ec	-0.04104702
49	0xbc4d73a4	-0.012539778
50	0xbd194fee	-0.037429743
51	0xbd25cec6	-0.040480398
52	0x3c0e6b74	0.008692611
53	0xba76b2ab	-0.0009410779
54	0xbb0be93b	-0.0021348733
55	0x3ca80ea6	0.020514797
56	0xbc391e86	-0.011298781
57	0x3c34dbe3	0.011038753
58	0xbceb3c06	-0.028715145
59	0x3cc26e18	0.023734137
60	0xbcac8739	-0.021060573
61	0x3cca8b41	0.024724605
62	0xbd0cd3b5	-0.034381587
63	0x3b08d1d5	0.0020877023
64	0xbab6a255	-0.0013933877
65	0xbbee51cb	-0.007272934
66	0x3c3bb754	0.011457283
67	0xbc593e7f	-0.013259529
68	0x3b8d089a	0.004304004
69	0x3b586c41	0.0033023509
70	0xbbc1afee	-0.005910865
71	0xbbb1615d	-0.005413218
72	0xbc8828f9	-0.0166211
73	0xbcbcb4c7	-0.02303542
74	0x3aad2381	0.0013209434
75	0xbbd35bf8	-0.0064501725
76	0xbc125755	-0.008931954
77	0xbcc1eabf	-0.023671506
78	0x3c759ce1	0.014991016
79	0xbcd29505	-0.025705824
80	0xbcd08e56	-0.025458496
81	0x3c7b3de8	0.015334584
82	0xbc78382b	-0.01515011
83	0x3c542903	0.012949231
84	0xbbc5f27b	-0.006040869
85	0xbc31e881	-0.010858656
86	0xbcc7631a	-0.024339247
87	0xbd20ec0f	-0.039287623
88	0xbcc64f46	-0.024207722
89	0x3d3ad9f1	0.045618
90	0x3c20d5f3	0.0098166345
91	0x3c061e90	0.008185998
92	0x3c0e8759	0.008699262
93	0xbd0b1ce6	-0.033963107
94	0xbcb79100	-0.022408009
95	0x3c071123	0.008243832
96	0x3d174ac0	0.03693652
97	0xbc550f7d	-0.013004181
98	0xbc97c7a5	-0.018527815
99	0x3bb7d22b	0.005609771
100	0x3cb77b3e	0.022397634
101	0xbca1d186	-0.019753229
102	0xbd1ed3c7	-0.038776185
103	0xbb1d97bd	-0.0024046742
104	0x3cb01cdf	0.021498142
105	0x3cea55fe	0.028605457
106	0xbcba8761	-0.022769632
107	0xbc5b3eaf	-0.013381644
108	0x3bca33b8	0.006170716
109	0xbcad6a67	-0.0211689
110	0x3c8c109d	0.017097766
111	0x3ce688fc	0.028141491
112	0xbc4d0e82	-0.012515666
113	0xbb65c25d	-0.0035058476
114	0xbd2337e0	-0.03984821
115	0xbce7b6e8	-0.028285459
116	0xbb9d851b	-0.004807127
117	0xbb8036b8	-0.003912773
118	0xbcdc95b5	-0.026926855
119	0xbbc16484	-0.005901875
120	0x3d33d87a	0.04390762
121	0x3c8a44a8	0.016878441
122	0xbbf49357	-0.0074638533
123	0xbc705d85	-0.014670734
124	0x3c80ed4f	0.015738158

output_layer.weight f4 [10, 125]
0	0xbd3219a7	-0.043481495
1	0xbe58ee01	-0.21184541
2	0x3d5ca7fc	0.05387114
3	0x3d1d7371	0.03844017
4	0x3d326056	0.043548904
5	0xbd8a4b35	-0.06752626
6	0x3d4fd3dc	0.050739154
7	0x3e0e02b6	0.13868222
8	0x3d03ff97	0.03222617
9	0x3d9f91c6	0.07791476
10	0x3d8f7ad3	0.07005849
11	0xbd5bdaa9	-0.053675327
12	0x3d967639	0.07346768
13	0xbc9a8989	-0.01886441
14	0xbd561e1b	-0.052274805
15	0xbdd10759	-0.102064796
16	0xbe802899	-0.25030974
17	0xbe893048	-0.26794648
18	0xbd5a6bb4	-0.05332537
19	0x3e19fac7	0.1503707
20	0xbd9c3162	-0.076266065
21	0xbdd727cb	-0.10505637
22	0x3da4311f	0.080171816
23	0x3e11bdfd	0.14232631
24	0x3cf8e35a	0.030381847
25	0x3e249ccb	0.16075437
26	0xbca0b289	-0.019616382
27	0xbe6bd2fd	-0.23029704
28	0x3c3f8118	0.011688493
29	0x3c0053e9	0.007832506
30	0xbdc9cbe9	-0.09853346
31	0xbcbeb2f5	-0.023278693
32	0x3bf5fc8b	0.007506912
33	0xbd4e4a90	-0.050364077
34	0x3e15dfc8	0.14636147
35	0xbdf8c694	-0.12147251
36	0x3daf1774	0.08549395
37	0x3e09c020	0.13452196
38	0x3d608c09	0.054821048
39	0x3db017b8	0.08598274
40	0xbd7228c2	-0.0591209
41	0xbd66f374	-0.05638452
42	0xbd09ea38	-0.033670634
43	0x3d06aebc	0.032881483
44	0x3d71594e	0.05892306
45	0x3bad7360	0.005293295
46	0xbcf142ec	-0.029450856
47	0xbd084a16	-0.03327378
48	0x3d604305	0.054751415
49	0xbe3f83ae	-0.18702576
50	0x3d9c88d9	0.07643289
51	0xbe30607f	-0.1722431
52	0x3d6029e2	0.054727443
53	0xbc5cfb91	-0.0134877125
54	0x3ca814ab	0.020517668
55	0x3d88d8f6	0.06682007
56	0x3d088c7e	0.03333711
57	0x3d70c949	0.05878571
58	0x3adabd65	0.0016688524
59	0xbc1d35b2	-0.0095953215
60	0xbda8ffe5	-0.08251933
61	0xbd8b6980	-0.06807232
62	0xbd28ec04	-0.041240707
63	0x3cf504f6	0.029909592
64	0xbe23d1f8	-0.15998065
65	0xbe1f3391	-0.15547015
66	0xbdfad458	-0.122475326
67	0x3dd80e1e	0.10549568
68	0x3bf48f42	0.0074633667
69	0x3b89ab18	0.004201304
70	0xbd79295b	-0.060830455
71	0x3d1d9806	0.03847506
72	0x3e00c4fe	0.12575147
73	0xbe41f04d	-0.18939324
74	0xbc167ddc	-0.009185281
75	0xbd047627	-0.03233924
76	0x3d38bcd7	0.045101967
77	0x3dcfe29b	0.101506434
78	0x3dc45042	0.095856205
79	0xbc404c19	-0.011736893
80	0xbddc4ae7	-0.10756474
81	0xbd7638d1	-0.060112778
82	0x3d94e3af	0.0726999
83	0x3b9aa37f	0.0047191973
84	0x3c11fb45	0.008910005
85	0xbc8098de	-0.015697893
86	0xbd84a8d4	-0.06477514
87	0x3d62b708	0.055350333
88	0x3d780c19	0.060558412
89	0xbea18825	-0.31549183
90	0xbe221588	-0.15828526
91	0x3cca29f2	0.024678204
92	0xbd7ca7a2	-0.061683305
93	0xbd5af63a	-0.053457476
94	0xbb863f84	-0.004096927
95	0xbd8d08d5	-0.0688645
96	0xbe0922d2	-0.13392189
97	0xbc9ac8db	-0.018894603
98	0xbd6f3a35	-0.05840512
99	0xbd8717d4	-0.06596342
100	0x3d5abbe8	0.053401858
101	0xbe244c95	-0.16044839
102	0xbe305fc1	-0.17224027
103	0xbdeb0059	-0.11474676
104	0x3d8f5cf4	0.07000151
105	0xbe81f23c	-0.25380123
106	0xbc89a725	-0.016803334
107	0xbe92b007	-0.28649923
108	0x3c559906	0.013036972
109	0xbda0ef3f	-0.078581326
110	0xbd927abb	-0.07152315
111	0xbc81eb3b	-0.015859237
112	0x3c6b6be3	0.014368984
113	0xbc162c62	-0.009165855
114	0x3ca07b27	0.019589974
115	0x3d934359	0.0719058
116	0xb92b17a2	-0.00016316635
117	0xbda7bc50	-0.08190215
118	0x3c8e1234	0.017342664
119	0x3d4c2de9	0.04984847
120	0x3dfe2138	0.1240868
121	0xbd85b8f6	-0.06529419
122	0xbd8ae2d3	-0.067815445
123	0x3b97ead7	0.0046361494
124	0x3d95dd0e	0.073175535
125	0x3d3ebd3f	0.046567198
126	0x3d8c5b30	0.0685333
127	0x3ce339bf	0.027737496
128	0xbd6d1d2f	-0.05788916
129	0xbe128ce0	-0.14311552
130	0xbe2584a6	-0.16163883
131	0xbd957f56	-0.07299678
132	0xbe9a9ad6	-0.30196255
133	0x3d888d54	0.06667581
134	0x3d63a81f	0.055580255
135	0xbe7d8c7d	-0.24760623
136	0x3d96d1bc	0.073642224
137	0x3d9e237d	0.077216126
138	0x3d9a8a02	0.07545854
139	0xbd9f14ad	-0.077676155
140	0xbe711a2d	-0.23545142
141	0x3de4af80	0.111662865
142	0x3c26fc7b	0.010192032
143	0x3c94a443	0.018144732
144	0xbc614b4f	-0.013750865
145	0x3cf8cb73	0.03037045
146	0x3d4d9802	0.050193794
147	0xbe50e767	-0.20400773
148	0xbe1f581d	-0.15560956
149	0x3dfb9110	0.12283528
150	0x3d96a2d9	0.073552795
151	0x3cdbba9a	0.026822377
152	0x3db72fe5	0.08944682
153	0x3c6fc408	0.01463414
154	0x3d2ce7fd	0.04221343
155	0x3dc57096	0.09640615
156	0x3ce751f1	0.028237315
157	0x3d7de37a	0.061984517
158	0xbd107078	-0.03526351
159	0xbe669624	-0.22518212
160	0xbda65e65	-0.08123473
161	0x3d503706	0.050833724
162	0xbe407ac9	-0.18796839
163	0x3bdf4827	0.006814021
164	0x3dd935c3	0.10605957
165	0x3c25bad2	0.010115342
166	0x3d819793	0.063277386
167	0xbbcfb36e	-0.0063385284
168	0xbdb06850	-0.08613646
169	0xbacc01bd	-0.0015564483
170	0x3d4544f4	0.048161462
171	0x3d13106f	0.035904344
172	0xbe39b35d	-0.18134828
173	0x3d36862d	0.044561554
174	0xbdda209e	-0.106507525
175	0x3d8bdb4a	0.068289354
176	0x3da85abe	0.08220433
177	0xbd135b5f	-0.03597581
178	0xbdaaddfb	-0.08343121
179	0xbd20d006	-0.039260887
180	0x3cff9961	0.031201066
181	0xbd86dc69	-0.06585009
182	0xbce9194e	-0.028454449
183	0xbd93ccbb	-0.072167836
184	0x3d9555cf	0.07291757
185	0x3cd2236e	0.02565166
186	0xbd65233f	-0.055941816
187	0x3c0506a4	0.008119259
188	0xbe17d4a5	-0.14827211
189	0x3dbb878e	0.091567144
190	0xbe4fc937	-0.20291601
191	0xbdcd4b2c	-0.100241035
192	0xbdf04b4e	-0.11733113
193	0x3d182ef7	0.037154164
194	0xbd93eb92	-0.07222666
195	0x39853661	0.00025408252
196	0xbb60ac62	-0.0034282436
197	0xbe7d2fc7	-0.24725257
198	0xbe903fe4	-0.28173745
199	0xbda45e34	-0.0802578
200	0x3c9fcacc	0.01950588
201	0x3d30da54	0.043176964
202	0x3e01f00c	0.12689227
203	0xbe05685c	-0.13028091
204	0xbc496a66	-0.012293434
205	0x3e302755	0.17202504
206	0xbdb5ed20	-0.08883119
207	0xbddd09f7	-0.10792916
208	0xbe450389	-0.1923963
209	0x3d568ece	0.052382283
210	0x3d905dd5	0.07049147
211	0xbdbd9518	-0.09256953
212	0x3da34338	0.07971805
213	0xbd838878	-0.06422514
214	0x3cb8871b	0.02252536
215	0x3d8d6ad1	0.06905139
216	0xb8cd5caf	-9.7924254e-05
217	0x3df587e7	0.11988812
218	0xbe7e3f51	-0.24828841
219	0x3decc340	0.115606785
220	0x3de4af21	0.11166216
221	0xbd4f2e26	-0.05058112
222	0x3d634110	0.05548197
223	0xbd3ab899	-0.045586202
224	0x3d1f15bc	0.038839087
225	0xbca6e2ad	-0.02037176
226	0x3dfb5bf8	0.12273401
227	0x3e03fc87	0.128893
228	0x3dc079c5	0.09398226
229	0xbcf0fd03	-0.02941752
230	0xbde2feae	-0.110837325
231	0x3d9a9efb	0.07549854
232	0xbcbb0926	-0.02283151
233	0xbd2d4565	-0.042302508
234	0x3dd4633d	0.10370491
235	0xbc90a05a	-0.017654587
236	0xbc212afe	-0.00983691
237	0x3d24d203	0.040239345
238	0xbbc7e954	-0.006100813
239	0x3ad25a25	0.0016048594
240	0x3c33ac40	0.010966361
241	0xbcc47097	-0.023979468
242	0x3d4fc631	0.05072612
243	0xbbc74979	-0.0060817567
244	0xbc8a93d9	-0.016916202
245	0x3dd0e2d0	0.10199511
246	0x3da6ef6e	0.08151136
247	0x3b723e28	0.0036963318
248	0xbcbf4bc3	-0.023351556
249	0xbdd10676	-0.102063105
250	0xbd282268	-0.041048437
251	0xbe708ef6	-0.23492035
252	0xbc228809	-0.009920129
253	0x3db40e1c	0.08791754
254	0xbbef7a9a	-0.0073083164
255	0xbe257ad4	-0.16160136

output_layer.bias f4 [10]
0	0x3c1fb2fc	0.009747263
1	0x3d34b6f6	0.044119798
2	0x3c6bfe69	0.014403918
3	0x3d8f1bd6	0.06987731
4	0xbd9a8fc4	-0.07546952
5	0x3d0e4780	0.034736156
6	0xba6de3f4	-0.00090748
7	0xbd9fff74	-0.07812396
8	0x3cfd158e	0.030894067
9	0xbb781552	-0.0037854505
