Results/SFResult1/best_model_weights.pt (torch, 450806 bytes, 6 tensors)

hidden_layers.0.weight f4 [122, 784]
000000 4d eb e9 3c e8 7d 14 3d 0f df f3 3c fc 02 00 bd
       0.028554583 0.036252886 0.029769449 -0.031252846
000010 83 80 62 3c 9b 6e cd bc 9b 7e a4 bc b9 ad fa bc
       0.013824585 -0.025077155 -0.020079901 -0.030600416
000020 62 36 ce 3a 57 f4 b0 3c c1 c2 bb bc 4f 72 e3 bc
       0.001573276 0.021600885 -0.022920014 -0.027764468
000030 be c3 df 3b 5a 11 ce 3b e8 88 f7 bc 5f fa 9d 3c
       0.006828754 0.0062886896 -0.03021665 0.019284425
000040 30 e6 0a 3d 2e e7 f4 bc 55 1e 59 3c 86 35 17 3d
       0.03391093 -0.029895391 0.013251861 0.03691628
000050 1b db 19 bc 63 3f f1 39 ae b5 e5 3b 63 9f db 3c
       -0.009390618 0.0004601433 0.0070101833 0.0268094
000060 8b 51 bb bc 2b 50 eb 3c 13 30 31 bc 23 f0 ae bc
       -0.022866031 0.02872475 -0.010814684 -0.02135474
000070 85 88 1f bc 54 dd bb bb d2 72 08 ba 6d e8 ed 3c
       -0.009737139 -0.0057331715 -0.0005205098 0.029041493
000080 a9 94 dd 3c 4f 65 d9 bc 02 84 a6 bb b3 03 f4 3c
       0.027048426 -0.026537566 -0.0050816545 0.02978692
000090 49 ef f5 bb 47 7d 0a bb 2d e2 e3 bc 33 16 1d 3c
       -0.0075053317 -0.00211318 -0.02781781 0.009587812
0000a0 3c 9f ef bc 04 48 60 3b 60 9f c0 3c 36 fa 64 ba
       -0.029250734 0.0034222612 0.023513496 -0.0008734794
0000b0 93 ad 10 3d 64 e7 47 bc 3f 94 90 3b 5d bc 04 3d
       0.035321783 -0.012201164 0.0044122036 0.0324062
0000c0 fe 94 b3 bc 2c 8d 5b bc 94 e4 9c 3b fa a3 d4 bb
       -0.021921631 -0.013400357 0.004787991 -0.006489274
0000d0 c0 a9 60 3c c3 8f e2 3c ca 8c f1 bc 8b ce df 3c
       0.013712347 0.027656442 -0.029486079 0.027320167
0000e0 5a 43 81 bc 87 2b be bc 71 01 3f 3c 77 66 96 3c
       -0.015779186 -0.023214115 0.0116580585 0.018359406
0000f0 26 ab b2 bb 93 07 b8 bc 95 6c cf bc 6a cc 39 3a
       -0.0054525314 -0.02246455 -0.02532033 0.000708765
000100 b3 0f 16 3d 1c e4 57 bc 55 8f f0 bc c8 97 ec 3c
       0.036636066 -0.013176944 -0.029365221 0.028880969
000110 55 ac 0c bd ba e3 1d 3c 06 a3 11 bd 84 4e aa ba
       -0.034344036 0.009636814 -0.035555862 -0.001299337
000120 b2 fc d7 3b 03 d1 0c bd a0 9c ce 3b 87 69 78 bc
       0.006591403 -0.034379017 0.0063052922 -0.015161878
000130 df 60 b9 3c f3 30 1e 3c cb 13 83 39 54 8b 0d 3d
       0.0226292 0.009655225 0.00025001014 0.0345567
000140 43 24 86 3c a6 ca 11 3d f6 12 21 3d 2b 54 dc 3c
       0.016374713 0.03559365 0.039324723 0.026895603
000150 df 25 2b 3c 5b 40 8b 3c 03 2c cb 3c da 6f 02 bc
       0.010446041 0.01699846 0.02480126 -0.007961238
000160 b5 e8 af 3c 3b 15 d0 bc ea d8 06 3d ce b1 9d bc
       0.021473268 -0.025400748 0.03292171 -0.019249823
000170 f9 01 96 bc fa bf 3e bd 1c 5d 31 bd bc 0a 7a bb
       -0.018311488 -0.046569802 -0.043301687 -0.003815337
000180 8a 67 d7 bc be c1 39 3a 71 e0 ad 3c 62 41 c2 bc
       -0.026294488 0.000708606 0.021225186 -0.023712818
000190 44 ad 16 bd 12 c4 48 bd 12 90 dd ba 71 35 37 bd
       -0.036786333 -0.049015112 -0.0016903898 -0.0447287
0001a0 fc 52 9b bb e7 f8 e6 3c 78 27 1e bc fe c4 02 3d
       -0.004740117 0.028194858 -0.009652965 0.031926148
0001b0 92 93 04 bc 99 af f9 bb 33 1b 92 3c e7 ea 80 3c
       -0.008091824 -0.00761981 0.017835235 0.01573701
0001c0 cd c9 c0 3c 59 69 a7 3c f7 a2 a6 3c 1a 75 b0 3b
       0.023533726 0.020435976 0.02034138 0.0053850533
0001d0 de fc 91 3c 81 ac 85 bc cd ad 31 3c 14 38 a8 3c
       0.017820772 -0.016317608 0.01084466 0.020534553
0001e0 04 39 14 3d 1f df bc 3b 93 43 ce 3c 7a d5 60 3c
       0.036187187 0.005763903 0.025178706 0.013722772
0001f0 eb 28 3d bb 84 92 bf bd 5a 59 91 bd 81 77 c2 bd
       -0.00288635 -0.093541175 -0.070971206 -0.0949545
000200 89 c8 bf bd 83 a7 ad bd 23 5e 51 bd 35 71 7b bb
       -0.09364421 -0.08479216 -0.051115166 -0.0038367037
000210 89 e9 0f bd 2c b4 58 bc 22 db 03 bd 8d 90 7d bc
       -0.035134826 -0.01322655 -0.032191403 -0.015476358
000220 da 79 b9 bb 74 bd c7 3a 24 5b 4f ba c5 6b 02 3d
       -0.005660278 0.0015238957 -0.00079100044 0.03184106
000230 17 0d 94 bc e4 2f 07 3d 53 b6 8a 3b 0c 67 82 3c
       -0.018072648 0.033004656 0.0042331605 0.015918277
000240 52 14 b0 bc 93 1b d7 39 1f 00 09 3d 8a ba f3 3c
       -0.021494064 0.0004102854 0.03344738 0.029752035
000250 ac c9 1f bd 6b 71 45 bd f1 f6 28 bd 16 08 ed bc
       -0.03901069 -0.048203867 -0.041251127 -0.02893452
000260 06 1d 98 bc 0c 77 61 bd 55 22 d0 3b ad d3 14 bd
       -0.018568527 -0.055045173 0.006351749 -0.036334682
000270 63 97 5f 3d 15 f5 c0 bc 88 1f 64 bb 21 e0 e8 bc
       0.054587733 -0.023554364 -0.0034808833 -0.028427185
000280 4e d2 f0 bc 73 40 1f bc 69 da a8 3c 49 cd d0 bb
       -0.029397156 -0.009719956 0.020611959 -0.006372128
000290 d7 7c 9d 3c 45 55 96 bc c9 64 ed 3c c4 58 d6 3b
       0.019224567 -0.018351207 0.028978722 0.0065413434
0002a0 89 42 98 bc 75 94 87 bc ae f7 8f 3c 01 c0 b9 bc
       -0.018586414 -0.016550282 0.017574158 -0.022674562
0002b0 11 c6 93 3c d3 cb e1 3c ba 8b d0 3c e5 c9 38 bd
       0.018038781 0.027563011 0.025457252 -0.045114417
0002c0 61 f2 09 bd c3 03 3a bb b9 2e 35 3c c7 5b cf 3c
       -0.033678416 -0.002838359 0.011058503 0.025312318
0002d0 02 a5 ad 3d 68 71 fe 3c c0 42 42 bc 9e 02 56 bd
       0.08478738 0.031059936 -0.011856735 -0.05224859
0002e0 05 56 93 3c 67 11 f5 3c 2b c6 7a bc c6 33 81 3c
       0.017985353 0.029915525 -0.015306036 0.015771758
0002f0 ff 26 a8 3c af 08 fb bc 7c 53 c2 bc 87 1a 0c 3d
       0.020526407 -0.03064379 -0.02372145 0.034204986
000300 c5 68 05 bc a8 43 32 3d bc a5 8f bb a0 8f fc 3b
       -0.008142655 0.043521553 -0.0043837707 0.007707551
000310 e1 3c e6 3c ca 63 81 bc be 7f ae 3c e3 12 d5 3c
       0.028105201 -0.015794653 0.021301147 0.026009982
000320 2a d5 43 3c 06 8e 0d bc 05 11 4d bd 1a 6a 5f bd
       0.011952678 -0.008639818 -0.05006506 -0.054544546
000330 68 51 6a bc a8 f0 91 bb 11 64 07 3d a4 5d ef 3d
       -0.014301635 -0.0044537373 0.033054415 0.116877824
000340 e0 35 f5 3d 9f d0 2a bc 85 91 64 bd 86 ea bc bd
       0.119731665 -0.010425716 -0.05580284 -0.09224419
000350 7f 5e 08 bd c0 87 97 bc 42 03 bb bd a8 e9 cb bc
       -0.033293243 -0.018497348 -0.09131481 -0.02489169
000360 6b e1 14 bd ed 15 9e bd 10 61 22 bd 27 5b a7 3d
       -0.036347788 -0.07719026 -0.039643347 0.08171683
000370 63 94 30 3d fa cc 02 3d 22 a3 6e 3a 2b b6 58 ba
       0.043110263 0.031933762 0.0009103288 -0.0008266891
000380 56 20 19 3d 85 b6 c0 bc ff d9 65 3b f4 0b 74 3a
       0.037384354 -0.023524532 0.0035072563 0.00093096425
000390 ea 3f ba 3c 0e 07 7f 3c 69 7c 64 bd 5f 1b 57 bd
       0.022735555 0.015565647 -0.05578271 -0.052516337
0003a0 1b 57 a8 bc a7 d6 06 3d 82 b9 99 3c 2a 65 81 3d
       -0.020549348 0.032919552 0.018765215 0.06318124
0003b0 f6 18 82 bc a2 c0 01 be 98 81 28 be 06 f6 62 be
       -0.015881043 -0.1267114 -0.16455686 -0.22164163
0003c0 ba e7 ac bd 92 8d 56 bd c9 97 fa bd 3b c5 64 3d
       -0.08442636 -0.052381106 -0.12235982 0.055852156
0003d0 37 49 a5 3d d2 46 81 3c a6 70 a7 3d ab ef a1 3d
       0.08070605 0.01578084 0.08175783 0.07907041
0003e0 69 37 e6 3d 8e b6 d0 3d c7 08 4a 3c 1f 62 e8 bc
       0.112410374 0.101910695 0.012331194 -0.0283671
0003f0 0a e6 0f 3d b5 72 c4 3c 76 61 18 3c 3b c2 00 3c
       0.03513149 0.023980478 0.00930058 0.007858808

hidden_layers.0.bias f4 [122]
000000 23 c0 a6 39 c4 c5 a4 bc f3 ad 9f bb 67 99 82 bb
       0.0003180514 -0.020113833 -0.0048730313 -0.003985572
000010 d4 0f c2 3c 62 a9 8f 3c 9e c7 82 bb 6c 0c de 3c
       0.023689188 0.017536823 -0.0039910814 0.027105533
000020 24 57 e1 3c e1 9c a1 3a 9d 53 4c bc 05 28 a7 bc
       0.027507372 0.0012330079 -0.012471107 -0.020404825
000030 16 9a e9 3c d1 4a f3 bb c5 10 1a 3d 9d b1 37 3c
       0.028515857 -0.0074246903 0.03761365 0.01121178
000040 48 1f f4 3c c7 86 14 ba 70 a0 63 3c 2f 58 15 3d
       0.029800072 -0.00056658353 0.013893232 0.03646105
000050 80 35 6a 3c 14 6a 13 bd d7 15 7a bc 33 cc c1 bc
       0.014294982 -0.035989836 -0.015263996 -0.02365694
000060 49 3d 32 3c 73 e2 04 3d dc 73 d3 bc 5f 16 ba 3c
       0.010878869 0.03244252 -0.025812082 0.022715745
000070 aa b0 3b bc c0 32 06 bd 53 23 b7 bb 1d bf 81 3c
       -0.011455694 -0.032763243 -0.005588928 0.0158382
000080 18 fa fb 3c 0a 09 36 3d 12 ae 08 3d 98 60 39 3c
       0.030758902 0.044442214 0.03336913 0.011314534
000090 05 40 17 3d 15 e9 ed 3c 34 24 a4 bc ad 18 2e 3d
       0.03692629 0.029041806 -0.020036794 0.042504
0000a0 92 f2 17 ba b7 6d d8 3c b0 38 70 3b 16 14 f0 bc
       -0.00057963387 0.026419504 0.0036654882 -0.029306453
0000b0 0e 59 ba 3c 9c 04 b9 3c e1 08 02 3d 53 51 20 3c
       0.022747543 0.022585206 0.03174675 0.009785014
0000c0 5d e6 39 3b 4e 29 f4 3c 6f 44 2c 3c e2 18 19 3c
       0.0028366067 0.029804852 0.010514363 0.009344311
0000d0 b6 5b 06 3d df eb fa 3b 00 74 f2 3b 08 cd 1e bd
       0.032802306 0.0076575126 0.007399082 -0.03876975
0000e0 9c 8f ad 3c fb 00 1e bc 0e 57 87 bc 35 d7 95 bc
       0.021186642 -0.009643788 -0.016521003 -0.018291095
0000f0 67 5b 88 bc d3 f3 0a 3d 61 12 cd bc 6f 3e c3 bc
       -0.016645147 0.033923935 -0.025033178 -0.023833482
000100 11 1d 11 bd f7 c7 c4 3c 0d 6f a4 bb 1c 04 11 ba
       -0.03542811 0.024021132 -0.005018121 -0.00055319234
000110 c2 63 07 3d 09 01 7f 3c 6f 3c 50 3c 99 72 0e bc
       0.03305412 0.015564212 0.012709721 -0.008694314
000120 48 09 ce ba a6 23 b7 3b 25 64 27 3d 4b cf 28 bd
       -0.0015719319 0.0055889664 0.04086699 -0.041213315
000130 f0 1c b0 bc 96 a3 38 3d 6f b8 e1 3c a1 f6 fd bc
       -0.021498173 0.045077883 0.027553765 -0.03100139
000140 00 94 47 bd 05 41 15 3d 05 30 93 3c 38 ed b4 3c
       -0.04872513 0.03643896 0.017967233 0.022085771
000150 06 36 19 3d 7a 13 e0 bc fb a1 fa 3b 1b 58 1f bd
       0.037405036 -0.027353037 0.007648704 -0.038902383
000160 c8 8c e3 bc 7a b3 f5 3c 6e a3 b6 3c 30 76 2f 3d
       -0.02777709 0.029992808 0.022294726 0.04283732
000170 d3 d9 5e 3c 09 63 27 3d f2 a2 01 bc ad 92 16 bd
       0.013601738 0.04086593 -0.007912384 -0.036760975
000180 f2 34 ed bc 26 11 e7 bc 16 67 ef bc f3 07 cf 3c
       -0.02895591 -0.02820642 -0.02922396 0.025272345
000190 ad dc 83 bb 7b 6d 30 bc c7 85 4c 3b 29 9f 8d bc
       -0.0040241093 -0.01076829 0.0031207667 -0.017287808
0001a0 2e e3 ab 3c 6a a7 bb bc 08 3f d1 bb 71 06 ee bb
       0.020982351 -0.022906978 -0.0063856877 -0.0072639515
0001b0 3d 8a 77 bc 70 a2 87 3c 8e 76 11 3d 9f 29 bb 3b
       -0.015108642 0.016556948 0.035513453 0.0057117487
0001c0 ff ba 3c 3c 53 a8 eb 3c 23 5c f7 3c e3 b8 32 bd
       0.011519193 0.028766787 0.030195301 -0.043633353
0001d0 cd 8f 23 bd 5d bf e2 bc 82 f7 a0 ba 2c be b6 b9
       -0.03993206 -0.02767914 -0.0012280794 -0.00034855434
0001e0 c6 e7 6f bc 46 89 6d 3c
       -0.014642661 0.014498061

hidden_layers.3.weight f4 [122, 122]
000000 e7 d4 11 3e 1d a3 34 bd ff a9 f3 bc c7 a9 eb 3d
       0.14241372 -0.04410087 -0.029744146 0.11506992
000010 01 09 4f bc 0d 78 52 bb 9f f5 a0 bd 64 f7 55 bc
       -0.012636424 -0.0032115013 -0.078593485 -0.013059471
000020 8f 68 29 3e 74 73 4c 3c c4 da fc 3c 88 ee 27 3d
       0.16543792 0.012478698 0.030866034 0.040998966
000030 ce b8 b4 3d c4 35 01 3d 8e 96 ab bd c3 eb bf 3c
       0.08824311 0.031545416 -0.083783254 0.02342785
000040 61 6c c4 bd 47 4a 18 bd 79 09 a7 3d 3c 54 e4 bd
       -0.09590984 -0.03718021 0.08156104 -0.11148879
000050 d4 ca 93 3d 3e fb 9d bc ef 47 ec bc bc 0c 09 bc
       0.07216421 -0.01928484 -0.028842894 -0.0083648525
000060 4a b7 89 3d 42 22 87 3d c3 7c 81 be 15 2d 13 3d
       0.06724413 0.06598331 -0.25290498 0.035931665
000070 a4 ca a2 bd 50 86 d7 bd a1 dd 47 bd 53 f6 1f 3b
       -0.07948807 -0.10523665 -0.048795346 0.0024408295
000080 d7 73 33 bd 23 db 55 bd 8c ba 5e bd d4 80 ab 3b
       -0.043811645 -0.05221094 -0.054377124 0.0052338634
000090 15 aa 5a 3a d3 c1 0b 3d 34 e1 b5 bb 3d 8e d8 bd
       0.0008341384 0.034120392 -0.005550528 -0.10574005
0000a0 7f a3 93 3d 17 b0 4b 3e f0 c2 f9 bd 4a 07 9f 3d
       0.07208919 0.19891392 -0.121953845 0.07765062
0000b0 ff 31 a6 3b 53 fa 89 bd c2 3e 80 bd 3c b8 9b 3c
       0.005071878 -0.06737199 -0.0626197 0.019008748
0000c0 88 6e 3f bd ea b0 2c 3d d3 c8 26 3c 77 ad 0c bc
       -0.04673627 0.042160906 0.010179716 -0.008586279
0000d0 3c 7c 09 bd 4a 13 a4 bd 43 69 3c 3e 93 d6 63 be
       -0.033565745 -0.080114916 0.18399529 -0.22249822
0000e0 65 d9 f4 bd e2 e8 8d bd b4 9b d3 3c 7f 7f a7 3a
       -0.11955527 -0.069291845 0.025831081 0.0012779086
0000f0 d0 b9 35 3d e4 31 12 bd 86 51 0d bd 68 da 58 3e
       0.044366658 -0.03569211 -0.034501575 0.21177065
000100 74 fe 2d ba c5 b8 3d bd cf 22 9d bd 58 1e 99 3c
       -0.0006637343 -0.046318788 -0.07672655 0.018691227
000110 e3 0c ed 3d cc 1e 1a bd fc 24 36 be 9b 4d 90 3d
       0.115747236 -0.037627026 -0.17787546 0.07046052
000120 13 96 f9 3d f3 0b 9b 3b 0e 9b c3 3d df 75 60 bd
       0.121868275 0.004731649 0.09551059 -0.05479991
000130 a2 b2 82 bc 96 eb 06 be b0 34 dd bd a0 19 2c 3e
       -0.01595432 -0.13175806 -0.10801065 0.1680665
000140 22 79 71 3d 1f 28 20 be 11 56 44 3d 64 c6 d2 3d
       0.058953412 -0.15640305 0.04793364 0.10291746
000150 f0 b8 b8 3d 1b 78 f1 3d d1 8e 38 3d 5e 18 f4 3c
       0.09019649 0.117904864 0.045058075 0.029796775
000160 e7 5b c0 bd c2 de 5e be 8b 4d 20 bd b9 c4 ca bc
       -0.09392529 -0.21764663 -0.03913645 -0.024752008
000170 c1 9e c1 3c d4 20 b1 be cf 35 a3 3d 13 c7 67 3d
       0.02363527 -0.34595358 0.079692475 0.056586336
000180 fc 08 16 3e 24 b5 15 3e bc 6f 23 3d 24 00 4e be
       0.14651865 0.14619881 0.03990148 -0.20117241
000190 d7 ea 93 bc dc 73 03 3e 7c 54 d7 bc 50 63 2d bd
       -0.018056316 0.12837166 -0.026285402 -0.04233104
0001a0 82 d9 d9 bc 10 f3 1c be 65 1e 38 3e e4 14 ae bb
       -0.026592974 -0.15327096 0.17980345 -0.005312549
0001b0 01 0f e9 ba 98 06 2e be 02 8f 44 3d fd 23 62 3d
       -0.0017780961 -0.16994703 0.047987945 0.055210102
0001c0 5d ea 24 3d 58 de 72 bd e9 d3 4c 3d 51 55 15 be
       0.04026257 -0.059294075 0.05000678 -0.14583327
0001d0 3c 64 aa bd c6 6b cb bd 18 a8 81 3e 42 24 e6 3c
       -0.083198994 -0.099326655 0.25323558 0.028093461
0001e0 db 60 15 3c 76 7c 96 bd ed 26 4a bd d0 70 1f 3d
       0.00911733 -0.07347958 -0.04935353 0.038925946
0001f0 fd fe b0 3d 2c a7 ef ba 83 e1 00 bd eb b7 1e 3e
       0.08642385 -0.0018284074 -0.031465065 0.15499847
000200 f2 61 0a be 8d 50 6f be f7 56 84 bc 60 e5 da bd
       -0.13513926 -0.23370571 -0.01615475 -0.10688281
000210 3e d6 b2 bd d9 9e 91 bd 5c 6c 45 bd a8 a7 e9 bd
       -0.0873227 -0.07110376 -0.048199043 -0.11408931
000220 5d 47 cd bd 8e 76 92 3d 12 58 0e 3e 6d 92 f6 bc
       -0.10023377 0.07151519 0.13900784 -0.030099118
000230 74 04 5f bd 86 86 3b bc f9 83 9a 3c 70 27 78 3d
       -0.054447606 -0.011445647 0.018861758 0.060584486
000240 41 70 03 3d c6 5f 44 3d 0b ad e2 bd c6 1b 0e bd
       0.032089476 0.0479429 -0.110681616 -0.034694456
000250 30 6d 2a 3d 98 f0 51 3d 11 b6 dc 3c e5 2c 4b 3d
       0.041608036 0.05125484 0.026942285 0.04960336
000260 6a 89 09 bb e2 a2 dc 3c 89 20 e5 bd 6f 35 3a bd
       -0.0020986446 0.026933137 -0.11187846 -0.045461114
000270 fc e4 e0 3d 25 47 be 3d d5 90 fe 3b a4 48 30 3c
       0.10981175 0.092909135 0.00776873 0.010759506
000280 ab 98 b0 bd a2 a2 e9 bd 2b f9 d6 bd cd ee 77 3d
       -0.08622869 -0.11407973 -0.10496744 0.060530473
000290 83 0d f5 3d bd 74 c1 3b c0 0a d1 3c 1a 5a 08 bd
       0.11965468 0.005903809 0.025517821 -0.033289053
0002a0 a3 94 97 bb 72 3c 05 3d af 4a 7d 3d 0c 07 02 be
       -0.004625873 0.03252835 0.061838802 -0.12698
0002b0 9c dc b3 bd 92 df 8d bc 11 f6 0a 3d cb 3d d2 bd
       -0.08782312 -0.01731852 0.033926073 -0.10265692
0002c0 40 b3 4e 3d 6e 11 93 bd f6 36 00 3e 08 a0 04 bd
       0.050463915 -0.07181059 0.12520966 -0.03237918
0002d0 4a 55 f5 bc 7e ba d6 bd 61 58 0e 3d d2 71 70 3d
       -0.029947896 -0.10484789 0.034752253 0.058702298
0002e0 ee 10 91 3d 84 02 13 3d c6 ca fd 3c 49 7a 4e be
       0.07083307 0.03589107 0.030980479 -0.20163836
0002f0 53 a1 e4 3b da 2d 2f 3d a2 88 d5 bc fe 32 c6 bc
       0.006977239 0.042768337 -0.026066128 -0.024194237
000300 a3 a3 12 3e d0 73 61 3d fd 89 64 3d f5 e6 a0 bd
       0.14320235 0.055042088 0.05579566 -0.078565516
000310 c3 00 8d bd ec 70 a0 bd 9c e2 fe bd e1 7f 27 be
       -0.06884911 -0.07834038 -0.12445566 -0.16357376
000320 6a 99 2f 3d 57 78 a7 3d cf 85 b8 3b 8b b7 8d bc
       0.042870916 0.0817725 0.0056311856 -0.017299434
000330 72 12 31 be 2d c9 64 bd 10 87 79 3d 4a 26 77 bd
       -0.17292193 -0.05585592 0.06091982 -0.06033925
000340 b5 ae 60 bd ed 91 56 bd 3a 5a 66 3d 7d 5a ce bd
       -0.054854114 -0.05238526 0.05623839 -0.10075853
000350 73 ad b4 bd 3c 47 42 3d 82 d2 7d 3d 5e 48 d4 3a
       -0.08822145 0.047431216 0.061968334 0.0016195884
000360 51 c2 53 bc 1d 99 f3 3c ab 9d d4 bc ff e2 d2 3d
       -0.012924747 0.029736096 -0.025954088 0.10297202
000370 6b 3d 09 be df dc 52 3e 95 cd c2 bd cc 47 e1 bd
       -0.13402335 0.20592068 -0.09511868 -0.11000022
000380 a1 60 da ba a3 62 0f be a8 6c 07 3e c5 56 17 be
       -0.0016660878 -0.1400247 0.13225043 -0.14779194
000390 f1 57 be bc db d2 6d bd c6 3c c7 bd ad a1 a5 bd
       -0.023235293 -0.058062416 -0.097283885 -0.08087478
0003a0 0e d7 0d be 89 a2 20 bd 3e db 12 3e 94 77 15 3e
       -0.13851568 -0.039217506 0.14341447 0.14596397
0003b0 97 f5 15 be c7 0b 90 bd 22 64 03 bc 24 b3 15 be
       -0.14644466 -0.07033496 -0.008019479 -0.14619118
0003c0 ea 32 72 bd da 55 a7 bc 6a 98 a2 bd 5e 55 12 bc
       -0.059130587 -0.02042668 -0.07939227 -0.008931486
0003d0 38 ca b5 bd 71 5c d8 3d fc 0f 2e 3e 1f 2b 70 bc
       -0.08876461 0.10564507 0.16998285 -0.014658718
0003e0 dc 22 bc bd 33 1a 14 bd 01 4d 81 bb 3e 17 77 bc
       -0.091863364 -0.036157798 -0.003945947 -0.015081225
0003f0 d6 95 9e 3d 18 eb 49 ba eb f0 45 bd 35 97 f1 bd
       0.07743423 -0.0007702573 -0.04832546 -0.117964186

hidden_layers.3.bias f4 [122]
000000 83 13 74 3d 40 b2 ae bd 0c de e2 bc b9 26 1c bd
       0.05958892 -0.08530092 -0.02769377 -0.038122866
000010 42 0d b0 3b 89 44 e6 bd fb 8f 9a bd f9 37 f3 3d
       0.005372674 -0.11243541 -0.07546993 0.1187591
000020 ae d1 71 3d 7d 3b 33 3d 2b b2 b7 bd 62 49 a6 bb
       0.059037857 0.043757904 -0.0896953 -0.005074666
000030 3b 1c b0 bc aa 37 48 3c 11 e0 1f 3d fa 3c 5c 3c
       -0.021497836 0.012220303 0.039032046 0.013442272
000040 e5 19 82 3d ba 66 6a bd 78 be da 3d 1a ee 51 3d
       0.06352595 -0.057226874 0.1068086 0.051252462
000050 59 59 8d 3d 73 35 9f bd ab 68 a9 3d a2 e7 19 bd
       0.06901807 -0.077738665 0.08271917 -0.037574418
000060 5f a1 7e 3c 04 84 59 3a 46 94 4d bc 05 2e 7d 3d
       0.015541404 0.0008297565 -0.012547558 0.061811466
000070 ba bd 6a bd 58 98 bb 3d 2f 88 88 bd df 6c 1f bd
       -0.057309844 0.09159917 -0.066666 -0.038922187
000080 97 ae 10 3d 34 56 98 3c 81 8c f3 39 aa 81 98 3d
       0.03532275 0.018595792 0.00046453255 0.074466065
000090 04 88 88 3d fe 82 b7 3d dd b3 88 bd c4 d4 6f bd
       0.06666568 0.08960532 -0.06674931 -0.05855252
0000a0 0b d6 82 bc 0a 04 64 3d 80 97 47 bd 67 69 c0 bc
       -0.015971204 0.055667914 -0.048728466 -0.02348776
0000b0 f6 4f 82 3d 9d fd ee bc 72 8a 95 bd d3 22 d6 bc
       0.063629076 -0.029173667 -0.07301797 -0.026139652
0000c0 e3 5b 98 bd 13 2e d7 bd b3 97 0a 3d 08 00 00 3d
       -0.07439401 -0.10506835 0.033836078 0.03125003
0000d0 77 9e 80 3c 30 d2 b4 3d 9e 49 cb bd 65 2f 01 bc
       0.015700562 0.088291526 -0.09926151 -0.007884835
0000e0 ed b3 a8 bd 10 04 d9 3d 7d 3e de 3d 0c 57 38 3d
       -0.08237443 0.10596478 0.108517624 0.04500489
0000f0 97 b1 54 bd 92 11 3c bd c8 2a a4 3d 6f 10 3d bd
       -0.051927175 -0.045915194 0.080159724 -0.04615825
000100 87 d7 b2 3b c8 3b a1 3c f4 ba 57 bd 3c cb c8 3d
       0.005457822 0.019681826 -0.052668527 0.09804389
000110 13 c1 5c 3d 6f bc 1f bd c7 16 fc 3b d7 29 12 3d
       0.053895067 -0.038998064 0.007693145 0.035684433
000120 28 19 82 bd 4a d5 df bd 18 e2 be bc 36 d4 36 bc
       -0.063524544 -0.109293535 -0.02330117 -0.0111589935
000130 76 f9 50 3d 8b 97 a9 bc b7 54 90 3d 57 80 85 bb
       0.051019154 -0.020702144 0.07047408 -0.004074137
000140 29 98 b2 3d dd 56 66 3d c0 90 ba bd 03 1b cb 3d
       0.087204285 0.056235183 -0.0910964 0.099172615
000150 62 2f 92 3c 2f 56 5f bd af 3f 41 bd 9f c1 2c bd
       0.01784486 -0.05452555 -0.047179874 -0.04217684
000160 5e 8a 70 bb 28 67 31 3c 4b ca eb 3c b1 cd 91 bc
       -0.0036703567 0.010827817 0.028782984 -0.017798277
000170 17 a6 20 3c 88 6d 77 3d 9d b1 70 bd 0e d2 9b 3c
       0.009805224 0.06040719 -0.058763135 0.01902106
000180 92 67 98 bd a0 e8 2f 3d bb 99 e8 3c df b9 ee 3d
       -0.074416295 0.042946458 0.028393617 0.11656546
000190 14 ba a1 3d 44 fd e1 bc a3 4a 75 3d d4 ec db bd
       0.0789682 -0.027586587 0.059885632 -0.10738531
0001a0 0b 1d 9c 3b d1 50 8d 3c d3 60 28 ba a6 cd 8f bd
       0.0047642044 0.01725045 -0.00064231193 -0.07021646
0001b0 0e 6f 76 3d f7 03 96 3d 01 9a 13 3c 8f 0f e1 3d
       0.060164504 0.07324975 0.009008885 0.10989296
0001c0 3b dd d7 3d c0 36 09 bd 9e 82 54 3b 4b 9f 80 3d
       0.10540243 -0.03349948 0.0032426487 0.06280383
0001d0 53 d8 96 bc 73 be 97 bc 15 fc d4 bc 88 e6 a4 3d
       -0.018413698 -0.01852343 -0.025999108 0.08051783
0001e0 91 dd d0 bb af 7a 11 bd
       -0.006374069 -0.03551739

output_layer.weight f4 [10, 122]
000000 cb 70 33 be 74 8c 06 be 27 5c 82 3d ed b8 b2 bd
       -0.17523496 -0.13139516 0.06365233 -0.08726678
000010 f4 e2 c6 bd 43 1e 26 be 58 35 89 be 5f 80 58 bd
       -0.097112566 -0.16222481 -0.2679851 -0.0528568
000020 2b 80 61 be 5d b7 9d bc 7d f0 b6 bc a2 02 1d be
       -0.22021548 -0.019252473 -0.02233147 -0.15333036
000030 a4 bb cf 3d 7b 60 3b be ed ee 88 3e b2 b2 0d 3e
       0.101432115 -0.18298523 0.26744786 0.13837698
000040 09 14 77 be 60 ef 2d 3e 2d 23 c3 3d f7 19 25 3e
       -0.24128737 0.16985846 0.095281936 0.16123186
000050 15 ab 4c 3d 15 c4 cd bd f2 97 12 be 17 71 26 bc
       0.049967844 -0.10047165 -0.14315775 -0.010158799
000060 2b ec c8 3d 2f fa 8e bc 99 e8 01 bb e7 11 6e 3e
       0.098106705 -0.017453281 -0.0019822477 0.23249017
000070 00 19 10 3e 3b a3 42 3e af 09 59 3e f3 52 4a 3e
       0.14072037 0.1900758 0.211951 0.19758205
000080 ac fc 23 3e c9 91 0c 3e e6 e2 53 3e 5f c0 64 bd
       0.16014355 0.13727488 0.20692024 -0.055847522
000090 26 de a4 be d7 e6 fe ba 43 94 73 3e a2 18 ca bd
       -0.32200736 -0.0019447458 0.23787026 -0.098679796
0000a0 27 c2 31 be 45 89 03 3e 7f a7 05 be 01 1c 8a 3e
       -0.1735922 0.12845333 -0.13052176 0.2697449
0000b0 91 d3 9c 3e 5a 7d 13 bc 0d db 4c 3e 31 3c 07 3e
       0.30630162 -0.009002054 0.20005436 0.13206555
0000c0 5f 86 c6 3d bd 3b 81 bd 1f 9e c2 bd de 7e 9c bd
       0.09693598 -0.06310222 -0.095028155 -0.076413855
0000d0 1e 7a e6 bd 80 bd 6b 3e 90 5e ce 3e 74 bf f4 3d
       -0.11253761 0.23021507 0.4030652 0.11950579
0000e0 4e ef 36 3e 41 58 43 be fb c4 28 be 61 f8 3a be
       0.17864725 -0.19076635 -0.16481392 -0.18258812
0000f0 80 58 f0 3d 37 43 1c bd 6b 10 8c 3d 5c e8 50 bd
       0.1173563 -0.03815004 0.06839069 -0.051002845
000100 83 a8 49 3e 02 4f db 3d bf 20 c5 bd 30 0a 59 3e
       0.19693188 0.10708429 -0.096253864 0.21195292
000110 86 e7 95 3e 3e c1 2f be d3 ae 80 be 91 21 4c 3a
       0.292782 -0.1716356 -0.2513338 0.0007786984
000120 34 37 0d 3e 1f aa 9b 3e e5 36 7d bc e3 a0 23 3e
       0.1379059 0.3040323 -0.015454982 0.15979342
000130 37 74 de bd 2c 98 05 3e 4e 3f 39 bb a3 59 ab bd
       -0.1086201 0.1304633 -0.0028266492 -0.08366706
000140 0d 4c c4 3d 5d b5 0b be f1 bd c4 3d e5 68 39 be
       0.09584818 -0.13643403 0.09606541 -0.1810642
000150 67 d6 94 be cf a6 8d be 46 04 94 bd a3 44 d1 3d
       -0.29069826 -0.27666327 -0.072273776 0.102181695
000160 06 f0 b9 3d 95 ec 62 3e f6 de 98 be 36 96 0f be
       0.09078984 0.22160561 -0.29857606 -0.14022145
000170 73 8c 40 be e5 7c 9a 3e e0 dd 20 be c4 ce bc 3d
       -0.18803577 0.30173412 -0.15709639 0.09219125
000180 8e ee dd bd 91 e0 e4 bb 9a d3 22 3e f6 c7 02 3e
       -0.10836516 -0.006984778 0.15901032 0.12771592
000190 a7 24 5f be f8 60 49 3e 86 8c 23 be 8c e2 92 3e
       -0.21791326 0.19665897 -0.15971574 0.28688467
0001a0 66 72 3e 3e 73 38 6b be d0 e0 40 be 1c f9 80 bc
       0.18598327 -0.22970752 -0.18835759 -0.015743785
0001b0 03 2c 6a 3c 16 91 1d 3e bf de 96 bd c6 a5 20 3e
       0.01429272 0.15387377 -0.07366704 0.15688238
0001c0 d9 d5 29 bb 02 45 26 be b0 72 55 3e 8b f3 23 3e
       -0.0025914817 -0.16237262 0.20844531 0.16010873
0001d0 3c d5 66 be f9 90 2d 3e 5e 03 84 3d b9 0d 7d be
       -0.2254228 0.16949834 0.06445955 -0.24712266
0001e0 1b 46 69 3e 0d 60 19 3e 9f 58 3f 3c e1 43 18 3e
       0.2278065 0.14978047 0.011678844 0.14869644
0001f0 ca 99 e5 bd e7 48 1b be c9 b9 04 be 2c df 39 3e
       -0.112109736 -0.15164529 -0.12961496 0.1815154
000200 23 82 f0 3d de fd 42 3e 87 65 6e be 8c 74 2a be
       0.117435716 0.19042155 -0.23280917 -0.16646022
000210 82 0b 12 3e f9 b3 08 3e 76 98 51 be 2a 21 56 3e
       0.14262202 0.13349904 -0.20468315 0.20911089
000220 ef 1e 8d 3d fe 97 27 bd 99 72 1a 3d b1 ab 4c be
       0.06890666 -0.040916435 0.037706945 -0.1998737
000230 50 4c 19 3e f5 d6 1c be 7f 09 71 be 74 ca 65 3e
       0.14970517 -0.15316375 -0.23538779 0.22440511
000240 a9 dd 8a 3e 6c 1a 1b 3e c7 f2 31 3e 00 b9 85 3e
       0.27122238 0.15146798 0.17377768 0.26117706
000250 fb c5 00 3e 01 13 05 be ae f5 83 3d 42 ef 7d bb
       0.12575524 -0.1299553 0.06443344 -0.0038747345
000260 bd 19 3b ba 66 c2 2e 3c 4b c5 36 be 94 0c ad 3c
       -0.0007137319 0.010666465 -0.17848699 0.021124162
000270 4a 5a bf 3d a0 b0 25 3e 22 6b 58 be 72 b2 7f bd
       0.09343393 0.16180658 -0.21134618 -0.062426038
000280 6d 1f 55 3e 5e 9d 71 be 71 3b 28 3e b3 f9 c8 bd
       0.20812769 -0.23595187 0.16428925 -0.09813251
000290 9f cb 27 3e 3d d6 84 bd 7c c6 5d b9 9f 1f a6 be
       0.16386269 -0.06486175 -0.00021150144 -0.32446
0002a0 52 ad 33 be 73 89 8a 3e e3 d4 f8 bd af ae 18 3e
       -0.17546585 0.2705799 -0.1214998 0.14910387
0002b0 c4 97 3e 3e b2 88 56 be 34 42 57 be ad fa e5 3d
       0.18612581 -0.20950583 -0.21021348 0.11229453
0002c0 ff 59 ba bc ae f6 eb bd b7 10 15 3d 01 8b f1 3d
       -0.022747992 -0.1152166 0.036392894 0.11794091
0002d0 ad c1 2f 3e 21 7f 9f 3d 0c fe 3b be 4f 98 60 be
       0.17163725 0.0778792 -0.1835863 -0.21933101
0002e0 08 38 43 3e 28 46 0b 3e 0f 35 54 be cb 35 0c 3e
       0.19064343 0.13600981 -0.20723365 0.13692395
0002f0 d6 b0 27 3e 8c ef 6b 3e f7 ca 6d 3e 71 7c 89 be
       0.16376051 0.23040599 0.23221956 -0.26852754
000300 a3 40 dc 3d 97 ac 83 bd db e1 02 be 82 4a 09 3d
       0.10754516 -0.06429403 -0.1278147 0.03351832
000310 6f f7 ff bd 3c be 38 be 14 d5 93 bb 67 d3 5c 3e
       -0.12498366 -0.18041319 -0.004511485 0.21565019
000320 38 98 7d be 07 ab e8 bc 14 fa 68 be fe 42 a7 bd
       -0.24765098 -0.028401865 -0.22751647 -0.081670746
000330 5c 78 4d 3d 8c ab 35 3d 68 b0 38 be a9 fe 18 be
       0.05016361 0.044353053 -0.18036044 -0.14940895
000340 c2 af 32 3e 2b 4b 17 bd 48 a8 59 be d0 4e 38 be
       0.17449859 -0.03693692 -0.212556 -0.17998815
000350 c0 ed d8 3d 43 e3 19 be ac fc ff 3d 11 59 8b 3e
       0.10592222 -0.150281 0.12499365 0.2721639
000360 11 98 3f bd c7 ce 81 be e1 f8 7e 3e 0a ce 5a 3e
       -0.04677588 -0.2535307 0.24899627 0.2136766
000370 dd d6 34 be d5 6b e3 bd 4f 6a 3a 3c 5a 8b 18 be
       -0.17660089 -0.11104552 0.011377885 -0.14896908
000380 f3 c0 2f 3e 3d f1 f1 3d c4 03 18 be c6 2b c8 3d
       0.17163448 0.11813591 -0.14845186 0.09773974
000390 71 77 46 be 52 f2 e1 3d c9 b4 69 be 7f 37 b5 bd
       -0.19381501 0.11032547 -0.2282287 -0.08848476
0003a0 8b 71 2c 3e 7a 48 92 bc f1 e6 3d be 24 49 4b be
       0.16840188 -0.017856825 -0.18545128 -0.1985212
0003b0 78 32 21 bd ff 84 c9 bd 3e c1 1d 3e 62 ea 41 3e
       -0.03935477 -0.0983982 0.15405747 0.18937066
0003c0 24 21 ec 3d 4b f1 17 3e a5 24 5c be e4 a9 35 3d
       0.115297586 0.1483814 -0.21498354 0.044351473
0003d0 ad 26 31 be 90 27 71 3e 2d 2a f6 bc 7d 5f dc bd
       -0.1729991 0.23550248 -0.030049408 -0.107604004
0003e0 7c 2a 61 3e 0d f1 12 be ac 29 61 bd ce 9d f0 bd
       0.21988863 -0.14349766 -0.054971382 -0.11748849
0003f0 be 43 10 3e d4 45 1f 3e c6 bd 26 be fe 06 df 3d
       0.14088342 0.15553981 -0.1628333 0.108900055

output_layer.bias f4 [10]
000000 1d d1 76 bd 8a e8 6b bd 42 51 34 ba bc b8 ad bd
       -0.06025802 -0.057594813 -0.00068785634 -0.08482501
000010 f1 92 3d 3c 89 f5 08 3d ab e5 a4 bd 6e 9d 29 bd
       0.011570678 0.033437286 -0.08051618 -0.041409902
000020 77 aa 1b bd b8 10 92 39
       -0.038004365 0.00027859746
