Results/GeneticResult4/best_model_weights.pt (torch, 272552 bytes, 4 tensors)

hidden_layers.0.weight f4 [85, 784]
00000000: 0bfd e9bc f4ce 993a 9d77 e33c bd86 1fbb
00000010: 1d93 e1bc ca5e bebb b734 a73c b949 afbc
00000020: 657b b33c 806c 663c 6943 02bd 2ca9 87bb
00000030: e56b e43c ec3a 22bd 216d ad3b 1f52 b93c
00000040: a9b5 fabc 65e4 a23b 7ff2 19bb 6ffa 243a
00000050: e72d b0bc 611a 5a3c e7cd e5bc ac7b 0dbc
00000060: 0d4b 8abb 2048 21bd 01dc d8bc 8651 3fbc
00000070: ff99 ab3c c77f dfbc d252 1dbc d5e1 cc3c
00000080: dfe9 b13c 1aa1 23bd 8f12 933c be9a 21bd
00000090: 845d 22bd 8788 37bc 4951 25bb 8ceb f5bc
000000a0: c759 693b 07a2 883c 9278 4a3c 467a c2bc
000000b0: 27fb babb 4996 63bc 3028 10bd db07 933c
000000c0: a075 e5bc 27b5 c13c 809a d13c cf85 0dbd
000000d0: b941 ebbc dd7b 06bd dbff b8bc f925 cfbc
000000e0: 0883 d13a b526 dfbc 8c6e 03bc d8f0 dc3b
000000f0: b81d a9bc a742 503a 63c9 e8bc 21ce 3d3c
00000100: c6cc 01bd fc88 843c 27e9 123b 3a4c a33c
00000110: 9c13 e43c 9569 b43c 579a 3d3b 8fdd 373c
00000120: 1c3d 1fbd 0d04 a33c 7886 873c ec7a 37bd
00000130: ca0a b23c 4d72 dbbb 13e4 04bd 1039 913c
00000140: 4ea6 11bd 8ff1 eb3c fe6b 233c 6c3c 04bd
00000150: 1de9 b43c 9de5 a43c 4f03 ed3c 3b8f b53b
00000160: 8ec2 89bb c08d d0bc 7683 f03b ab7b 2bbc
00000170: dafe 743c 4cd5 84ba 49c5 be3c c6a9 893d
00000180: e5ef ae3c 868b 163b 4999 8dba 2f3d 263d
00000190: 230c 58bc efb6 c8bc bde1 89bc 1b9f 8b3c
000001a0: 60cf 06bc 19dd d83c 2c61 e6bc 37b7 6dbc
000001b0: d267 1d3c d003 f63c d61a 293c 2076 b8bb
000001c0: b232 a1bc 0c0b 4abc 95b2 bcba 3703 933c
000001d0: 8e55 20bc 0dd8 a43c 77e3 8bbc d302 f9bb
000001e0: 7744 4c3d dbee 783d e07c 3d3d fe64 82bc
000001f0: 2474 0a3c 1bc0 1abc f564 ebbb 9de6 443b
00000200: 7f50 063d 1216 fcbc d53a 62bd 5529 3c3c
00000210: a024 80bc 38ef c53c 89d6 e3bc 60e8 573c
00000220: 65f3 14bd 2ebf 6d3c 5fa5 cf3b f505 bcbc
00000230: 494d d43c 443d 6dbc 6773 37bc 1fdd e0bc
00000240: 1a8f b5ba 3c03 65bc 072b 663c 8d43 823c
00000250: 6b1e ba3c 1104 b03a 73ad 44bc 2263 673b
00000260: 1e9b b93b c944 89bd fddf 59bc ec26 82bc
00000270: e94b 5bbb 09e0 e4bb 16b4 093a 048a eabc
00000280: cdab 6cbd 67a1 003c edfb b3bb 35c5 c939
00000290: e395 c83b f011 1f3c d7b4 a4bc 256e bebb
000002a0: 0d7f 71bb e14c 8cbc a77c d33c ee25 09bd
000002b0: 58ab 363d 066a f73c c160 1a3d 73b6 703d
000002c0: 5160 113d d287 50bd ff9b 1a3c 8e88 65bc
000002d0: 7e8d f3bc 8f58 bc3c b925 383c 4392 3d3c
000002e0: d639 ae3c f15e 64bc 01c2 813d ad55 bd3c
000002f0: 71ec d83b 5a92 0ebd ba60 a7bc 63bd cabc
00000300: f450 0d3d c8b9 4abc ce43 ee3c 2f47 f9bc
00000310: 4ba4 6abc 0391 09bd a3bf 873b fcf7 2a3d
00000320: 2c5a fd3c dd84 573d 191e 5c3c 41bf bf3c
00000330: ee62 6f3b 7c09 dcbc cc74 5ebd c1cf 973b
00000340: 8420 d13c e8da ca3b c860 343c f608 d03c
00000350: f962 3c3c cbfd dc3b 301d a7bc f4d6 5d3c
00000360: de24 2b3d 4c56 883d 7293 d33c bcc1 a23c
00000370: d8ac 8f3c 87ec a6bc c6d3 183b 02d3 a4bc
00000380: 94c5 8e3c 96ca aa3c 1441 a139 0648 b93c
00000390: 62f8 263b fd0a debb 05e1 653c 76f6 84bc
000003a0: f1d7 5e3b f89d 0fbd d807 8c3b 7c22 153b
000003b0: 485a 2f3c 13fd 9f3c 96eb 693c eb63 503d
000003c0: 032c a23d 00a1 ca3c 5dd3 84bc a865 143d
000003d0: 4cea b5bc 0679 32bc 6e51 2f3c 3d65 44bc
000003e0: 65f8 183d bf7c 02bd 80d2 ab3c 2385 81bc
000003f0: 91fc 813b 48b8 14bd acfa ecbc 0bf5 b33c
-0.028563043 0.001173465 0.027766997 -0.0024341785 -0.02753597 -0.0058096396 0.020410879 -0.021397458
0.021909425 0.014063954 -0.03180257 -0.00414004 0.02788348 -0.039606974 0.00529255 0.022622166
-0.0306042 0.0049710744 -0.0023490486 0.0006293421 -0.021506263 0.013311953 -0.028052283 -0.008635443
-0.0042203725 -0.039375424 -0.026472094 -0.011677152 0.020947454 -0.027282609 -0.009602265 0.025010029
0.021717964 -0.03994856 0.017953185 -0.039454214 -0.039639965 -0.011201984 -0.0025225452 -0.030019544
0.003560649 0.016678823 0.012357848 -0.023739945 -0.005706209 -0.013890811 -0.035194576 0.017948082
-0.02801019 0.02364595 0.025586367 -0.034551438 -0.028717862 -0.03283297 -0.022582939 -0.025286661
0.0015984485 -0.027240137 -0.008021962 0.006742578 -0.020644054 0.0007944502 -0.028416341 0.0115847895
-0.031689428 0.0161786 0.0022416802 0.019933809 0.027841382 0.022023002 0.0028931105 0.011222257
-0.038876638 0.019899393 0.016543612 -0.04479496 0.02173366 -0.0066969753 -0.03244407 0.017727405
-0.03555899 0.028801708 0.009974478 -0.032284185 0.022083813 0.02012902 0.028932242 0.005540756
-0.004204101 -0.025458217 0.00733989 -0.010466496 0.0149533395 -0.0010134368 0.023287432 0.06721835
0.021354625 0.0022971346 -0.0010803129 0.040585693 -0.013186487 -0.024501292 -0.016831273 0.01704364
-0.008228153 0.026472615 -0.028122507 -0.014509014 0.009607272 0.030031115 0.01032134 -0.005629316
-0.019677494 -0.012331735 -0.0014396483 0.017945869 -0.009786023 0.020122552 -0.017076237 -0.0075992136
0.04986998 0.060774665 0.04626167 -0.015917297 0.008450542 -0.009445216 -0.007183666 0.0030044683
0.03279161 -0.030772243 -0.055231888 0.011484464 -0.015642464 0.02416192 -0.02781226 0.013177961
-0.03636493 0.014510913 0.0063368524 -0.02295206 0.025915759 -0.014479939 -0.011196948 -0.027449189
-0.0013851852 -0.013977822 0.014048344 0.015901351 0.022719583 0.0013428946 -0.012004244 0.003530689
0.0056642434 -0.06702573 -0.013298032 -0.0158877 -0.0033461994 -0.006984715 0.000525297 -0.028630264
-0.05778103 0.007850981 -0.0054926784 0.00038484638 0.0061213835 0.0097088665 -0.020105762 -0.00581147
-0.003684941 -0.017126502 0.025816275 -0.03348344 0.044597 0.030201923 0.037689928 0.058767747
0.035492245 -0.05091078 0.009436606 -0.014009608 -0.029730555 0.022991447 0.0112394625 0.011570516
0.021267813 -0.013938651 0.063358314 0.023112142 0.006619983 -0.03480754 -0.020431865 -0.02474851
0.03450103 -0.012373395 0.029085066 -0.03042945 -0.014321397 -0.03358556 0.004142718 0.041740403
0.030926786 0.052616943 0.01343491 0.023406627 0.0036527473 -0.026859991 -0.054310605 0.0046329205
0.0255282 0.0061906464 0.011009403 0.025394898 0.011498206 0.0067441217 -0.02039966 0.013540018
0.041783206 0.06657085 0.025827143 0.01986777 0.017538473 -0.020376457 0.0023319586 -0.020120148
0.017428197 0.020848554 0.000307568 0.022617351 0.0025477638 -0.0067762122 0.0140307 -0.016230803
0.0034003223 -0.03506276 0.004273396 0.002275615 0.010702677 0.019529855 0.0142773595 0.05087654
0.07918551 0.024734974 -0.016214067 0.03622976 -0.022206448 -0.010893112 0.010700567 -0.011987028
0.037346262 -0.03185725 0.020974398 -0.015810555 0.003966876 -0.036308557 -0.028928123 0.021967432

hidden_layers.0.bias f4 [85]
00000000: c41a 9cba a03e 35bd 3ddd 1cbc 0985 8a3c
00000010: 87a5 ed3b a3b6 e73c 1aac e4bc 20b3 bf3c
00000020: 97e7 0ebb d470 b6b9 e8b0 c43b 82ea 95ba
00000030: 03a6 00bd 6f3e bcbc b5bc 2f3c 8cbd 12bc
00000040: d87f d33c 3eb5 ddbc e013 ddbb 3ae8 6f3c
00000050: 67fd f2bb 1459 2f3d 6c0d 5bbc 1d4b adbb
00000060: 5637 adbc c50f 24bd 3bed 593c c115 dfbc
00000070: 03dc 013d 8397 f9bc 41f5 97bc 9efc cb3b
00000080: 1213 853c e88f e6bc e856 183d 290e fb3c
00000090: 7121 a4bc 88a7 38bb 4fbf 0abc c474 883c
000000a0: 9ab9 4bbc ea52 4d3b 5ee0 373b 4d28 89bc
000000b0: bd93 54bc 06b2 e3bc dc9b f6bc b0b7 8bbc
000000c0: 9aea 86bc ba9a af3b ec69 67bb 7408 29ba
000000d0: 1fe6 d43b 8d1c 8abc c168 8f3c 7e31 beba
000000e0: c652 89bc e633 c0bc baaf 033d 1d11 473c
000000f0: f757 98bc 7485 e33c 2976 3b3c 19f4 3ebc
00000100: 9cdd cb3b 6370 3bbc 2dca 003d 9364 20bc
00000110: 8e3c 2cbb d20c e13c d463 1ebc 0bf3 aabb
00000120: 3619 2fbd a9e3 fa3c 8ab8 2bbc f5d2 9bbc
00000130: 6db3 0abc 5f50 0d3c 235e 34bc 0dff 34bc
00000140: 23e6 0b3d 34ee 84bc 8e5e a13c b881 75bc
00000150: fdfb 373c
-0.0011909832 -0.044249177 -0.009574232 0.01690914 0.0072523984 0.02828533 -0.027914096 0.023400843
-0.0021805519 -0.0003479781 0.006002534 -0.0011437687 -0.03140832 -0.02297899 0.010726144 -0.008956324
0.025817797 -0.027063962 -0.006746754 0.0146427695 -0.007415462 0.04280956 -0.013369899 -0.005288495
-0.02114455 -0.0400541 0.013301189 -0.027232053 0.03170396 -0.030467754 -0.018549563 0.0062251827
0.016244445 -0.028144792 0.037192255 0.0306464 -0.020035477 -0.0028176028 -0.008468463 0.01665724
-0.012434388 0.0031329938 0.0028057317 -0.01674285 -0.012974677 -0.02779485 -0.030103616 -0.017055362
-0.016469289 0.005359021 -0.0035310937 -0.0006448098 0.006497159 -0.016859317 0.017506005 -0.00145106
-0.016763102 -0.023462247 0.032150008 0.012150076 -0.018596632 0.027773596 0.011441746 -0.011654877
0.0062214863 -0.011440369 0.03144281 -0.009789604 -0.002628121 0.027471934 -0.009667356 -0.0052169613
-0.042748652 0.030626135 -0.010481009 -0.01902149 -0.00846563 0.008625119 -0.011008772 -0.011047137
0.034155022 -0.016226865 0.019698408 -0.014984541 0.011229512

output_layer.weight f4 [10, 85]
00000000: 5768 babe 1f34 f0bd 5d01 953a d823 463e
00000010: 3d10 173c 14d6 84be 5398 023e 2641 6ebe
00000020: a602 60be fcad 1b3e 205a 873e 239d 3fbe
00000030: bfbe 6f3e 0885 d2bd 0ef1 f2bd 1f74 af3e
00000040: e922 8abe 5f16 70be b1c2 c2bd 2af9 4e3e
00000050: ddaf 433e 7d3b 463d 53bc 40be 7aa2 683e
00000060: 66c0 2f3d fcbf 1c3e 4d2f 1a3d 9110 443e
00000070: db01 113e 306c 8ebe d1b4 59be 7839 12be
00000080: 1472 293d 6abd 7e3c 7457 983e 2713 95bd
00000090: dfeb 653e c1d7 2abd 59f1 c13d 24f8 31bc
000000a0: 2abf e73d 8a84 7cbd 34c3 903d 7d2e c4bd
000000b0: 7da7 b03e ddb8 c9bc 4381 12be 1dee d63e
000000c0: e689 1fb8 0b23 b2be db98 253e f74f c33d
000000d0: c383 f4bd 17d9 9c3d 9724 93be 3ef7 d33d
000000e0: 1a0d 7c3d 0d29 663e f5b3 41bc 99d1 92bc
000000f0: 6280 5f3e 4874 81bd 553a 6e3d 9f3e 5a3e
00000100: 63a0 99bd be26 63be d687 333e 78fa 993d
00000110: 1d0c bd3e 1a5d bfbc fcb5 36be 72aa 1e3e
00000120: c518 123e f3b3 07be 17d1 d63d c17f 9e3d
00000130: 644a 783e a814 08be aac1 463e ace3 41be
00000140: 628f 3a3e 7484 c83e ee1a 26be 3c17 5f3e
00000150: 6d73 eabd 4c7d 65bc ce11 50be a178 9abe
00000160: 2bbd b33d 3780 3b3e 063a be3c 1750 49be
00000170: e7e3 5f3e 1ee6 123e 5f43 fbbc 5515 07be
00000180: e6cc 05be f35c 14be b704 2c3e a7db 8a3e
00000190: f115 30be 1349 803d 5536 273e c6b8 153e
000001a0: 6c1e 563d f762 e53b c258 5e3c f8ab e73d
000001b0: c027 39be a3a3 c1bd f5e8 32be f9b0 3e3e
000001c0: 7823 863e f172 36be 30b6 533e 0149 e93d
000001d0: 87c0 19bd c0ec 643d d528 743c e7ae 33be
000001e0: c539 f93d 1680 2abe 903d fa3d 7b61 b33d
000001f0: 4815 8dbc 7124 133e 3b25 83be 77a5 adbe
00000200: 7c98 b9bd 4133 d3bd bfe6 c83d 3b2f 0ebe
00000210: 4e12 d13e bef3 01be cf5b c9bb 439e 70be
00000220: 6592 cebc 1935 093e 8f69 77be 7c64 90bc
00000230: 6f9f 71be ae8a 6ebe 8ac1 80be 5aaf 58be
00000240: 3aa0 cb3e 5c7b 77be 42b2 2d3e 0e60 92bd
00000250: c85c 513e 3f8e 4dbe 918f d2bd 72dd 69be
00000260: ada5 6f3e e419 223c 21ec a23d c39f 663e
00000270: 8edd 80be 55c4 ff3d 737e d4bd e92c 8bbe
00000280: 31fd 87be 51f2 2e3e d47a 07bd 6e40 493e
00000290: 79e9 fc3d 7746 09be 5232 debd 5368 a0be
000002a0: 9c62 e03d 7229 18bd 4c3d 613e f313 3abe
000002b0: f9b3 ac3d 5925 223e e122 ca3d bf5e 5bbe
000002c0: 4d7e abbe 956d 54be b266 133e c224 623e
000002d0: 60d3 40be 4c5e 20be 7e28 3dbe c382 663e
000002e0: caa6 40bd e585 4cbe 84e4 81be 812c 14be
000002f0: 05ac 36be 8a37 2dbe 311a 06be c04d 9b3d
00000300: 2d16 c9bd 2cd4 803e acde 873e fb00 21be
00000310: bc5f e73d 96fd 583e e860 1abe 8080 3b3e
00000320: 9654 423e a7d4 ba3c bab4 d8bd 5247 cfbd
00000330: 4bc6 223e 073a 023e f2ed 353e 5c03 83be
00000340: 969d 8bbc 05ad 92be 9898 5d3e e5b2 d3bd
00000350: cf45 9dbe a0bb 933e 3955 7cbd 15e7 4a3e
00000360: bacd 14be 9c22 68be db31 ffbb 7e80 afbe
00000370: b805 043e d0a1 58be b323 7cbe 2a56 b1bd
00000380: 00fc f0bc 56c7 80be 28e7 863d 6c90 11bc
00000390: 3ec0 3c3e d6a6 55be 925d 7cbe 1eb8 d63d
000003a0: 70de aabd 06cb acbe 4b7c be3d 5e34 8c3d
000003b0: cd28 3a3d 2e42 67be 4441 883e 37d9 083e
000003c0: aa00 4fbe a945 833e 8c8e f6bd a529 c83d
000003d0: 807c 7bbe f9a0 703e 8f86 71be b0ed 403e
000003e0: 2713 f63d 378f eebc 933b 02bd 0368 353e
000003f0: b958 c1bc 5c42 823e 2f59 07be 2ede c03b
-0.3640773 -0.11728691 0.0011368204 0.19349611 0.00922018 -0.2594458 0.1275342 -0.2326704
-0.2187601 0.15203089 0.26435947 -0.18712287 0.23412608 -0.1027928 -0.11862384 0.3426828
-0.2697976 -0.23446034 -0.09509791 0.20212236 0.19110055 0.048396576 -0.1882184 0.2271823
0.042908095 0.15307611 0.037642766 0.19146945 0.14160864 -0.27816916 -0.21260382 -0.14279735
0.04136856 0.0155480895 0.2975422 -0.07279044 0.22453259 -0.041709665 0.094698615 -0.010862384
0.113157585 -0.061649837 0.07068482 -0.095791794 0.34502783 -0.024624282 -0.14307122 0.4197854
-3.8036982e-05 -0.3479236 0.16171591 0.095367365 -0.11939194 0.07658594 -0.28738853 0.10349892
0.061535932 0.22476597 -0.01182269 -0.01792221 0.21826318 -0.06321007 0.0581611 0.2131295
-0.075012945 -0.22182748 0.17532286 0.07518476 0.36923304 -0.023359824 -0.17842859 0.15494707
0.14267261 -0.13252239 0.104890995 0.07739211 0.24247128 -0.1328913 0.19409814 -0.18934506
0.18218759 0.39163554 -0.1622121 0.21786207 -0.11447797 -0.014006924 -0.20319292 -0.30170158
0.08776315 0.18310629 0.023221027 -0.19659458 0.21864282 0.14345595 -0.030671773 -0.13191731
-0.13066444 -0.14488582 0.16798674 0.27120706 -0.1719587 0.06263938 0.1632932 0.14621267
0.052275106 0.007000323 0.013570966 0.11312097 -0.1808157 -0.09455039 -0.17471679 0.18622197
0.26198936 -0.17817284 0.20674968 0.113908775 -0.037537124 0.055889845 0.014902313 -0.17547189
0.12169222 -0.16650423 0.12218773 0.08758827 -0.017222062 0.1436937 -0.25614342 -0.33915302
-0.09062287 -0.1031251 0.09809636 -0.13885204 0.40834278 -0.12690637 -0.0061449776 -0.23497872
-0.02521629 0.13399161 -0.24161361 -0.01762604 -0.23595975 -0.2329509 -0.2514766 -0.21160641
0.3977068 -0.24168152 0.16962531 -0.07147227 0.2044555 -0.20073794 -0.10281289 -0.22838381
0.23403044 0.009893868 0.07955194 0.22521882 -0.25169033 0.12488619 -0.10375681 -0.271827
-0.26560357 0.17084624 -0.033076122 0.19653484 0.12349219 -0.13405786 -0.108494416 -0.31329593
0.10956308 -0.0371489 0.21996039 -0.18171673 0.084327646 0.1583456 0.09869934 -0.21422862
-0.33494797 -0.20744927 0.14394644 0.22084334 -0.18830633 -0.15660971 -0.18472478 0.22510819
-0.047034062 -0.19972952 -0.25369656 -0.14470102 -0.17839058 -0.16915718 -0.13095929 0.07583189
-0.09818683 0.25161874 0.26537073 -0.1572303 0.11297557 0.21190485 -0.1507603 0.18310738
0.1897758 0.022806479 -0.10581346 -0.10121025 0.15895955 0.12717448 0.1776655 -0.255885
-0.017042916 -0.28647628 0.21640241 -0.10336856 -0.30717322 0.28854084 -0.061604712 0.19814713
-0.14531603 -0.22669452 -0.0077879257 -0.3427772 0.12892807 -0.21155477 -0.24622993 -0.086590126
-0.029417038 -0.2515208 0.06587058 -0.0088845305 0.1843271 -0.20864424 -0.24645069 0.10484336
-0.08343208 -0.33748645 0.09301051 0.06845926 0.045449067 -0.2258384 0.26612294 0.13364111
-0.20215097 0.25639084 -0.120389074 0.09773568 -0.24559212 0.23498906 -0.23586486 0.1884067
0.12015372 -0.029121025 -0.031795096 0.17715459 -0.023601877 0.25441253 -0.13217615 0.005885861

output_layer.bias f4 [10]
00000000: 65a2 efbc 9a82 463d 5c78 e93c 2874 4c3c
00000010: 527b 8dbc ddb7 ad3d b41d b8bd 4da1 563c
00000020: 9dcf cbbd 22b5 a43d
-0.02925224 0.048464395 0.028499775 0.012478866 -0.017270718 0.08482335 -0.089900404 0.013099981
-0.099517085 0.08042361
