Results/GridResult/best_model_weights.pt (torch, 609426 bytes, 10 tensors)

hidden_layers.0.weight f4 [128, 784]
00000000: 03f3 923c 3ff1 1fba 0bdc 1bbc ed13 e939
00000010: c60e f13c f79e 91bb 4314 143b 5dad bebc
00000020: 2b0c b3bc a94b e33c 668b d93b a107 46bc
00000030: 61a1 efbc 234b 963a 4775 a7bb 184a ccbb
00000040: eb2c e7bc d556 ea3c f049 0cbd 39c8 8cbc
00000050: 471c 9e3c 9117 bdbc 6cab 6dbb 16f1 cc3b
00000060: 1d7c 51bc 3744 adbc 6c5b 623b 2671 d53b
00000070: ae46 e43a 9762 1d3c 636b e2bc 9c8a 03bd
00000080: 53a2 51bc 87a4 703c b257 14bc a586 0dbc
00000090: dd33 c0bc a1b0 243c 4002 9e3c 22b5 06bd
000000a0: 0beb 36bc e023 e4bc cba6 9d3c fb2a da3c
000000b0: eee2 25bc ff7c 0c3d 15a1 1abc 9cbf e1bb
000000c0: cfb8 733b 5efd 973c 72e2 b5bc 9917 0cbc
000000d0: 57ff 953c c385 d7bc 01b0 4fbc b5b1 0e3d
000000e0: d246 fd38 5edb 1fbc 6697 d1bb b112 76bc
000000f0: 3492 b5bb 27e3 ce3c 6dec ce3c b758 9cbb
00000100: f2f3 cfbc 0ec8 92bc d197 da3b b7d1 553c
00000110: ca66 07bd 27a7 0a3c 2f45 afbc 90d7 613c
00000120: 26d7 803c a872 c2bc 1322 64bc d7a1 233c
00000130: a066 c43c a533 3bbc 973d 8b3b af58 153c
00000140: cf5d 453a 1e09 90bc c9c3 7abc a341 d8bc
00000150: 2d4d bbbb 9226 e938 1a54 c0ba 573c 4eba
00000160: 13bf 6f3a 4687 c5bc 6626 f2bc da6e fc3c
00000170: 4bca c0bb 3d35 8dbc 3353 103d ec30 12bd
00000180: e88d ddbb a9e0 02bd 7d15 bebc 33d5 4f3c
00000190: c070 27ba 832f f13c 3e45 813c a6e4 003d
000001a0: ad29 02bd ba36 3dbc aae2 333b 0f23 c43c
000001b0: 1dff 033d d318 cf3c 83e0 063d 4fcf 333c
000001c0: 011f b43c e385 053d 1ea1 86bc ef44 63bc
000001d0: 18cd 323c b8a5 473c f1bd a43c d9d1 0a3d
000001e0: ced0 9d3c 7a60 3fbb 6795 63bb a7e8 edbc
000001f0: 74db 4cbd 53af 98bb f0ff 9cbc c1a7 98bc
00000200: e38e f63c 8c3f ea3a 7703 b0bc 24b4 eeba
00000210: 923a fbbc da81 7e3c 48cd 013d 85aa d73b
00000220: 0d6a b73b c428 5c3c 950d d3bc 2493 dcbb
00000230: 106a af3b 6745 093d af84 793c 8b79 f23c
00000240: 2426 afbc 3378 503c bd09 993c be28 dfbc
00000250: 6f32 3f3d d3a4 063d d846 193d 1b6f 043d
00000260: 16fe 53bd ffe7 20bd 3488 b5bc 2212 99bc
00000270: eca1 d2bc 2d1a f8bb 44b8 d33b 7fbd c6bc
00000280: 0245 a2bc 942e 3b3c 2a6c cc3c abb2 eeba
00000290: 9538 8bbc d6ef e63c b027 0abc 6107 133d
000002a0: 9119 c93c fd39 f7bb b97f abbc a588 0cbd
000002b0: b736 cabc bf95 95bc a856 5b3c e4fd 003d
000002c0: e5a0 7f3d 63f1 0c3d 5811 75bb 47f3 a5bc
000002d0: dda0 c83a 31b1 30bc a396 6abc c8fb 2f3d
000002e0: 608c e63b 454d 893c b668 1abc 041f 6abb
000002f0: 1b9e d53c 9147 37bc 7a2f b3ba 394a 4a3b
00000300: 9c43 9cbc e122 213c 9441 debb 76e2 bdbc
00000310: d743 833c 620a 9d3c 0732 0e3d b670 e8bc
00000320: 9b69 09bc 69aa b33b e341 e1bc a046 0a3d
00000330: 4a13 f03c 9ed6 ebbc df62 2ebd b634 aebc
00000340: 67fa df3b 0fb4 433d 39de 3bbd 77e0 36bd
00000350: d1dc e9bc 63a3 e1bc bbe4 90bc 57f2 f43b
00000360: 79d4 0e3d 7c7f 093c 91ee a93b 062e 83bb
00000370: 31be a63b 9bab 3b3c 25f1 89bc b906 073b
00000380: 74e8 7cbc a341 af3c 7ae5 c73c 6cac debc
00000390: 689e 293d 1beb 363d b233 abbc 70f4 c43c
000003a0: 34d9 a1bb 30b7 02bd 2b01 a5bc ebf7 64bb
000003b0: d9c7 373c 130e c03c b0e6 67bd a4d5 d2bd
000003c0: 5b95 93bd c6ff 36b9 c081 9f3a 7d30 133d
000003d0: aaed 643d 45d5 073d 1811 9cbc 8c18 57bd
000003e0: 3a16 f2bc cfa5 583c 2ad3 623c 18c0 74bc
000003f0: 1ce8 053d ca2f 7c3c d554 0d3d 3c7c ac3c
0.017938143 -0.0006101317 -0.009512912 0.0004445607 0.02942599 -0.004443999 0.0022595085 -0.023276025
-0.021856388 0.027746039 0.006638932 -0.01208678 -0.029251756 0.0011466484 -0.005110416 -0.0062344186
-0.02821966 0.028605858 -0.0342502 -0.017185317 0.019300593 -0.023082526 -0.0036265505 0.0062543256
-0.012785939 -0.021150691 0.0034539355 0.0065137325 0.0017416084 0.009606025 -0.027639097 -0.03211461
-0.012795049 0.014687664 -0.009054111 -0.008638059 -0.02346223 0.010051877 0.019288182 -0.032887585
-0.011164437 -0.027849138 0.019244572 0.026631823 -0.010124905 0.034298893 -0.009437819 -0.0068892967
0.0037189012 0.018553432 -0.022202704 -0.008550548 0.018310232 -0.0263089 -0.01267624 0.034837443
0.000120771714 -0.009756891 -0.006396222 -0.015019105 -0.0055411104 0.025254799 0.025259221 -0.004771318
-0.025384877 -0.01791766 0.00667093 0.013050488 -0.03305701 0.008462704 -0.021395294 0.013784304
0.01572759 -0.023736313 -0.01392414 0.009987316 0.023974717 -0.011425887 0.0042492854 0.009115382
0.0007528932 -0.017582472 -0.015305468 -0.026398486 -0.005715987 0.0001111749 -0.0014673502 -0.00078672677
0.0009145599 -0.024112355 -0.029559325 0.030814577 -0.00588349 -0.0172373 0.035235595 -0.035691187
-0.0067613013 -0.031952534 -0.023203606 0.012685108 -0.00063873455 0.0294416 0.015780088 0.031468056
-0.031778026 -0.011548692 0.0027448335 0.023942498 0.032225717 0.025280392 0.032928955 0.010974719
0.02198744 0.032598387 -0.016434249 -0.0138714155 0.010913156 0.0121855065 0.020110102 0.033891533
0.019264605 -0.0029201792 -0.0034726502 -0.029041601 -0.050013974 -0.004659572 -0.01916501 -0.018634679
0.03009743 0.0017871722 -0.021486027 -0.0018211645 -0.030667577 0.015533889 0.031689912 0.006581607
0.005597359 0.013437454 -0.025763312 -0.0067314077 0.00535322 0.033513453 0.015229388 0.029598972
-0.021380492 0.01272397 0.018681401 -0.027241107 0.046678957 0.032872032 0.037421077 0.03233252
-0.051755987 -0.03928375 -0.022159673 -0.018685404 -0.025711976 -0.00757148 0.006461175 -0.02426028
-0.019808296 0.011424679 0.02495392 -0.0018211206 -0.016994754 0.028190535 -0.008432314 0.03589571
0.024548324 -0.0075447545 -0.020934926 -0.034310002 -0.024684293 -0.018259881 0.01338736 0.03149213
0.0624093 0.03440989 -0.003739437 -0.020257605 0.001530673 -0.010784433 -0.014318141 0.042964727
0.007035777 0.016760478 -0.009424379 -0.0035724053 0.026076367 -0.011186496 -0.0013670765 0.0030866994
-0.019075207 0.009834976 -0.00678272 -0.023179274 0.01602356 0.01916999 0.03471568 -0.028374057
-0.008386995 0.005482961 -0.027497238 0.03375876 0.029306073 -0.02878886 -0.04257476 -0.021265369
0.00683527 0.04777914 -0.045866225 -0.04464766 -0.028547676 -0.02754373 -0.017687192 0.007475178
0.0348706 0.008392211 0.00518591 -0.004003289 0.0050885906 0.011454488 -0.01683862 0.0020603372
-0.0154362805 0.021393603 0.024401415 -0.027181827 0.041410834 0.044657808 -0.020898674 0.024042338
-0.0049392227 -0.031912982 -0.020142158 -0.003493781 0.011217081 0.023444211 -0.056616485 -0.10294655
-0.07206222 -0.00017452156 0.0012169406 0.035934914 0.055890717 0.033162374 -0.01905112 -0.052513644
-0.029551614 0.013223126 0.013844291 -0.014938377 0.03269206 0.015392253 0.03450473 0.021055333

hidden_layers.0.bias f4 [128]
00000000: ec0c c63c 9236 ce3c 2013 f93a 72b8 22bc
00000010: be54 d63c 012d 8bba e654 f3bb 6830 033d
00000020: 3231 d43c 208c 1c3c 6c1b dbbc 0a75 07bd
00000030: c473 05bd 6dd8 0f3d 2504 34bc b6ed c0bb
00000040: 5103 32bc 031b a53c 301d ea3c 2257 793c
00000050: 40da e0bc f2e1 8b3b 2325 cbbb e988 753c
00000060: 9538 343c 5dc6 ec3c 9e48 dabc a4fd 87bc
00000070: 28fa c73c 582c 493b f465 103d cee7 373c
00000080: 16df 0dbd 07f5 a73c d344 c3bc 31b6 a93b
00000090: d4fd 873c 3e54 80bc 88a2 f3bc 69b3 e5bc
000000a0: a54e 00bd ef08 783c 7a05 f43a 1dca 363b
000000b0: a62a eb3c ee90 57bc be74 8e3b 3f28 2bbc
000000c0: a4a8 a83c 44cd b23b ba04 d0bc f557 0cbd
000000d0: 6d99 f7bc 46eb 5538 9c63 f9ba ec16 ea3c
000000e0: b54c 0e3c 384c 0b3d 559c b4bb 534e 863c
000000f0: 2531 f43c 6f28 073c 4d7f aebc c443 d43c
00000100: 5e4d 40bc 9cc6 fbbc d17f c13c f08b 18bc
00000110: 51e4 14bd 308b 063c aa7b 59bc d36f 8abc
00000120: bb3a c7bc 8e13 433c 03f7 94bc cfac 99bc
00000130: aeb8 22bc 6b44 d0bc 6527 cfbc d6fa d93c
00000140: fe7d bbbc 90a2 6fb6 e6da b43c 6bac 91bc
00000150: 100c 8ebc f902 2fbb f620 b1bc 2544 d7bc
00000160: 4af7 043d 05e1 16bd 69c7 b0bc 6e99 243c
00000170: 6589 aabb 94fe b3bc a894 ff3c 8c54 f3bb
00000180: c605 8fbb fcc9 cd3c b529 7d3c 2ddb ab3c
00000190: 520c f5bb 6da4 843c fa27 003d 6875 f03c
000001a0: 6ea7 683c 7031 593c 5e1d 08bd 2d82 41bc
000001b0: b088 c1bc 0a8e 933c c240 d43c 37ba 053d
000001c0: dd9c dbbc 6ee8 0abd 694a b5bc 5ec5 cbbc
000001d0: 59d6 59bc ae4c dbbc 6911 0e3d 9353 993c
000001e0: 0450 85bc ec8d f2bb 2d06 57bc 0a5e 0abc
000001f0: 1f0c c8bc 5f1f abbc cb14 833c 5537 59bc
0.024176084 0.025172506 0.0019002892 -0.0099316705 0.026163455 -0.0010618271 -0.007425892 0.032028586
0.025902364 0.009554893 -0.026746474 -0.0330706 -0.032581106 0.03511851 -0.010987316 -0.0058877124
-0.0108650485 0.020154482 0.02857837 0.015218528 -0.02744782 0.004268878 -0.0061994954 0.014986255
0.010999818 0.02890318 -0.026645955 -0.016600437 0.024411276 0.0030696597 0.03525348 0.0112247
-0.03463658 0.02050258 -0.023836529 0.0051791896 0.016600527 -0.01566517 -0.029740587 -0.028039651
-0.031325 0.015138849 0.0018617355 0.0027891465 0.02870686 -0.0131571125 0.004347413 -0.010446607
0.020588227 0.0054565985 -0.025392879 -0.03426357 -0.030224526 5.1002273e-05 -0.0019026878 0.028575383
0.008685281 0.034008235 -0.0055118003 0.01639477 0.02980859 0.008249386 -0.021300936 0.02591122
-0.011737196 -0.030734353 0.023620518 -0.009310707 -0.036350552 0.008211896 -0.013274113 -0.016899025
-0.024319997 0.011906518 -0.01818419 -0.01875916 -0.009931726 -0.02542325 -0.02528734 0.026608866
-0.022887226 -3.57084e-06 0.022077035 -0.01778241 -0.017339736 -0.0026704653 -0.021622162 -0.026277611
0.032462396 -0.03683569 -0.021579461 0.010046346 -0.005204367 -0.021971978 0.031198815 -0.0074258503
-0.004364702 0.025120728 0.015451838 0.020978535 -0.0074782753 0.016191686 0.031288125 0.029352859
0.014200075 0.013256416 -0.03323113 -0.0118108215 -0.023624748 0.018012065 0.025909785 0.03264829
-0.026808197 -0.03391307 -0.022130208 -0.024874385 -0.013295733 -0.026769962 0.034684572 0.01871661
-0.016273506 -0.0074021723 -0.013124031 -0.008445272 -0.024419842 -0.020888982 0.016001126 -0.013257821

hidden_layers.3.weight f4 [128, 128]
00000000: 0f0c 593d c74b 273d 9a97 d53d 066e 5a3d
00000010: c38f 9bbd c81a d8bd 02fc 963d 23aa 453d
00000020: 7e05 2ebc ceae c2bc 054d e53d fd6e 55bc
00000030: d540 d23c 2edb b9bc 82a7 20bd aeea 1c3c
00000040: 217c 693d 7b9e cd3c b6aa 243d 2a62 583d
00000050: 3bf9 c4bb 97b5 0fbc b187 8d3c da87 933d
00000060: 4d5e 283d a80e 413d 44b2 0c3e ce67 b9bd
00000070: 49bf 50bd 7bfb 393d d7bb 983d 9d6e 2c3c
00000080: 21b4 a33d 714b d4bd 2378 d13c f7f2 2fbd
00000090: 75c5 0fbd e34d dabc 9dda 373d b14f 4dbd
000000a0: 341e e1bd d0b3 15be b8e4 78bc 9aee efbc
000000b0: 9c29 94bd 81af fabc 9214 ec3d c237 853d
000000c0: 8b1d cfbd 402f ebbc 5bdd 833d b582 4b3d
000000d0: 44d4 96bc 0224 0b3d f23b f3bd 7134 80bd
000000e0: d061 c73c 6208 ddbd de94 44bb a932 033d
000000f0: 2f10 aebd eb78 073c d096 93bd e39d e8bc
00000100: 8f06 a6bd 339b b5bd e349 fa3a b3f3 9fbd
00000110: d551 b13d c218 ccbd ccbb 803d da95 fe3c
00000120: 5228 f53c d811 bb3c 764c d1bc 9165 d0bd
00000130: 970a 25bd ae0a e93d 8dde 323d 813d b0bc
00000140: 2fa7 543d ffae 23bc dd46 a73b a93e eebd
00000150: f7d7 983d 645d e53d 9f9c 0cbe 5950 4ebc
00000160: 255a 133d b2e6 c0bd 66e9 85bb 4d13 773d
00000170: 70e1 47bd bb04 da3d 82be 49bd 7001 f3bc
00000180: e251 073e a1f8 533d aa68 9bbd bd52 e13d
00000190: b352 90bc 65df 3dbd 4289 083d 5b2a 82bd
000001a0: 5892 96bd 8709 8ebc 51f1 b73d fa2a 01bd
000001b0: 794c 8f3d 9fe4 43bd 1193 f73d 7c6f f4bd
000001c0: 3528 673d 37f0 0abd 6e79 34bd 4d85 823d
000001d0: e243 2ebd fc8a 183b 0638 983d 3da5 4bbd
000001e0: 921a 00bd 55e1 4ebd de28 6e3d e335 13bd
000001f0: dc1c 3b3d ca0b f73c 0eac ca3d ee6d c73c
00000200: b2fa dbbd 4dcb aabd 5084 fcbc 9720 a53d
00000210: 4aca f0bc 17fb a13c 3bcf f33c a1f6 d83c
00000220: 5296 a1bd bb0c fabc 351d d83c 55ed cebd
00000230: 819a 36bd 3796 f53d 8125 a03d 4b5a 9b3d
00000240: d363 b6bd 1dcd 57bc eaa7 1fbd b70f 9fbc
00000250: ab0d bb3d a63d 3d3d dfb2 423d bacf 61bc
00000260: 1673 d5bc 3855 613d d86e 72bb a0e9 eebc
00000270: 51f9 813d 49a5 df3d 7f14 70bd 42ee f63d
00000280: 9ca4 a43c c0ce 123d de0f 683d 4972 30bd
00000290: 3cb8 27bd b62e 853c a20e 043b 04fd ac3d
000002a0: 0227 8fbd 9442 3d3d bb11 843d 9561 1bbd
000002b0: 1659 65bd 798a 41bd 71dc 423b 7663 90bd
000002c0: 7133 d53c 72d7 583d 9c4b 833d d8be 90bd
000002d0: b0dc 13bd 84dc 473d a835 b0bd ca7b a13c
000002e0: d488 8cbb 90b6 64ba e82a a1bc 1360 95bd
000002f0: 117b 3e3d 0075 203d f192 e63c 26aa 8a3d
00000300: 54a6 ff3b 309a 243d f00c 88bc 1108 4fbd
00000310: ceab 1d3c e847 a03d 3fd6 86bd c062 573d
00000320: f3b5 473d d2c5 a9bd 84ae 333d 2f84 e2bd
00000330: dae5 8dbd 1c26 8b3d 4e00 283d 4874 883d
00000340: 7a72 03be 13e8 813d 0f3b d93c b7f6 723b
00000350: 7619 353d 3dfa 403d 89c0 ecbc ba73 283d
00000360: 83d3 0d3d 5f6e 3bbd aab5 6b3c 331c aebd
00000370: 1f8c 8d3d 0526 babd 989e f43d a380 6bbd
00000380: 065c 1fbc 0fda 813d 38a6 033c 3f15 b2bd
00000390: 5802 1e3d 8412 893c 9575 d93c cea4 5d3d
000003a0: 83c0 803d 09ff 863d be79 b4bd b94a 703d
000003b0: b843 043d 667e 303d 9b1d dabd 761f edbd
000003c0: 8dc2 d53d f1b5 283c 7aab 2d3d 640d a2bc
000003d0: 95da a0bd e372 81bc 9f83 d1b9 e27a 6abd
000003e0: fb6d aab9 f6bb 99bb a18a 9d3c 3052 a63d
000003f0: 829a c63d 0ece cf3d 2714 ce3c f337 2fbd
0.052990016 0.04084375 0.10429306 0.053327583 -0.0759578 -0.10551983 0.073722854 0.04825796
-0.010621427 -0.023764994 0.11196331 -0.01302695 0.02566568 -0.02268752 -0.039222248 0.009577436
0.057003144 0.025099983 0.040201865 0.05282799 -0.006011156 -0.008771322 0.017276617 0.07203646
0.041105557 0.047133118 0.13739878 -0.09053002 -0.050963674 0.045405846 0.074577026 0.010524419
0.07993341 -0.10365952 0.025569981 -0.04295632 -0.03510042 -0.026648467 0.04488622 -0.050124828
-0.10992089 -0.14619374 -0.01519125 -0.029288579 -0.07234499 -0.030601265 0.11527361 0.065047756
-0.10113057 -0.028709054 0.064387046 0.0496852 -0.018411763 0.033969887 -0.11876668 -0.062600024
0.024338633 -0.107926145 -0.0029995958 0.032030735 -0.084991805 0.008268575 -0.072064996 -0.028395599
-0.0810672 -0.088674925 0.0019095506 -0.07810154 0.08658186 -0.0996566 0.062858194 0.031077314
0.029926453 0.022835657 -0.025549155 -0.10175622 -0.040293302 0.1137899 0.043669272 -0.021513702
0.05191725 -0.009990453 0.005104883 -0.11633045 0.07463067 0.111994535 -0.13731621 -0.012592399
0.03597464 -0.09419002 -0.004086661 0.06032114 -0.04879898 0.106454335 -0.049253948 -0.029663771
0.1321483 0.051750783 -0.075883225 0.11002109 -0.017617559 -0.046355624 0.033334024 -0.06355735
-0.073521316 -0.017338527 0.08981574 -0.031535126 0.06997008 -0.047825452 0.120885976 -0.119353265
0.05643483 -0.033920493 -0.044061117 0.06373081 -0.042545207 0.00232762 0.074325606 -0.04971813
-0.03127534 -0.050507862 0.058144443 -0.035940062 0.04568182 0.030156989 0.09896098 0.02434441
-0.10741176 -0.08339558 -0.03082481 0.08062857 -0.029393334 0.01977305 0.029761901 0.02648479
-0.078899994 -0.030523648 0.026381114 -0.10103861 -0.04458094 0.11991542 0.07819653 0.075855814
-0.08905759 -0.013171461 -0.038978495 -0.019416673 0.09133466 0.04620137 0.047533866 -0.013782436
-0.026055854 0.05501291 -0.0036992338 -0.029164135 0.063463815 0.109201975 -0.058613297 0.12057163
0.020098023 0.035841703 0.056655757 -0.04307774 -0.040947184 0.016257625 0.0020150323 0.084466964
-0.06989862 0.046206072 0.06448694 -0.03793486 -0.055993162 -0.0472512 0.0029733444 -0.07050221
0.026025506 0.05293984 0.06410906 -0.070676506 -0.036099136 0.048794284 -0.08603984 0.019712348
-0.004288772 -0.00087247137 -0.01967378 -0.07293715 0.046504084 0.03917408 0.028146239 0.067707345
0.0078018103 0.040186107 -0.016607732 -0.050544802 0.009623481 0.07826215 -0.06583833 0.05258441
0.048757505 -0.08289684 0.043867603 -0.11060368 -0.06928606 0.06794378 0.041015916 0.06662804
-0.12836638 0.06343093 0.02651742 0.0037073323 0.044213735 0.047113646 -0.028900402 0.04112599
0.03462554 -0.045759555 0.014386574 -0.08501472 0.069114916 -0.09089283 0.11944312 -0.057495724
-0.00972653 0.063404195 0.008035235 -0.086954586 0.038576454 0.016732462 0.026545325 0.054112248
0.06286719 0.06591613 -0.08812283 0.05866501 0.032291144 0.043089293 -0.10650178 -0.11578266
0.10437498 0.010297284 0.04239986 -0.019781776 -0.07854191 -0.015801853 -0.00039961652 -0.057246096
-0.0003250687 -0.004691596 0.019231142 0.08121145 0.09697439 0.10146724 0.025156094 -0.042777967

hidden_layers.3.bias f4 [128]
00000000: e0c3 003d 3102 383d 9fde 90bc f58a 163d
00000010: 9031 e73c 2954 58ba 83e7 8b3d 0739 b6bd
00000020: 948b 473d 4114 1d3d 9b63 873c fdc1 c23d
00000030: 7b18 923d 8e87 14bc be7f 90bd 0f52 edbc
00000040: 84e8 49bc 318b 4ebd 4883 39bd e87c 693d
00000050: 8da8 623d 03a4 853d 1113 903d 7cbd 84bd
00000060: d0ae 513d dcc5 81bd 34dc 033d 2f4a 30bc
00000070: 7383 67bc 89a1 433d befe 1f3d ebda 823c
00000080: 51c0 74bd 9337 b23d 52e7 2abd 40fe 5f3d
00000090: c675 aa3d 9a15 1b3d b452 4c3d a095 ba3c
000000a0: e78c de3c d3eb 9d3d 43f6 afbd 703c 773d
000000b0: ed45 b3bd 8a78 8ebd 59bd 9cbd a9d1 be3c
000000c0: d1a9 a43d cdb0 e4bc 3673 b03d a7f6 d73b
000000d0: 155a 0c3d 56da 723d 0780 07bd bea1 fdbc
000000e0: fd04 4e3d e22f 9b3c 41d4 073c 065a 8a3d
000000f0: 035f 8f3d 6c5e 8dbd 3e88 b1bb bfdc 66ba
00000100: f949 18bd ede6 b2bb bb33 c73c 050d a3bd
00000110: 5286 54bd 9ec4 d8bc 4213 bb3d 8268 1d3d
00000120: 5368 823d cee2 35bb cc61 b4bd 0596 6e3b
00000130: 8a9f 143d df19 003c d04a 813d ab33 583d
00000140: af38 873d 23fc eabd 6914 9dbd 57a4 0d3d
00000150: 2fd6 2c3b bebf 0f3d 900f cdbd 335e 463d
00000160: ab2d 863d 1a29 9abd 1cea bdbb dbf6 71bd
00000170: d78d 9c3d e31b babd d3e7 793d c51a 633c
00000180: 9579 353d 4f01 3abd 6ed5 ff3a 1b51 bf3d
00000190: 7a66 42bc 3638 12bd aa8d 943c ce38 ce3d
000001a0: 054b 9fbd 08ac e2bc e71e f13c 4380 79bd
000001b0: c541 61bd 3874 9cbc 8c5e 943c d1f6 18bd
000001c0: 16df 483d 4683 2ebd 83b2 273d c4e4 55bd
000001d0: 5415 e13c 2805 0f3d 4bfb 95bd 0a70 24bd
000001e0: ef6a 89bd 68e0 903c bb09 953d 92c6 14bd
000001f0: ba2b a2bd 82f4 673d 2db6 c53d 843f 113c
0.0314368 0.044923965 -0.017684279 0.036753614 0.028221875 -0.0008252287 0.06831267 -0.08897596
0.048717096 0.038349394 0.016526988 0.095096566 0.071335755 -0.009065522 -0.07055615 -0.028969793
-0.012323502 -0.050425712 -0.045291215 0.057003886 0.055336524 0.065254234 0.07034887 -0.06481454
0.051192105 -0.06336567 0.032192424 -0.010759874 -0.014130461 0.047761474 0.0390613 0.015973529
-0.05975372 0.08702006 -0.04172451 0.05468583 0.08323245 0.037862398 0.04988356 0.022776425
0.027166797 0.077109955 -0.085918926 0.060360372 -0.08753572 -0.06956585 -0.07653303 0.023293333
0.080402024 -0.027916336 0.08615725 0.0065906825 0.034265596 0.059290253 -0.03308108 -0.030960914
0.050297726 0.01894373 0.008290351 0.06755452 0.07000544 -0.06902775 -0.0054178527 -0.00088066974
-0.03717992 -0.0054596574 0.02431666 -0.07961468 -0.05188591 -0.026460942 0.091345325 0.038429745
0.063675545 -0.0027753594 -0.08807716 0.0036405337 0.03628496 0.007818668 0.063130975 0.05278365
0.066026084 -0.114738725 -0.076699086 0.034580555 0.002637278 0.03509497 -0.10012734 0.04842968
0.06551679 -0.07527371 -0.0057957303 -0.05907331 0.07644241 -0.0908735 0.0610121 0.013861363
0.044305403 -0.045411404 0.0019518563 0.093416415 -0.011865253 -0.03569814 0.018133957 0.100694284
-0.07777981 -0.027669922 0.02943368 -0.060913336 -0.054994363 -0.019098386 0.01811149 -0.037344757
0.049040876 -0.04260566 0.040941726 -0.05222012 0.02747599 0.034917027 -0.07323321 -0.04014591
-0.06709849 0.01768513 0.072772466 -0.036322184 -0.079184964 0.056629665 0.09653888 0.008865241

hidden_layers.6.weight f4 [128, 128]
00000000: d488 0ebd 89a9 143c 76ea a83d 1c00 7b3d
00000010: 9530 e63a 676d 583c ab0e 083e d891 25be
00000020: 4979 19bd a522 e2bd 86e0 aabd 7d61 c5bd
00000030: 72f5 c2bc 5278 c7bb 214b c33c b9dd 88bd
00000040: 2694 cbbd 196e c2bb 019b 923c 0a53 89ba
00000050: 467c 673d 8900 62bb ea14 833d ac06 22bc
00000060: 161d 133c 8938 863c 78e7 673d 6847 ca3c
00000070: dba7 f43c ebb5 c33d 88e8 a13b f793 283d
00000080: eebe 203d be50 253d 594c 8abd 51ef a8bd
00000090: f54a 93bd 4028 fa3b e823 23bd 12cc de3d
000000a0: b776 933d c02f 8ebd 04e7 27bc 2caa b1bc
000000b0: bf4b 6ebb 1171 be3d 9043 ebbd 0e1d 2fbd
000000c0: db85 c9bd 7a37 9f3d 0bf5 31bc d85b 323d
000000d0: 904d 47bd ff0a 4a3d aae5 85bd f69c cfbc
000000e0: 2c2f 21bd bf40 59bc 0e5c fd3d 564f fdbd
000000f0: 5e76 cb3d 9ded 373d 6e4f 2abc 02e1 9cbd
00000100: 81c8 a43d e07f 0bbd 9d92 2fbd 223c 84bd
00000110: 423e 7a3d c2d9 a0bd d177 3abd baca d5bd
00000120: 52fd c83d 529f 0e3e 7145 8a3d 9004 8fbd
00000130: 47d9 43bd 5245 353d 2629 eb3c 3ec5 ef3d
00000140: e279 073d d01a a5bd 8814 e1bd b102 21bd
00000150: 916d 2a3c f367 7c3d df8a 833d b93f d73d
00000160: c78b d1bc ad6e c8bd f490 e73c 2ee1 90bc
00000170: 59ba aa3d 7440 2c3c b969 ad3c b12e aebd
00000180: f70b 4dbc 70e9 cf3d f58b d33d fc05 d6bd
00000190: 7109 95bb 3197 cf3b 1d35 fabc c541 6ebd
000001a0: 6b8b e63d 30cc 76bd cbf8 153e 303f a93d
000001b0: f458 e83d f32b afbd 02e2 e33c 888d 6abd
000001c0: 63c3 dabd c0fa 75ba 33be 29bd c719 f5bc
000001d0: bf44 473d 66ec 21bd faaa ec3d 732d c7bc
000001e0: 20b8 97bc 8e29 cd3c c818 45bc 4ef1 b73c
000001f0: 46f8 3a3d 0c3e 363d 8235 db3c 4772 433d
00000200: cd85 0ebe 3a4c 7b3d 1428 84bd 8ff9 0abd
00000210: 1ea0 46bd 37b2 91bd 51c5 a83c 4537 ab3d
00000220: b1c9 813c fb4e abbd cc03 a5bd 6fdc 8bbd
00000230: de0d c2bd f8a1 b73a a231 ad3d 8e42 a63d
00000240: 895d 13bc 3eab 3dbd f006 14bd 8f93 f2bd
00000250: 54b2 d5bd 1d7c be3d 8e76 6abd d2c2 ab3d
00000260: da50 f4bc 07b5 fbbd 2b23 1dbe 11b8 50bd
00000270: db0b 0e3d 3f70 093c 8e9c 3bbd 7d3c 8dbc
00000280: fc90 e03b c18b 1fbd fd39 343d 45d5 5dbd
00000290: 4084 90bd 9549 c2bd ebbf 4c3d 7604 643d
000002a0: bb41 383d 1ac6 633c 9deb 35bd 0838 48bd
000002b0: 42d2 bdbc 9a53 923a beed 11bd d6bd 1a3c
000002c0: 11b0 cc3d f38e 18bd 36a3 6cbd 8212 28bc
000002d0: 53ba 1fbe 1308 64bd 0530 7ebd 8d5f 9f3c
000002e0: dcd0 7f3d f9e1 10bd 7857 e0bc 4661 563c
000002f0: 8f37 1d3d 509f 9cbd bbec bfbd ef3e 17bc
00000300: 17ee 643d bd68 8fbd 015e bd3d c24e 063d
00000310: ec90 2b3d 59fa 8a3d 7b24 903c b0c8 09bb
00000320: 9868 9f3d 5608 7a3d 5445 6bbc 2141 623d
00000330: b949 ffba f109 55bd f6d8 06ba 9e54 4fbd
00000340: 9c6f 9a3d 73fe 98bd ebcd 30bc d291 65bd
00000350: 27c4 b13d 16e4 b9bd 7495 24bd 47ab 843c
00000360: 1ef3 e5bb 2d0b 94bc 61f0 83bd 7a32 463c
00000370: 520c 28bb ae92 4bbd 3feb d73c e2d7 04bd
00000380: 887b 983c 640d 963d ec62 3b3c e7bb 8b3d
00000390: 5d6e a43d a203 7fbd 8e79 49ba 8013 2ebd
000003a0: ca9a d4bc ab73 a73d d903 a03d f2dd 523d
000003b0: ba0c 7c3d 446f 733c 3336 a63d 12e7 a93c
000003c0: b337 933d 41c7 913d da4e 933c 458e bdbd
000003d0: 39d4 b73d 1e38 95bc aa45 20bd b60a 8f3d
000003e0: 4f5e b5bd 15f1 f23d c6cc e9bc 2a4c c0bd
000003f0: 58ba a83d add1 94bd 698a bd3d 0689 f6bd
-0.03479846 0.009073623 0.08247845 0.0612794 0.0017562086 0.013209677 0.13286845 -0.16168916
-0.037469182 -0.11041764 -0.08343606 -0.09637735 -0.023798678 -0.0060873413 0.023839535 -0.06682915
-0.099403664 -0.005933535 0.017896177 -0.0010477018 0.056515 -0.0034485182 0.064004734 -0.009889286
0.008979103 0.01638438 0.05661723 0.024692252 0.029865196 0.095561825 0.00494105 0.041156735
0.039244585 0.040360205 -0.067528434 -0.08248771 -0.07192031 0.0076341927 -0.039829165 0.10878767
0.072003774 -0.06942701 -0.0102479495 -0.02168759 -0.0036361066 0.092989095 -0.11487496 -0.042752318
-0.09839984 0.07774253 -0.010861645 0.04354462 -0.048657954 0.049326893 -0.065379456 -0.0253434
-0.039351627 -0.013260066 0.12371074 -0.12368648 0.09934686 0.04490434 -0.010394914 -0.07660104
0.080460556 -0.034057498 -0.04286443 -0.06456782 0.06109453 -0.07854034 -0.045524422 -0.10439058
0.09813942 0.13927963 0.06751526 -0.06983292 -0.047814634 0.044255562 0.028706145 0.11707543
0.03307522 -0.08061755 -0.10990244 -0.039309207 0.010402099 0.06162257 0.06422972 0.10510201
-0.025579346 -0.09786735 0.028267361 -0.017685499 0.08336324 0.010513414 0.021168577 -0.085049994
-0.01251506 0.101519465 0.10329429 -0.1045036 -0.0045482446 0.006335162 -0.030542905 -0.05816819
0.112570606 -0.060253322 0.14645688 0.08264005 0.113450915 -0.085533045 0.02781773 -0.05726388
-0.10681798 -0.0009383373 -0.041441154 -0.029919518 0.048649546 -0.039532088 0.11556049 -0.024313664
-0.018520415 0.025044229 -0.012029834 0.02245393 0.04564693 0.044492766 0.026758913 0.047716405
-0.13918228 0.061351992 -0.06452957 -0.033929404 -0.048492543 -0.0711407 0.0206019 0.08360151
0.015843244 -0.08364674 -0.08057365 -0.06829154 -0.09475301 0.0014010062 0.08456732 0.08118163
-0.0089944685 -0.046305887 -0.03613943 -0.11844551 -0.10434404 0.093010165 -0.05724197 0.083867684
-0.02982371 -0.122903876 -0.15345447 -0.05095679 0.034679275 0.008388578 -0.0458036 -0.017240757
0.006853221 -0.03895164 0.044000614 -0.054158468 -0.07056475 -0.09486691 0.049987715 0.055668317
0.04498456 0.013902212 -0.04441415 -0.04888156 -0.023171548 0.0011163831 -0.03562712 0.0094446745
0.099945195 -0.037245702 -0.057772838 -0.010258319 -0.15598421 -0.055671763 -0.062057514 0.019454742
0.062455043 -0.035371754 -0.027385458 0.013084715 0.038383063 -0.07647574 -0.09371325 -0.009231313
0.055891123 -0.07002399 0.092464454 0.032789953 0.041886255 0.06786031 0.01759552 -0.002102416
0.077836215 0.061043106 -0.014359791 0.055237893 -0.0019476927 -0.052011434 -0.0005144024 -0.050617807
0.07540819 -0.07470407 -0.010791282 -0.05604727 0.08679991 -0.09076707 -0.040181592 0.016194953
-0.007017507 -0.018071735 -0.06442333 0.0120969955 -0.002564211 -0.04970043 0.026357291 -0.032432444
0.018613592 0.07326773 0.011437159 0.06822949 0.080288626 -0.062259324 -0.00076856546 -0.042499065
-0.025952715 0.08176359 0.07813234 0.051481195 0.061535574 0.014858071 0.081158064 0.020740066
0.07188358 0.07118083 0.017981935 -0.092556514 0.08976025 -0.018215235 -0.039128937 0.06984465
-0.088558786 0.11862389 -0.028540026 -0.09389527 0.08238667 -0.07266555 0.09254915 -0.12037854

hidden_layers.6.bias f4 [128]
00000000: bc49 573c 2084 6abd 062f 82bd 3e83 82bc
00000010: fe60 603d 0f3c bcbd 703c dfbd 147f efbc
00000020: d7a6 9abc 4039 93bd 9e3d 1abd 766b b7bd
00000030: 721b 08bd 6939 563d 435d 3c3a 1d86 8cbb
00000040: 7452 b43d 85f4 c33d 0a1d c7bc 9cee 36bd
00000050: 3450 7e3c 5f46 ccbc 76e8 5abc bb4f 973d
00000060: 7fc3 ce3c 0059 a73d e1b9 b53d fe1b 823d
00000070: 6c01 54bd 832a d8ba d201 783d c4c5 b2bd
00000080: f911 a73c 0fa3 9ebd 02e2 bf3d 7fbe 713d
00000090: d33a 2a3d 404d 19bd 9409 c53d 36b1 67bd
000000a0: 0710 d83d 67d6 06bc 2a16 343d 9985 82bd
000000b0: 8d67 b73d c6d1 0bba 8f8c 95bd df80 7f3b
000000c0: 7f4c 293d 7c08 3abd 4720 c9bd 8c3c 953d
000000d0: 0f3c 52bd d6c5 8e3c c220 8fbb 0b6b a9bc
000000e0: c168 b6bd 1068 b1bb 8c98 2bbd 0f42 3d3d
000000f0: 6ff5 1bbc fc73 54bd 6f26 a9bd 6525 93bd
00000100: 3b99 41bc 3123 5d3d 1345 b5bd 33ee f23d
00000110: e49c 16bc 5cef 0ebd c2cb 483d 9a08 233d
00000120: 1c89 43bd 6721 243d f39b 9a3d 7c6f e2bc
00000130: be0b 91bc cfe1 12bd 43aa 203d 96fd 16bd
00000140: aa80 aabc fe40 543d 9f95 d33c dbda a43d
00000150: 6106 7ebd 52e8 09bd a5bb 2cbd 290d bc3d
00000160: 25cb 593d 3325 8f3c 9ca0 483d bc91 27bd
00000170: 1167 b3bb 6977 953d 5c83 1bbc 1525 26bd
00000180: 9fac c93c 956c 55bd 0d1e 3e3d d879 183d
00000190: 4869 b2bc d4f4 50bc 6b27 bcb9 9688 963d
000001a0: c522 08bd c849 b13c ee19 ebbc 8601 483b
000001b0: bbef 4dbd d00a 73bd 9307 3bbc de96 89bc
000001c0: ad88 67bd fbcb 6a3d 4972 debc b6ac 7f3d
000001d0: 314a 8f3d 050f c23d 2fdf 423c 5b7b bc3b
000001e0: ee13 c33c 258c 34bc b0dd 0b3d 0ec2 1fbd
000001f0: 94e0 f63c c172 433d 874d 19bc 02c0 88bd
0.013140138 -0.05725491 -0.06356625 -0.015931722 0.05478 -0.09191143 -0.109001994 -0.0292354
-0.018878384 -0.07188654 -0.03765642 -0.089560434 -0.0332293 0.052300844 0.0007185528 -0.0042884485
0.08804789 0.09568123 -0.02430584 -0.04466115 0.015522052 -0.0249359 -0.013361087 0.07388254
0.025239704 0.08171272 0.08873344 0.06352995 -0.05175917 -0.0016492162 0.06054861 -0.08729127
0.020394312 -0.07745945 0.093692794 0.05901956 0.041560005 -0.037427187 0.096209675 -0.056565486
0.10549932 -0.008229828 0.04396645 -0.06373138 0.089552976 -0.0005333688 -0.073022 0.0038986725
0.041332718 -0.045418248 -0.098206095 0.07286939 -0.051326808 0.01742832 -0.0043679187 -0.020680925
-0.08906699 -0.0054140165 -0.041893527 0.046205577 -0.009518965 -0.051868424 -0.08259284 -0.07184867
-0.011816318 0.05398864 -0.088510655 0.11861839 -0.009192679 -0.03489624 0.049022444 0.039803125
-0.04773818 0.040070917 0.07549276 -0.02764105 -0.017705794 -0.03585988 0.039224874 -0.036862932
-0.020813305 0.051819794 0.02582818 0.08049556 -0.062017802 -0.033668824 -0.04217114 0.091821976
0.05317225 0.017473793 0.048981294 -0.040910468 -0.005474933 0.07298166 -0.009491768 -0.040562708
0.024618445 -0.052105505 0.046415377 0.037225574 -0.021778718 -0.012753684 -0.00035887523 0.073502705
-0.033236284 0.021641627 -0.028698888 0.0030518486 -0.050277453 -0.059336483 -0.01141538 -0.016795572
-0.05652683 0.057323437 -0.027154105 0.06242057 0.06996573 0.09475521 0.011894031 0.00575201
0.023813214 -0.011019741 0.034146965 -0.039003424 0.030136384 0.04771686 -0.009356863 -0.066772476

hidden_layers.9.weight f4 [128, 128]
00000000: fed3 463d e690 6cbd 5544 40bd 7446 dbbc
00000010: 9b7a 3fba e3ee a83d 4308 043e fb12 193d
00000020: b94f c1bc b4f9 2fbd 6af8 a7bc 20f5 3dbd
00000030: 60df fa3c 6ff8 e6bd 070c ccbc 90c0 f8bc
00000040: 6814 f2ba 2ff6 e93d 39e1 2cbb 1c5b 1c3d
00000050: 8306 e63d 086f 743d 2211 63bc 2ae8 603d
00000060: f214 983d 456a 02be ab9f 063d 6874 1cbc
00000070: 6e3a 2cbd 409a 22bd 4153 353d 97b5 a63d
00000080: 488b 963d 97d9 c9bd 89d3 063c f382 e13d
00000090: 78c7 e43c 38d9 ff3d c16a 1cbd 397c 8e3d
000000a0: c9b7 933b 2b5e 25bb f2af cfbc 590d fb3c
000000b0: 9cbe a3bd ea7e 9b3d a55a efbd 8f4e 8abd
000000c0: 0982 dabd 2b7a a6bd 9bd0 1c3d 89f0 673d
000000d0: e810 7e3d 0d32 e23c 9f8c 80bc 53e5 b73c
000000e0: a447 123e 0d09 80bd 8ff1 db3c 44bb 8fbd
000000f0: dc83 073e 354c bb3c 2a07 3a3d 3fe4 72bd
00000100: f589 2fbe 4bfb a8bd ef6c 363d a8ad 17bd
00000110: dae9 c7bc 2f0c bfbd 6a01 2dbd 4b2b 43bd
00000120: 80fc bf3d 06a8 6d3d bbd8 25bd 73f2 b5bc
00000130: 5b9a 0dbe 6fe3 253d d8aa 3dbd a140 b9bc
00000140: 3823 0a3e 82de 2bbd 8270 573d cafd e2bc
00000150: f786 a8bc f3ea aebd eb24 b2bd 5fdf 00be
00000160: 10be b13c 5f4d 31bb 9de9 473d 9e17 223d
00000170: 1e42 453d 5824 c9bd e8fe 943d 8433 8d3d
00000180: fd84 773d 0ded bcba 9af4 9bbc f8ba 733c
00000190: 14d3 683d 1f56 35bd 5f45 f7bd 7fd3 113d
000001a0: 8df0 d53d 8bfd 47bd dd9a 48bd 6312 bb3d
000001b0: 0651 013d 71c7 063e 1b40 96bd 317b 9c3c
000001c0: 7124 e4bc 4791 953d 3380 043e ef13 8bbd
000001d0: 22fb fe3c c87d 363d f11e 52bc 06b1 76bd
000001e0: fdff a53c 8fa9 e7bd cec1 49bd 5b26 a2bc
000001f0: 95a1 5b3b 286a 6dbd 8282 f13d 7eb4 b13c
00000200: ee6c 3b3d a066 fcbc 683d 80bd 9f1d cabd
00000210: 6ab7 033e f5b9 083c c43e a0bd b89d 1cbe
00000220: 170b 7bbb 41dc e9bd fc7d 2a3d 547c aa3d
00000230: 830d 59ba 6c7c f83c c396 a7bc 71aa 26bd
00000240: b17e a7bb b8d7 fcbc 49a5 d4bb 17e9 263d
00000250: 2e14 bc3b 0464 3dbd f601 45bd bd14 e7bd
00000260: daa7 e03d 1e92 823d 524a 633d 1df9 03be
00000270: 57f1 9b3d e248 a3bd f576 0fbc 221d 003e
00000280: f1ea 74bb 77e1 a4bc c4fb a43d f30e 2c3c
00000290: bf22 933d be34 2d3d dd39 ea3d 384b 32bd
000002a0: 2af0 223e f622 67bc 812d a4bd 7e41 58bc
000002b0: c764 1fbc 9205 983d 428b aa3c 560a 94bd
000002c0: 8fb0 113e dae0 0bbd 5698 bdbc 9d72 f53c
000002d0: 17de 303d 3df7 533d 2e4e 803b ed5a afbc
000002e0: c586 28bd 5b5f 95bd 2ceb 113d f286 a0bd
000002f0: c145 82bd a071 293d 2afa 9a3d be61 b3bd
00000300: c071 cb3d 2f88 a4bd d2c2 cfbc f578 c7bd
00000310: dad6 edbd 471e cd3c e5c2 d0bd 7042 083d
00000320: 8ca7 f43d 9921 86bd 67b8 cfbd e5f3 2f3d
00000330: a3fc da3d df99 59bd c9b4 9e3d 4cd5 1fbd
00000340: 0776 83bd 0ca3 91bd 56b5 413b 449d 8e3c
00000350: e092 9cbc 59ba dc3d 6f20 e3bd f8a5 943d
00000360: 823d 55bd 3283 d7bd 7df6 23be f702 8e3c
00000370: 6c00 093d c24b 673d 4f25 03bb 93cc 753d
00000380: c7cf 9b3d e350 8b3c 5b8a ba3d c081 2fbc
00000390: 8a1c 853c bcb9 f1bc e5c9 8a3c 28da 353c
000003a0: f8ed 87bd b96a 46bc 4ac0 5f3d 9a34 9cbd
000003b0: 5de3 00bd 0edf a1bd 9898 213b d680 c43d
000003c0: a4c0 143b 0767 443d da83 b8bd 76ea b13d
000003d0: 17b6 77bc e0a2 82bd 035d 1cbe 6ebe f43b
000003e0: 4110 32bd 6581 9dbd 2c6f 15bd 9b1a cebd
000003f0: 8488 583d 638c 963c 3dd1 c03d 0311 023d
0.048542015 -0.057755373 -0.046940167 -0.026766993 -0.00073043414 0.08248689 0.12893777 0.037371617
-0.023597585 -0.042962745 -0.020504195 -0.046376348 0.030624092 -0.11277854 -0.024908079 -0.030365258
-0.0018469216 0.11423909 -0.002637936 0.038172826 0.11231711 0.0596762 -0.013859065 0.05490891
0.0742587 -0.12735851 0.032867115 -0.009549238 -0.04204791 -0.039697886 0.04426885 0.08140104
0.073507845 -0.09855955 0.008229145 0.11011305 0.027927145 0.12492603 -0.038187746 0.06957287
0.004507993 -0.002523313 -0.025352452 0.030646013 -0.0799534 0.07592566 -0.11687211 -0.06753265
-0.106693335 -0.081287704 0.03828488 0.056625877 0.06202784 0.027611757 -0.015692053 0.022448217
0.14285141 -0.06251726 0.026848583 -0.0701814 0.13233894 0.022863487 0.04541699 -0.059299704
-0.1714247 -0.08251055 0.04453748 -0.037030846 -0.024403501 -0.09328496 -0.042237677 -0.04764871
0.093743324 0.058021568 -0.040489893 -0.022210335 -0.13828413 0.0405001 -0.046305507 -0.022613825
0.13489997 -0.041960247 0.05259753 -0.027708907 -0.020572169 -0.08540907 -0.08698448 -0.1258521
0.021697074 -0.0027054173 0.048806775 0.039573304 0.048158757 -0.09821385 0.07275182 0.068945915
0.060429562 -0.0014413908 -0.019037534 0.01487612 0.056841925 -0.044271585 -0.12073778 0.03560209
0.10446272 -0.04882578 -0.048975814 0.09134366 0.03157141 0.13162018 -0.07336446 0.019101711
-0.027849408 0.073031 0.12939529 -0.067909114 0.031125609 0.044553548 -0.01282476 -0.060227416
0.020263666 -0.113116376 -0.049257092 -0.01979368 0.0033513058 -0.057962567 0.117924705 0.02169251
0.04575818 -0.030810654 -0.06261712 -0.09868931 0.12862936 0.008345117 -0.078244716 -0.1529454
-0.003830617 -0.11418963 0.041624054 0.08324495 -0.00082799065 0.030332766 -0.020457631 -0.04068989
-0.0051115383 -0.030864581 -0.00648943 0.040749636 0.0057397103 -0.04623796 -0.048097573 -0.112832524
0.10969515 0.06375526 0.0554908 -0.12887998 0.07614391 -0.07972886 -0.008756389 0.12511113
-0.0037371481 -0.020127041 0.08055833 0.010501611 0.07184362 0.042286627 0.11436818 -0.043528765
0.15911928 -0.014107456 -0.08016492 -0.013199208 -0.009728617 0.074229375 0.020818356 -0.07228534
0.14227508 -0.034149982 -0.023143928 0.029961878 0.04318055 0.051749457 0.0039155697 -0.021405661
-0.04114415 -0.07293578 0.035624668 -0.07838239 -0.06360961 0.041368127 0.07567246 -0.08758877
0.099338055 -0.080337875 -0.025361452 -0.097398676 -0.11613245 0.025038851 -0.10193423 0.033266485
0.119460195 -0.06549377 -0.10142594 0.042957205 0.10692718 -0.05312526 0.07749326 -0.039021775
-0.06418996 -0.07111177 0.0029557548 0.017408974 -0.019113004 0.107777305 -0.110901706 0.072582185
-0.05206061 -0.105230704 -0.16011997 0.017335398 0.033447668 0.056468733 -0.0020011251 0.06000955
0.0760799 0.017006343 0.091084205 -0.010712087 0.01624896 -0.02950751 0.016941974 0.011099376
-0.06637186 -0.012110406 0.05462674 -0.076272205 -0.03146683 -0.079038724 0.0024657603 0.09594886
0.002269783 0.047949817 -0.09009524 0.08687298 -0.015119097 -0.06378722 -0.15269856 0.00746899
-0.043472532 -0.07690696 -0.036482975 -0.10063668 0.052864566 0.018377488 0.09414909 0.031754505

hidden_layers.9.bias f4 [128]
00000000: 05b2 9bbd fe01 26bd e5cb 2f3b 58ec 483c
00000010: db32 ad3c 3241 cfbd de40 8d3d 92e4 e4bc
00000020: cb92 7ebd f2b2 dcbd 3997 913d 683f c13c
00000030: 4a1d 0a3d 2066 7fbd 10a1 703d fca9 6abd
00000040: 070a 99bc 6fdd 62bd 64dd 1f3d 1c1e 47bd
00000050: 8d25 1dbd 20d1 0f3d c1db 923c feb5 72bd
00000060: 1fba 173c 7bf6 5ebd 8c80 cfbc fc75 c5bd
00000070: 2da1 82bd 50e7 a33d 4876 2fbd 3a76 93bc
00000080: 6eea 52bd b1a9 8fbd c949 19bd e11f adbd
00000090: 2c87 c13c 546a fb3c 6f57 a53d fc58 9d3d
000000a0: 3ac0 2f3d c2b9 883d e680 c83c 088d a0bd
000000b0: c6ec 673d ecf9 0a3d bbe2 a7bd 3988 8a3d
000000c0: 830f 903d 81ce d43c d7d4 a93b e5c0 9bbc
000000d0: 618d 333d b980 c2bb 2b0e 583d c1f9 c1bd
000000e0: ea27 cabc 4029 97bb 621c 643d 46f9 60bd
000000f0: afca 3c3d b8a7 97bd a8a3 9c37 bb7f 26bd
00000100: 306d 9abd 6249 3ebd 661d 1fbd 64e4 b33b
00000110: 2ab0 1bbd 88e5 dd3c 6b2d ba3d 8a86 953c
00000120: 749a d33c 762a fe3c 56d2 47bd c55c 8fbd
00000130: 1c7f 08bd 92d7 af3d bef5 9d3c 752b 1ebd
00000140: ec5d d53d 4145 04bd fc8d 903d 485e 593d
00000150: 54bc 9f3d 9589 443d 2c90 793d fba8 a6bd
00000160: 2c5f 81bd 5a28 82bd da8a c83c cbf6 813d
00000170: 30d3 33bd 6695 7d3d 99aa fd3b 5021 2bbc
00000180: f57c c73d 17c4 fc3c 2cb5 68bd 49c5 573d
00000190: 67c8 cebc 3a81 883d 5e41 99bd 5f63 7a3c
000001a0: 6a77 a23d 7f37 853c 74fd 1b3c 2c08 89bc
000001b0: 6304 64bc 8955 acbb cd40 b8bd 2eef a43b
000001c0: 0080 96bd 26c9 b73d f9de fcbc a3d6 303d
000001d0: e188 91bd 7796 f3bd 2c17 9cbd b60e febb
000001e0: 4d19 9f3d a643 c13d 16eb cd3c fb5e 6e3d
000001f0: 4171 08bd e078 353d bdf6 963d b7bf 61bd
-0.07602314 -0.040529244 0.0026824411 0.01226338 0.021142414 -0.10119857 0.06897138 -0.027941022
-0.06215171 -0.107763186 0.071089216 0.023589805 0.03371934 -0.062353253 0.05874735 -0.057291016
-0.01868154 -0.055386957 0.039029494 -0.0486127 -0.03836589 0.035111547 0.017927052 -0.059255593
0.009260683 -0.05443428 -0.02532985 -0.09641644 -0.06378398 0.08003104 -0.04283741 -0.01800071
-0.0514931 -0.07014788 -0.037423883 -0.08453346 0.023624025 0.03069035 0.08073317 0.07682988
0.04290793 0.066760555 0.024475526 -0.078393996 0.05662229 0.03392975 -0.08197542 0.06764264
0.070342086 0.025977375 0.005182843 -0.019012878 0.043836 -0.005935755 0.052747887 -0.09471465
-0.024677236 -0.0046130717 0.05569113 -0.054925226 0.04609173 -0.07405037 1.8672858e-05 -0.040649157
-0.07540357 -0.046456702 -0.038846396 0.005489873 -0.0380098 0.027086988 0.09090694 0.01825263
0.025830485 0.031026106 -0.048784576 -0.07000116 -0.033324346 0.08586039 0.019282218 -0.038615663
0.10418305 -0.03229261 0.07058331 0.05306843 0.077995926 0.04798277 0.06092851 -0.08137699
-0.06316981 -0.06355353 0.024480272 0.063459 -0.043902576 0.061910056 0.007741284 -0.010444954
0.097406305 0.030855222 -0.056813404 0.05267838 -0.025242044 0.06665273 -0.07483171 0.015282481
0.07932933 0.016261814 0.009520877 -0.01672753 -0.0139170615 -0.00525922 -0.08996735 0.0050333953
-0.07348633 0.08973913 -0.03086804 0.043173444 -0.07106186 -0.11893933 -0.07621607 -0.0077532185
0.077684976 0.09436731 0.025136512 0.05819605 -0.033311132 0.04430473 0.0737128 -0.055114474

output_layer.weight f4 [10, 128]
00000000: cee0 0c3e e380 2bbe 57ab a4bb ef70 3bbe
00000010: cc46 f9bd 63b8 0b3d df55 65bd 74ed a0bd
00000020: bb2c 5c3d e7ea f73d ce74 0bbe b8f7 3a3d
00000030: ef51 4cbe b372 a13d 003d 25be a4df c23d
00000040: a1c1 033e e4c1 f5bd 9ddd 6a3d 4b55 14bd
00000050: 6d27 13be d565 33bd d95e aa3d 931c 133d
00000060: 7b93 54bd 8d77 45bc 0074 f23d 8c16 43bd
00000070: 18fd e3bd 8200 cdbc d5d0 aebd fb89 5fbd
00000080: 3e54 5b3d e9e4 4f3e 4895 0f3e 115b 1fbd
00000090: d52c f63c 9edc 04be 6c3e 0a3e 1bc1 cf3d
000000a0: 15c0 f63d 11c1 8d3c 17e8 4f3d 345b 443d
000000b0: 3a10 c03d 2238 003e c01e ffbc 2953 da3d
000000c0: 5d13 a23d 2142 c6bc 928c 53bc 5790 ebbd
000000d0: 0cc7 083e c47e 943d 6aeb 59bd 3a5e dc3d
000000e0: 0605 0dbe 32d8 b23d de2a fd3d d370 e7bd
000000f0: 9747 39be 43b6 1e3e 5023 803d f4d6 ab3d
00000100: 2f9e d2bd 97b4 28be 0588 ab3d dab4 213d
00000110: 0457 2e3e 8e04 2abd 2257 023e d180 d83d
00000120: ee68 3cbd 97eb 803d d3c4 cebd 6af9 6bbc
00000130: 7463 e7bd ffc9 32bd 2f16 f93d d6e3 c4bd
00000140: ac6a 163d 1d0c 2b3e b9d5 14be 1e06 433d
00000150: 7030 cd3c f101 01bd 324f ebbd 2e6e 8abd
00000160: 492a 7cbc bb67 083e 61da 1b3d 6bd1 183d
00000170: 2e88 a33d 735c 113e 0965 d7bd 022a 03be
00000180: 09f2 593c 99ee cdbd 195f 033d 6ece d3bd
00000190: 4a49 1dbc 818b 9f3d c127 f63d e00e 3abd
000001a0: b9f0 2abe 8dcb 863d 01fc 2c3d 240e 61bd
000001b0: 519c a63d b40b dbbd 9a4e 8d3d ad6b 8ebc
000001c0: 326b f7bd ab7a 33be 83af 1fbd 3258 ae3d
000001d0: 6141 58bd bbd1 cc3b 7382 bebd 3562 02be
000001e0: 421b 863a b73a fc3d aa3e d73d aa38 fdbd
000001f0: 08ba 923d 17af c23d 6a5f 193e 268e 10be
00000200: 0983 dfbc 2ef1 aabd 0e55 9cbc f7d1 ad3d
00000210: 53fa 7f3d d911 0dbd 9cc7 183d 8fea 1e3d
00000220: 288f 87bd 7a2b f73d 0748 233d d2fe f1bd
00000230: e92f 473d 87e7 a6bd 0efa ae3d 8313 c8bd
00000240: 7e9b 213d b993 213e d32b bc3c c238 09be
00000250: 1bf2 e1bc 205b 05be ac2c bcbd 69a4 fe3d
00000260: 8935 98bc 1918 3dbd 396b e9bb 7186 0bbe
00000270: 56d7 2bbe c0e5 2bbe 5ee5 f33d 604c 03be
00000280: 4c1c 9dbd f7c9 40bd afeb ddbd e974 11bb
00000290: d524 79bd e694 ba3d 52be 1bbd 8974 05be
000002a0: a248 35bb fe6f 7d3d 7db6 ce3d f612 df3d
000002b0: b106 bdbb 3d6a 4cbd 2a52 e2bd 43a8 98bd
000002c0: 45ba 013e 6cbb 1f3e 42e7 07be 1d35 053e
000002d0: ab80 1a3d dd25 70bd 2391 d53d 7925 e2bd
000002e0: e42b c1bb 7c12 753d 7507 2b3d 287f 3d3d
000002f0: 928e b33d 4740 713d b9f3 333d bf80 0abe
00000300: 6b8f 2ebd 36d4 fb3d 3ed8 b7bd e3ab 093e
00000310: 0028 a3bd d92f 033e 9d96 0dbd 9bdf d8bd
00000320: b584 d33d 3754 06be ab5b 833d ecbb ed3d
00000330: fc4e bd3d c27f aa3d 48c2 21bd 7201 753d
00000340: 82ac 1b3e 7122 bcbd e561 3fbd 241f 07be
00000350: c355 6fbd 0717 3c3e fe3d acbc 20d0 d23d
00000360: 7af3 353e 976e 853c 743b d1bd cad4 d4bd
00000370: cca2 e8bd 1cfe 04be 87ec 7ebd 5888 04be
00000380: c9da 023e a7cb 2f3d d788 363e b77c 723d
00000390: 607a d2bb 50b4 c8bd 0bfe 44bd bcf4 bb3d
000003a0: 1d3f d53d fe22 07be a341 843d 94ff c73d
000003b0: 703f 8bbd 2822 c13d a2ab eabd 6d3b 103e
000003c0: 6bb1 bdbd b152 e33d 2815 133e d5c9 b23d
000003d0: 654c b83d ee4f 003e 5df1 083e 9934 223d
000003e0: 88ec b33b 3a60 a43d 5b4e b4bd 40c7 253e
000003f0: c46e f4bd 5411 d3bd af7c 41bd 58cd 193e
0.13757631 -0.16748385 -0.005025308 -0.183048 -0.121717066 0.03411139 -0.055990096 -0.078577906
0.053753596 0.12105351 -0.13618776 0.0456464 -0.1995313 0.07883205 -0.16136551 0.09515312
0.12866832 -0.11999872 0.057340253 -0.036214154 -0.14370508 -0.043798286 0.08318872 0.035915922
-0.05189846 -0.012052429 0.118385315 -0.047628924 -0.11132258 -0.025024656 -0.08535925 -0.054574948
0.053547136 0.20302166 0.1402179 -0.038905207 0.030050674 -0.12974784 0.13500375 0.10144254
0.120483555 0.017303975 0.050758447 0.04793854 0.09378095 0.12521413 -0.031142592 0.10660393
0.079138495 -0.024201455 -0.012911933 -0.1150214 0.1335718 0.07250741 -0.053203024 0.1076016
-0.13771448 0.08732642 0.12361692 -0.113008164 -0.18093716 0.15499215 0.06256735 0.083906084
-0.102840774 -0.1647514 0.08375553 0.039479114 0.17025381 -0.04150825 0.12728551 0.10571445
-0.045998506 0.06294935 -0.10096135 -0.014402727 -0.11298266 -0.04364967 0.12162434 -0.09613769
0.036722824 0.1670384 -0.14534654 0.047613256 0.02504751 -0.031495992 -0.11489715 -0.06759296
-0.015390941 0.1332082 0.03805006 0.03730909 0.079849586 0.14195423 -0.10517318 -0.12808993
0.013302335 -0.100552745 0.032073114 -0.10342108 -0.009599993 0.0779028 0.12019301 -0.045424342
-0.16693391 0.06581793 0.042232517 -0.054945126 0.08135284 -0.106955916 0.06899758 -0.017385328
-0.12080993 -0.17527263 -0.03898574 0.08512916 -0.052796725 0.0062505878 -0.09302225 -0.12732776
0.0010231512 0.123158865 0.10509999 -0.123643234 0.07164389 0.09506052 0.14977804 -0.14116725
-0.027284162 -0.083467826 -0.019083526 0.08487313 0.062494587 -0.03444085 0.037299737 0.03879791
-0.06619102 0.12068839 0.039863613 -0.11816181 0.048629675 -0.08149629 0.08543788 -0.097693466
0.03945493 0.15779008 0.022970116 -0.13400558 -0.027581265 -0.13023043 -0.09188208 0.124337025
-0.018580215 -0.04616556 -0.0071233776 -0.13625504 -0.16781363 -0.16786861 0.11908983 -0.12822104
-0.07671413 -0.04706761 -0.10835969 -0.0022194928 -0.06082614 0.091104314 -0.0380233 -0.13032736
-0.00276617 0.061874382 0.100934006 0.108922884 -0.00576862 -0.049906004 -0.11050828 -0.074539684
0.12668712 0.1559884 -0.13271812 0.13008542 0.037720364 -0.05862986 0.10428073 -0.110423036
-0.0058951247 0.05983208 0.04175516 0.046263844 0.087674275 0.05889919 0.043933604 -0.13525675
-0.042617243 0.122963354 -0.08976792 0.13444476 -0.07966614 0.12811221 -0.034567464 -0.10589524
0.10328046 -0.13118063 0.06413969 0.11608109 0.09243581 0.08325149 -0.03949192 0.05981583
0.15202525 -0.09186257 -0.04672422 -0.13195473 -0.058431398 0.18368159 -0.021025654 0.10293603
0.1776866 0.016288085 -0.10216418 -0.10392149 -0.11359176 -0.1298756 -0.06223729 -0.12942636
0.12778772 0.042918827 0.17825638 0.05920097 -0.0064232796 -0.09800017 -0.048093837 0.09177539
0.104124285 -0.13196942 0.06457832 0.097655445 -0.06799209 0.09430343 -0.114585176 0.14085169
-0.092623554 0.110997565 0.14363539 0.08729903 0.08998946 0.12530491 0.13373323 0.039600942
0.005490843 0.08026166 -0.088040076 0.16189289 -0.11935189 -0.103060395 -0.04723805 0.15019739

output_layer.bias f4 [10]
00000000: a3d2 c63c 9b33 5a3d 6f56 403d 08bd 84bc
00000010: 7059 2fbd 2e6d 8b3d 4e6b 813a 4c53 ab3d
00000020: 8194 9e3a 0cc9 883d
0.024270361 0.05327187 0.04695743 -0.016203418 -0.042809904 0.06807934 0.0009873898 0.08365497
0.0012098701 0.06678972
