Results/RandomResult2/best_model_weights.pt (torch, 358440 bytes, 4 tensors)

hidden_layers.0.weight f4 [112, 784]
0.037278317 0.03805908 0.023027062 0.03366631 0.024961837 -0.018797476 -0.03017136 0.040148094
0.024488088 0.014358879 0.0032946046 0.03504263 0.011202767 0.02036741 -0.022936597 -0.022372816
0.014563144 0.031678833 0.005399363 0.03511618 -0.024725609 0.038937442 0.014671936 0.02257634
0.0045775804 -0.02887253 -0.022889312 -0.008877358 0.021833796 -0.026253276 0.032200374 -0.0033169927
0.020981733 -0.021855392 -0.0117476415 0.03921756 -0.011328678 0.0066269045 0.018893234 0.0014591066
-0.028063297 -0.026515298 0.03004502 0.012273042 0.040995754 0.037343875 0.037877183 -0.021542912
-0.027994784 0.034948543 0.027428033 -0.0097668255 -0.024917074 0.033800468 -0.016403075 -0.024988916
0.025810901 -0.0028252471 0.027093172 0.039515555 0.014247955 0.005108604 -0.0069010896 -0.027451398
-0.025852118 0.03623549 -0.021083457 0.028006408 0.033029187 0.001057243 0.01052301 -0.004617829
0.023180416 -0.014121912 -0.008763327 0.007778507 0.004551555 0.029066673 0.01679055 0.018156799
-0.01776475 -0.0055095283 -0.023913667 0.01857404 0.016649988 -0.005362533 0.01580643 -0.018133443
-0.009675064 0.023017718 -0.029790975 0.024566084 -0.00268269 -0.0127993645 0.018480362 -0.038181093
0.01990671 -0.018980091 -0.03378143 -0.006224141 -0.051920585 0.03744687 0.006244687 0.062488724
0.016728587 0.016307402 -0.0041132104 -0.008090248 0.02423107 -0.024554212 0.030284405 -0.023243997
-0.019387826 -0.025384478 -0.011545816 -0.00726677 0.010234672 0.01355288 -0.013343671 0.00078756636
0.01655485 0.008984946 -0.033117373 -0.0325499 -0.003143509 -0.05736488 -0.10667654 -0.10036331
-0.04363328 -0.025435768 0.06814676 0.04819664 0.06402629 0.0130683435 0.001035421 0.018673142
0.037175238 0.036606606 0.026386615 -0.001706257 -0.0070851264 0.016655428 0.03577705 0.010043688
0.019089734 0.027302593 0.03667114 -0.041630782 -0.004307358 -0.041261572 -0.035346955 -0.07449269
-0.06450761 -0.04779239 -0.1274931 -0.075668015 -0.07075648 -0.028703326 0.04228313 0.064301156
0.042505376 0.023245899 0.012993981 0.029404009 -0.0043468587 0.0067190956 -0.021825584 0.006293101
-0.030757701 0.012111064 -0.013697996 0.024386356 -0.014573141 0.02896412 0.043718223 0.009871239
-0.03371691 -0.034435686 -0.030040633 -0.06518926 -0.036190446 -0.10864075 -0.07268175 -0.11369486
-0.0871877 -0.049898904 0.00555336 0.021311447 0.040756408 0.0136630805 0.011580912 0.011456403
0.06258169 -0.026654804 0.022176646 0.031254314 0.028906511 0.034685794 0.01259598 0.007171969
-0.036030937 -0.0036539629 -0.0011529642 0.0007030053 -0.03918523 -0.013368259 -0.012166074 -0.0749529
-0.040182196 -0.05415287 -0.02228067 -0.015023348 -0.009789664 0.009159221 -0.019145532 0.033548158
-0.0012761801 0.03836522 0.047571655 0.036583487 0.04301623 0.03904205 0.030562896 0.030738138
-0.009391249 0.022622265 0.010153016 -0.025721373 -0.0019198061 0.026750637 -0.008726461 0.043519694
-0.03275323 -0.0033336794 -0.05152639 -0.033718817 0.026814846 0.010444773 0.0024844965 0.06431526
0.031979308 0.03847953 0.01891835 0.030339472 -0.008164088 0.056736164 0.084130265 0.027843919
0.037208315 0.026673745 -0.0016592047 -0.012597008 -0.019542484 -0.011676769 0.007063943 -0.0025654687
00000000: 26b1 183d d6e3 1b3d 40a3 bc3c afe5 093d
00000010: c47c cc3c 2afd 99bc ee29 f7bc 5472 243d
00000020: 3e9b c83c 8141 6b3c 4bea 573b dc88 0f3d
00000030: cf8b 373c 8ed9 a63c 88e5 bbbc 3247 b7bc
00000040: 419a 6e3c aac1 013d 24ed b03b fcd5 0f3d
00000050: 5c8d cabc de7c 1f3d 8f62 703c 04f2 b83c
00000060: 87ff 953b 1686 ecbc 5e82 bbbc 5772 11bc
00000070: cadc b23c 1c11 d7bc 8ae4 033d e761 59bb
00000080: e2e1 ab3c 140a b3bc 2e79 40bc 98a2 203d
00000090: eb9b 39bc 8126 d93b fcc5 9a3c 7e3f bf3a
000000a0: 00e5 e5bc 9c36 d9bc f920 f63c df14 493c
000000b0: 2aeb 273d e4f5 183d 1b25 1b3d c37a b0bc
000000c0: 5155 e5bc 3426 0f3d c1b0 e03c 0905 20bc
000000d0: e41e ccbc 5c72 0a3d be5f 86bc 8eb5 ccbc
000000e0: 6271 d33c c827 39bb 80f2 dd3c 10db 213d
000000f0: 4170 693c 1466 a73b 8922 e2bb c1e1 e0bc
00000100: d2c7 d3bc aa6b 143d 37b7 acbc b26d e53c
00000110: 9d49 073d 3093 8a3a b468 2c3c 2851 97bb
00000120: dbe4 bd3c 985f 67bc 0f94 0fbc d9e2 fe3b
00000130: 3625 953b 3b1d ee3c 568c 893c 91bd 943c
00000140: 6287 91bc 4689 b4bb 98e6 c3bc 9628 983c
00000150: 8e65 883c 30b8 afbb 7c7c 813c 968c 94bc
00000160: 2984 1ebc a78f bc3c 340c f4bc d03e c93c
00000170: 12d0 2fbb 6db4 51bc 2164 973c c763 1cbd
00000180: 6613 a33c 237c 9bbc 665e 0abd e1f3 cbbb
00000190: aeaa 54bd e461 193d 3ba0 cc3b 2df4 7f3d
000001a0: 640a 893c 1a97 853c 1cc8 86bb f68c 04bc
000001b0: 3d80 c63c ea25 c9bc 0017 f83c 326a bebc
000001c0: 38d3 9ebc 1cf3 cfbc aa2a 3dbc 161e eebb
000001d0: 53af 273c e60c 5e3c 6a9f 5abc af74 4e3a
000001e0: 099e 873c 9835 133c 15a6 07bd 0b53 05bd
000001f0: 5403 4ebb 70f7 6abd 3b79 dabd 478b cdbd
00000200: cfb8 32bd ac5e d0bc 8790 8b3d d769 453d
00000210: 3720 833d 9b1c 563c f7b6 873a 6bf8 983c
00000220: 1045 183d cff0 153d be28 d83c 7ca4 dfba
00000230: 592a e8bb f770 883c f58a 123d 488e 243c
00000240: 1362 9c3c b0a9 df3c 7a34 163d 0a85 2abd
00000250: bd24 8dbb e501 29bd f8c7 10bd a08f 98bd
00000260: 911c 84bd f4c1 43bd 8d8d 02be d5f7 9abd
00000270: c6e8 90bd 3d23 ebbc 1331 2d3d 53b0 833d
00000280: 1e1a 2e3d 2f6e be3c b5e4 543c ade0 f03c
00000290: 1870 8ebb dc2b dc3b 91cb b2bc 5b36 ce3b
000002a0: 93f7 fbbc 7c6d 463c 8f6d 60bc e5c5 c73c
000002b0: 2fc4 6ebc 2a46 ed3c e111 333d faba 213c
000002c0: be1a 0abd 6f0c 0dbd c617 f6bc f281 85bd
000002d0: 6f3c 14bd 0b7f debd 2bda 94bd dad8 e8bd
000002e0: 778f b2bd cb62 4cbd f6f8 b53b 5895 ae3c
000002f0: 31f0 263d 1ddb 5f3c debd 3d3c a3b3 3b3c
00000300: d42a 803d 2d5b dabc ccab b53c 8604 003d
00000310: 59cd ec3c b112 0e3d 5f5f 4e3c d602 eb3b
00000320: 2d95 13bd 5377 6fbb 0f1f 97ba e349 383a
00000330: b180 20bd 8b06 5bbc 3654 47bc e880 99bd
00000340: 1696 24bd 66cf 5dbd f485 b6bc 7d24 76bc
00000350: d464 20bc 8f10 163c 17d7 9cbc cb69 093d
00000360: 8045 a7ba d924 1d3d 7fda 423d 91d8 153d
00000370: c931 303d 8eea 1f3d 0a5f fa3c 8cce fb3c
00000380: c1dd 19bc 5452 b93c d658 263c a1b5 d2bc
00000390: 01a2 fbba 2724 db3c 6ef9 0ebc b541 323d
000003a0: 4028 06bd dc79 5abb 560d 53bd be1c 0abd
000003b0: cfaa db3c 8e20 2b3c efd2 223b b8b7 833d
000003c0: bcfc 023d b69c 1d3d a8fa 9a3c 7c8a f83c
000003d0: abc2 05bc 2e64 683d 7d4c ac3d ee18 e43c
000003e0: bf67 183d e682 da3c ac79 d9ba ae63 4ebc
000003f0: 8f17 a0bc eb4f 3fbc a678 e73b 6c21 28bb

hidden_layers.0.bias f4 [112]
0.0024440086 -0.005982795 0.026208283 0.037253037 0.014356333 0.035333462 0.0047920714 -0.016394079
0.03309626 -0.0136229135 -0.0074039465 -0.032565676 -0.024370007 0.016842015 0.0106291855 -0.030080624
0.019042794 0.031639483 0.015667384 0.007495023 -0.010172474 -0.032755613 -0.02187756 -0.0047604255
-0.0067366217 -0.012551239 0.03321501 -0.029673131 -0.004994417 -0.010601149 0.0138235325 -0.019591954
-0.035325084 -0.028472245 0.016952386 0.0021318488 0.011312539 -0.025568265 -0.0011868579 0.011172581
0.008170445 -0.032986876 0.017189508 0.0272199 0.027037073 0.02126356 0.016833887 0.0271278
0.04145065 0.032857172 -0.018744178 -0.024382837 0.005299107 0.014912484 0.024409836 -0.032589264
0.025002472 0.022528993 -0.004381722 0.017613286 0.021807296 0.007466274 0.009745212 0.0245591
0.014054875 0.013800121 -0.016933694 -0.012728086 -0.0035818315 0.003849846 0.0075950855 0.014439667
-0.0018272441 0.027845098 0.021788942 -0.032688938 0.02090963 -0.0064923405 0.031074664 0.03225987
0.027013069 0.031381693 0.017127106 0.006930573 0.007950825 -0.024955587 0.0135846585 -0.03541803
0.012295906 0.025097912 0.012911737 -0.035525315 -0.028029578 -0.034580465 -0.021021985 -0.019065816
0.032556932 0.012839863 -0.0041316794 -0.036527876 0.010164514 0.019929174 -0.038994383 -0.0003315999
0.027638327 0.015164845 0.019643027 0.013080493 0.028706534 0.015602808 0.00061997055 0.0318286
00000000: a92b 203b 520b c4bb c1b2 d63c a496 183d
00000010: d336 6b3c d2b9 103d cf06 9d3b e04c 86bc
00000020: f28f 073d a432 5fbc ce9c f2bb 9663 05bd
00000030: 9ca3 c7bc 44f8 893c 0926 2e3c a46b f6bc
00000040: a2ff 9b3c 6798 013d e358 803c cf98 f53b
00000050: 73aa 26bc c02a 06bd 9238 b3bc 58fd 9bbb
00000060: e1be dcbb b6a3 4dbc 760c 083d 1115 f3bc
00000070: 35a8 a3bb 71b0 2dbc 197c 623c 4e7f a0bc
00000080: 09b1 10bd a03e e9bc bbdf 8a3c 7db6 0b3b
00000090: 3a58 393c 8a74 d1bc 5890 9bba 340d 373c
000000a0: 55dd 053c 3f1d 07bd 03d1 8c3c 45fc de3c
000000b0: da7c dd3c eb30 ae3c 38e7 893c 1f3b de3c
000000c0: 28c8 293d 3e95 063d 648d 99bc 84be c7bc
000000d0: 22a4 ad3b 7e53 743c 23f7 c73c 527c 05bd
000000e0: fcd1 cc3c b98e b83c 8c94 8fbb bd49 903c
000000f0: 37a5 b23c a5a7 f43b 62aa 1f3c 2a30 c93c
00000100: 6b46 663c e719 623c 88b8 8abc 7689 50bc
00000110: 29bd 6abb b34d 7c3b 32e0 f83b 5a94 6c3c
00000120: 2380 efba 671b e43c b97e b23c d6e4 05bd
00000130: ac4a ab3c b3bd d4bb 4b90 fe3c ed22 043d
00000140: 834a dd3c 178a 003d 254e 8c3c dc19 e33b
00000150: 2d44 023c a96f ccbc 3092 5e3c 7f12 11bd
00000160: c574 493c 239a cd3c c08b 533c fe82 11bd
00000170: 499e e5bc 3fa4 0dbd 4c36 acbc ea2f 9cbc
00000180: 6b5a 053d 4a5e 523c 0a63 87bb 419e 15bd
00000190: 1089 263c 8242 a33c 93b8 1fbd 96da adb9
000001a0: c669 e23c f875 783c 6aea a03c 904f 563c
000001b0: f729 eb3c eca2 7f3c 8585 223a b55e 023d

output_layer.weight f4 [10, 112]
0.06568342 -0.15983473 0.07413734 -0.013102057 -0.07476592 0.059105203 0.024646034 0.15733944
-0.14079218 -0.033275954 0.010219018 -0.071071476 -0.16893917 0.16896006 -0.1927283 0.18876344
-0.014799109 0.11010618 0.18939105 0.0645019 0.1467723 -0.028987678 0.088631965 -0.10978014
-0.106754795 -0.00429777 0.10168908 0.14869867 0.12486801 -0.045473315 -0.023524394 -0.088407
-0.13745293 0.1136076 0.15882158 -0.1385154 0.029916268 0.124064155 -0.1190426 -0.0014119239
-0.20295471 -0.19987357 -0.023250619 0.12423691 0.001194421 -0.13948056 0.19336587 0.15245385
-0.075789474 -0.2214382 -0.12107658 -0.11594291 -0.13091317 0.15465103 0.14659885 -0.019874556
-0.0665022 0.109515816 -0.1771464 -0.077044554 0.13727662 -0.14303991 -0.15836403 0.22869778
-0.11924858 -0.0823332 0.052788578 0.007906688 -0.18232179 -0.17403421 0.0693051 -0.029609848
-0.077060685 -0.14196469 -0.118343584 -0.11965897 -0.0872342 -0.088379875 -0.1702044 0.02911067
-0.047700346 -0.0011393904 -0.04943919 0.13684906 -0.1630994 -0.040775124 -0.07876405 -0.034257915
-0.05221476 0.15440592 -0.11329878 -0.09516423 0.07796855 -0.098082855 -0.198317 0.058129303
0.091993764 -0.137247 0.13923007 -0.038789686 -0.17378063 -0.20023274 -0.085288286 -0.08967848
0.14401485 -0.10215736 -0.032902867 -0.03531673 0.18046759 -0.14552587 0.2010554 0.20394595
-0.040521923 -0.026384652 -0.16896154 0.093569584 0.08529346 -0.08067547 -0.0647614 -0.11672838
-0.09855523 0.18034816 0.032840222 0.1555912 0.2069031 0.16622315 0.04731625 -0.09583039
0.08715876 -0.14561635 0.12275741 0.07392214 0.12177382 -0.09840544 -0.16824485 0.097329766
0.16765152 -0.16900252 -0.14448738 0.06650648 0.022691458 0.1109488 0.16126938 0.005389849
-0.16624215 0.029118598 -0.079007916 -0.015877588 -0.20510375 -0.012502794 0.025230343 -0.08956149
-0.025661804 -0.012406095 0.13889082 -0.16300158 0.06168259 -0.12437105 0.13021106 -0.05446881
-0.105729654 0.038185798 0.17697303 -0.16868557 0.05754305 0.09406121 -0.050542735 0.04217213
-0.13859332 0.067906775 0.11124312 0.055999983 -0.08485438 0.14601119 0.13005564 -0.07885669
0.07773487 0.0727649 -0.032753896 0.070346154 0.033399634 0.18978858 -0.14967652 -0.07010339
-0.14804535 0.060246106 -0.02750508 0.14774375 0.14933082 0.1099314 -0.18428947 -0.20938058
0.13232478 0.09906639 -0.10858135 0.11767918 -0.12868555 -0.11170111 0.14672813 0.02816035
-0.11542479 -0.18194436 -0.11417933 0.11916191 0.16445583 -0.0691382 0.02867849 0.04384016
-0.18445902 -0.1096371 -0.13068259 -0.14613664 0.06890251 0.028639171 0.09249348 0.18248515
0.029505659 -0.118664734 0.039791636 0.08631916 0.13508543 -0.0814349 -0.10643139 -0.14760582
-0.07790308 -0.16622129 0.058135413 0.1576605 -0.15097867 -0.18135023 0.16822429 -0.09866045
0.09067292 -0.0881482 0.05634583 0.08826772 -0.032401543 -0.13494945 0.048504982 -0.098449685
-0.20393878 -0.116939105 0.168071 0.05774138 0.15689102 -0.09745717 0.21879755 -0.18692005
-0.13306434 0.14868106 -0.07934093 0.17646348 -0.18812427 0.13716143 0.17573836 -0.06263746
00000000: 0785 863d b7ab 23be 51d5 973d 03aa 56bc
00000010: e01e 99bd 4c18 723d 7be6 c93c 971d 213e
00000020: d32b 10be 5e4c 08bd ab6d 273c ec8d 91bd
00000030: 64fe 2cbe de03 2d3e 915a 45be 344b 413e
00000040: f677 72bc 597f e13d baef 413e 9219 843d
00000050: 7a4b 163e 9177 edbc ad84 b53d 69d4 e0bd
00000060: 42a2 dabd 4fd4 8cbb 5d42 d03d 7744 183e
00000070: cdba ff3d 3a42 3abd 3bb6 c0bc bb0e b5bd
00000080: 76c0 0cbe 1aab e83d 20a2 223e fbd6 0dbe
00000090: f612 f53c 5915 fe3d 9bcc f3bd 4e10 b9ba
000000a0: 5cd3 4fbe a8ab 4cbe 1578 bebc ec6f fe3d
000000b0: 1e8e 9c3a fed3 0ebe b401 463e dd1c 1c3e
000000c0: 8337 9bbd b2c0 62be fff6 f7bd 7a73 edbd
000000d0: 1a0e 06be d75c 1e3e 021e 163e f7cf a2bc
000000e0: 4e32 88bd d449 e03d de65 35be 89c9 9dbd
000000f0: 3e92 0c3e 0e79 12be 2e2a 22be c02f 6a3e
00000100: 9938 f4bd 4f9e a8bd d638 583d 0e8b 013c
00000110: 90b2 3abe 0636 32be d5ef 8d3d 5a90 f2bc
00000120: fed1 9dbd 315f 11be 1f5e f2bd c30f f5bd
00000130: d8a7 b2bd 8200 b5bd 104a 2ebe 8079 ee3c
00000140: 7061 43bd 9957 95ba c080 4abd 2922 0c3e
00000150: 8703 27be d103 27bd 0c4f a1bd 0752 0cbd
00000160: 25df 55bd 961c 1e3e 3109 e8bd 77e5 c2bd
00000170: faad 9f3d aadf c8bd 9d13 4bbe fe18 6e3d
00000180: 3a67 bc3d 7a8a 0cbe 5492 0e3e efe1 1ebd
00000190: 8df3 31be d009 4dbe a0ab aebd 5aa9 b7bd
000001a0: a178 133e e137 d1bd 28c5 06bd 47a8 10bd
000001b0: 7fcc 383e bc04 15be 77e1 4d3e 35d7 503e
000001c0: 51fa 25bd a024 d8bc 4104 2dbe 69a1 bf3d
000001d0: 56ae ae3d 2e39 a5bd a0a1 84bd 4a0f efbd
000001e0: 53d7 c9bd 30ad 383e 7883 063d 4d53 1f3e
000001f0: 68de 533e 6736 2a3e afce 413d b942 c4bd
00000200: 4b80 b23d 741c 15be 3d68 fb3d 7e64 973d
00000210: 8d64 f93d cb88 c9bd 6148 2cbe d454 c73d
00000220: d7ac 2b3e ff0e 2dbe 80f4 13be 8d34 883d
00000230: 70e3 b93c 2039 e33d cd23 253e 559d b03b
00000240: 623b 2abe 208a ee3c e7ce a1bd b711 82bc
00000250: b806 52be 85d8 4cbc ddaf ce3c 046c b7bd
00000260: b438 d2bc ef42 4bbc 6539 0e3e e3e9 26be
00000270: e2a6 7c3d 40b6 febd 0c56 053e b01a 5fbd
00000280: ca88 d8bd b668 1c3d 6b38 353e e9bb 2cbe
00000290: 43b2 6b3d 2aa3 c03d e605 4fbd afbc 2c3d
000002a0: 68eb 0dbe b512 8b3d 6fd3 e33d 3d60 653d
000002b0: 22c8 adbd f583 153e 4e2d 053e 9e7f a1bd
000002c0: 7633 9f3d c405 953d f328 06bd a511 903d
000002d0: 0ece 083d f057 423e cd44 19be 5e92 8fbd
000002e0: 3399 17be 9fc4 763d 5552 e1bc 234a 173e
000002f0: 2eea 183e b723 e13d 61b6 3cbe dd67 56be
00000300: 2680 073e 52e3 ca3d e65f debd c801 f13d
00000310: 25c6 03be 8dc3 e4bd e63f 163e 89b0 e63c
00000320: d563 ecbd 9f4f 3abe dad6 e9bd 290b f43d
00000330: 1c67 283e 5498 8dbd 27ef ea3c bd91 333d
00000340: d3e2 3cbe 6a89 e0bd a8d1 05be d8a4 15be
00000350: c21c 8d3d b29c ea3c 396d bd3d 63dd 3a3e
00000360: dab5 f13c 7f06 f3bd 8efc 223d 1ac8 b03d
00000370: d653 0a3e 57c7 a6bd b3f8 d9bd fb25 17be
00000380: a68b 9fbd ea35 2abe 661f 6e3d c171 213e
00000390: 279a 1abe e0b3 39be fd42 2c3e 7d0e cabd
000003a0: b9b2 b93d 0b87 b4bd e3ca 663d b5c5 b43d
000003b0: 7bb7 04bd 3030 0abe 29ad 463d fd9f c9bd
000003c0: 54d5 50be c57d efbd ce1a 2c3e 3a82 6c3d
000003d0: 0aa8 203e a097 c7bd 770c 603e f867 3fbe
000003e0: 0542 08be d93f 183e 7f7d a2bd d8b2 343e
000003f0: a6a3 40be 0c74 0c3e c2f4 333e 1248 80bd

output_layer.bias f4 [10]
-0.064671576 0.014002556 0.061456714 -0.06148246 -0.040430333 0.028052159 -0.10077692 -0.07914279
0.023091983 -0.022870248
00000000: 8872 84bd fa6a 653c 09ba 7b3d 08d5 7bbd
00000010: 479a 25bd a4cd e53c 2164 cebd 9d15 a2bd
00000020: 662b bd3c 635a bbbc
