Results/SFResult2/best_model_weights.pt (torch, 377270 bytes, 6 tensors)

hidden_layers.0.weight f4 [104, 784]
0.025822297 0.026185434 -0.022549354 0.039017573 0.011916783 0.014179187 0.008735919 0.032801434
0.02355107 0.017514672 0.02761224 -0.009152262 0.017911553 -0.02883321 0.024405226 0.020923875
0.027422443 -0.022527672 -0.020944543 -0.020593487 -0.020017192 -0.0070748483 -0.02271654 0.027036816
0.019703958 0.033498753 0.039694183 0.021692619 0.013302112 0.03301196 -0.027843717 -0.004824856
-0.025936022 -0.0065993886 0.018530708 0.009356722 -0.0076506534 -0.005110336 -0.0090310015 0.025202604
-0.0023039703 -0.014972579 0.03301867 -0.000920259 -0.01210224 0.008542286 0.03633545 -0.011861682
0.038824484 -0.006088151 0.01251362 0.022075262 0.0022358873 0.040635116 -0.0037134902 -0.011240153
-0.010864371 -0.012039723 0.0024976667 -0.01482225 0.02034279 0.039951593 0.013380801 -0.0037469468
-0.009649759 0.0029434154 0.0010601402 0.03161508 -0.023726277 0.017394513 -0.0018556576 0.023247752
-0.0065157805 -0.007462245 0.016223976 -0.021323806 -0.01386929 -0.020963356 0.010866722 0.033107426
0.011637389 0.0069454494 0.020903397 0.029486978 -0.014200602 0.0023484298 0.0072585167 0.010626737
0.019544385 -0.0062826704 0.017046023 0.0010829254 0.01450855 -0.011412848 -0.032304168 -5.7024055e-05
-0.040791333 -0.012172346 -0.034309294 -0.049197502 -0.0071278117 -0.022988573 0.004434096 0.026658827
-0.03916216 -0.00720113 0.011333799 -0.028675424 0.011376203 0.010480965 -0.013915226 0.021380227
0.03207271 -0.012894163 -0.029278627 -0.019662857 0.021167975 0.0037467347 -0.009756951 0.04155045
0.06603558 0.054365326 0.02845616 -0.00405074 -0.056801207 -0.08564859 -0.083199956 -0.06022519
-0.021176083 -0.02856512 -0.03832405 0.024000691 -0.040954627 -0.034132317 -0.020494018 0.009851797
-0.010394534 0.015245312 0.010820681 0.040137343 0.012575593 -0.01915133 -0.018061865 -0.027113918
-0.026907207 0.0020355566 -0.051012676 -0.0050258255 0.032966822 -0.025850018 -0.03868534 -0.065113515
-0.07159846 -0.09911082 -0.062033825 -0.03886932 -0.08471195 -0.062899314 -0.07901697 -0.05311574
-0.04582333 0.00096644653 -0.0037060804 -0.03979059 -0.014716772 -0.00091899803 0.01583976 0.039466444
0.018400397 0.006953293 -0.029007614 -0.021528717 -0.008268394 -0.009086818 0.032397147 0.023897555
0.038266692 -0.019163057 -0.037959103 -0.052819967 -0.0056460416 0.020329995 -0.06504106 -0.11857978
0.005132801 0.025203869 -0.04549939 -0.093456894 -0.03434619 0.008380512 0.0027924934 0.01297868
-0.045241922 -0.035193086 -0.002932795 -0.0068043713 -0.013017209 0.032471515 -0.012036889 0.0031031342
-0.0038725296 0.006584287 0.04280564 0.009718104 0.06175072 -0.031877033 -0.0007539825 0.02229202
0.018562825 -0.0400512 -0.039361235 -0.0130460635 0.026606256 0.025965156 -0.028018758 -0.02550495
-0.019771049 0.026685908 -0.016229765 -0.065388605 -0.022879567 -0.0330883 -0.010955482 0.02064536
0.0042542694 -0.018824099 -0.0077829566 0.00589693 0.048797484 -0.024723453 0.051666927 0.019783396
0.040649068 0.04133448 0.059247304 -0.022618728 -0.05058518 -0.034031894 -0.026396727 -0.064702675
-0.01812803 0.04303352 0.018577235 0.008979461 -0.0054345946 0.0011780706 -0.01370488 0.0104312645
-0.05759566 -0.0291001 0.012607312 0.0359 -0.024252906 0.021902481 -0.010841773 0.04777963
00000000: 4889 d33c d682 d63c 6cb9 b8bc e4d0 1f3d
00000010: 9c3e 433c d24f 683c 1a21 0f3c cc5a 063d
00000020: 2cee c03c ee7a 8f3c 1033 e23c 5ef3 15bc
00000030: 40bb 923c a033 ecbc 78ed c73c 8c68 ab3c
00000040: 08a5 e03c f48b b8bc e493 abbc acb3 a8bc
00000050: 18fb a3bc 21d4 e7bb 0a18 babc 507c dd3c
00000060: 326a a13c fd35 093d 5e96 223d b8b4 b13c
00000070: 1af1 593c 8d37 073d 8218 e4bc d319 9ebb
00000080: c877 d4bc af3f d8bb b6cd 973c f04c 193c
00000090: 55b2 fabb 9b74 a7bb c4f6 13bc b175 ce3c
000000a0: 35fe 16bb 8c4f 75bc 963e 073d 893d 71ba
000000b0: 7948 46bc f2f4 0b3c 7bd4 143d 8057 42bc
000000c0: 6c06 1f3d 1d7f c7bb ed05 4d3c 2ed7 b43c
000000d0: f787 123b 0271 263d 075e 73bb 9e28 38bc
000000e0: 7a00 32bc 4242 45bc e5af 233b 06d9 72bc
000000f0: eca5 a63c 48a4 233d 263b 5b3c 568f 75bb
00000100: 061a 1ebc 51e6 403b 67f4 8a3a d07e 013d
00000110: 9c5d c2bc f07e 8e3c 8939 f3ba 1272 be3c
00000120: 5482 d5bb d985 f4bb 25e8 843c 43af aebc
00000130: 053c 63bc 58bb abbc 560a 323c a79b 073d
00000140: bfaa 3e3c a796 e33b 9a3d ab3c ad8e f13c
00000150: a4a9 68bc 1de8 193b dad8 ed3b c41b 2e3c
00000160: 8c1b a03c dcde cdbb 1aa4 8b3c f2f0 8d3a
00000170: 45b5 6d3c f4fc 3abc 6051 04bd 1d2d 6fb8
00000180: d014 27bd 856e 47bc e787 0cbd 5283 49bd
00000190: 6b90 e9bb 8852 bcbc e54b 913b 9d63 da3c
000001a0: 8068 20bd 75f7 ebbb 66b1 393c b9e8 eabc
000001b0: 4163 3a3c 5ab8 2b3c b0fc 63bc 9625 af3c
000001c0: ad5e 033d 0a42 53bc bbd9 efbc 0014 a1bc
000001d0: 7668 ad3c c78b 753b 9edb 1fbc ce30 2a3d
000001e0: aa3d 873d 2dae 5e3d e51c e93c 12bc 84bb
000001f0: 62a8 68bd 8768 afbd bd64 aabd b0ae 76bd
00000200: 7779 adbc 6601 eabc aef9 1cbd 199d c43c
00000210: 0ac0 27bd 54ce 0bbd 12e3 a7bc 6e69 213c
00000220: d64d 2abc 79c7 793c 3a49 313c 0e67 243d
00000230: dc09 4e3c 40e3 9cbc 7af6 93bc 021e debc
00000240: 816c dcbc f966 053b abf2 50bd aeaf a4bb
00000250: 3808 073d 6bc3 d3bc 8574 1ebd 3c5a 85bd
00000260: 37a2 92bd 9dfa cabd 2e17 7ebd 7035 1fbd
00000270: 757d adbd 5bd1 80bd a6d3 a1bd e48f 59bd
00000280: 3eb1 3bbd 2159 7d3a b6e1 72bb 75fb 22bd
00000290: 9e1e 71bc eae8 70ba 62c2 813c 91a7 213d
000002a0: 6ebc 963c 73d8 e33b 60a1 edbc fe5c b0bc
000002b0: 2878 07bc e1e0 14bc dfb2 043d cec4 c33c
000002c0: 89bd 1c3d d8fb 9cbc 017b 1bbd c059 58bd
000002d0: 6e02 b9bb 178b a63c 3f34 85bd f5d9 f2bd
000002e0: 0e31 a83b 5878 ce3c 925d 3abd 5466 bfbd
000002f0: 97ae 0cbd 6a4e 093c 4402 373b 88a4 543c
00000300: 984f 39bd a026 10bd 2334 40bb 34f7 debb
00000310: 2246 55bc da00 053d 5f36 45bc f45d 4b3b
00000320: 44ca 7dbb 01c1 d73b f754 2f3d af38 1f3c
00000330: 53ee 7c3d 7e91 02bd e9a6 45ba c19d b63c
00000340: 1111 983c ba0c 24bd 3f39 21bd 28bf 55bc
00000350: 5df5 d93c e1b4 d43c 9887 e5bc c2ef d0bc
00000360: e5f6 a1bc 689c da3c 49f4 84bc 76ea 85bd
00000370: ee6d bbbc 9987 07bd 9f7e 33bc 7520 a93c
00000380: 6667 8b3b ff34 9abc 2c08 ffbb 093b c13b
00000390: dfdf 473d d788 cabc b3a0 533d ca10 a23c
000003a0: a37f 263d 584e 293d 4dad 723d e94a b9bc
000003b0: 6832 4fbd 0765 0bbd f33d d8bc d682 84bd
000003c0: 3c81 94bc eb43 303d 492f 983c 971e 133c
000003d0: af14 b2bb 7d69 9a3a 6f8a 60bc e5e7 2a3c
000003e0: 6de9 6bbd 5563 eebc e68e 4e3c e10b 133d
000003f0: 08ae c6bc d56c b33c b1a1 31bc 93b4 433d

hidden_layers.0.bias f4 [104]
0.01754497 0.0029230134 -0.030029198 0.028201234 0.007899506 -0.009998121 -0.041293237 -0.025250461
-0.015148371 -0.005722583 0.045094155 0.006894475 0.035356425 -0.018493062 -0.015468384 -0.00691106
0.017296022 0.033673946 -0.0029345467 -0.016860286 -0.00024956197 0.0029074252 -0.01376544 0.037848577
0.019551912 0.021278575 -0.0047299685 0.006480261 -0.012592674 0.03446439 -0.03992209 0.003283456
0.01234936 0.0133632785 0.03380476 -0.03750209 0.021378797 0.0020086172 0.0074360874 0.017002039
-0.03797667 -0.0020465322 -0.021530328 0.012361458 0.021611042 0.00230922 -0.003127897 -0.025773266
0.039013907 0.016288439 -0.029574081 -0.028025374 0.013828236 -0.013064047 -0.030081086 -0.012020842
0.01500675 -0.028948694 0.029302485 0.019635955 0.008110021 0.0079102805 0.0050590998 -0.037091024
-0.025863849 -0.013158562 -0.012815255 0.045175195 -0.016055737 0.02831509 -0.022416152 0.024857502
-0.007711386 -0.018512556 -0.0024562897 -0.037075922 -0.023090625 0.02590509 -0.034407903 0.00781371
0.025180994 -0.028993163 -0.034022797 0.020331657 0.01349316 0.009431355 -0.0069402116 -0.012715433
0.011992007 -0.0073543494 -0.022219455 -0.008240742 0.025024714 0.03318134 0.015871419 -0.022508467
-0.019066503 -0.027164308 -0.022212962 -0.031021912 -0.01196567 0.00043279503 0.0021606567 -0.00066495244
00000000: 78ba 8f3c 0790 3f3b cbff f5bc 4606 e73c
00000010: ee6c 013c 29cf 23bc 1923 29bd 0eda cebc
00000020: e030 78bc 8184 bbbb a6b4 383d 0ceb e13b
00000030: e6d1 103d c37e 97bc 1b6f 7dbc 2c76 e2bb
00000040: 63b0 8d3c b1ed 093d 8651 40bb 951e 8abc
00000050: a4d7 82b9 808a 3e3b 7188 61bc 1c07 1b3d
00000060: 552b a03c 6850 ae3c dafd 9abb 5f58 d43b
00000070: 8151 4ebc 882a 0d3d 5885 23bd 402f 573b
00000080: f854 4a3c a7f1 5a3c dc76 0a3d cb9b 19bd
00000090: 9622 af3c 01a3 033b 6caa f33b dc47 8b3c
000000a0: 6d8d 1bbd 1d1f 06bb 5f60 b0bc b687 4a3c
000000b0: a409 b13c 4856 173b 67fd 4cbb 7522 d3bc
000000c0: 0ccd 1f3d 556f 853c 5845 f2bc 7895 e5bc
000000d0: d38f 623c 960a 56bc 9c6c f6bc 11f3 44bc
000000e0: dfde 753c d025 edbc c40b f03c 95db a03c
000000f0: e5df 043c 1f9a 013c cec6 a53b c2ec 17bd
00000100: 6ce0 d3bc 0297 57bc 13f7 51bc a009 393d
00000110: 5287 83bc 0cf5 e73c 14a2 b7bc f6a1 cb3c
00000120: cbaf fcbb a5a7 97bc b4f9 20bb ecdc 17bd
00000130: 8d28 bdbc e936 d43c 4def 0cbd 1305 003c
00000140: 5f48 ce3c 1283 edbc 7d5b 0bbd 938e a63c
00000150: 6a12 5d3c f885 1a3c b76a e3bb 6454 50bc
00000160: 1f7a 443c c1fc f0bb 9305 b6bc 2d04 07bc
00000170: a100 cd3c 28e9 073d c704 823c ad63 b8bc
00000180: 5b31 9cbc af87 debc f5f7 b5bc aa21 febc
00000190: a80b 44bc c4e8 e239 ce99 0d3b 3450 2eba

hidden_layers.3.weight f4 [104, 104]
0.05434929 -0.08655172 0.079825394 -0.11375816 -0.004599071 0.05337726 0.15002127 -0.025178608
-0.13282722 0.094782166 -0.15367383 0.03099981 -0.03918597 -0.11398087 0.103457026 -0.13660914
-0.009646929 0.113119215 -0.013640661 0.019736074 -0.017664872 0.02223413 0.021421142 -0.13012436
-0.10182915 -0.030651044 -0.028008373 0.060065757 0.019054303 -0.1500867 -0.05803386 -0.13219379
0.04278067 0.10709381 0.066185445 0.1119827 -0.11272135 0.07800774 0.031037439 -0.016143044
-0.12229708 0.12926923 0.033980697 0.11435239 -0.06311019 -0.062532455 -0.04370575 -0.0051406217
0.036130223 0.11791329 -0.075706355 -0.05809427 0.010276275 0.13601935 0.012822401 0.12731735
-0.0054692077 0.1976612 0.010791904 0.013520459 0.029688915 -0.15621552 -0.12272316 -0.07812834
0.13118663 -0.09814595 0.079218484 -0.058015864 -0.03918768 -0.15803368 -0.03773121 0.10459689
-0.04270889 -0.25296158 0.0829123 -0.15596475 -0.085849494 0.104262605 -0.07761094 0.18642163
-0.09908147 0.12303579 -0.013491034 0.0050146505 -0.056267336 0.031407822 0.0038601044 0.10879311
0.011551062 -0.07386366 -0.076965414 -0.030928604 -0.16489735 -0.016890842 0.03367161 0.02963576
0.0552834 -0.072443284 0.11288453 0.12542863 -0.19175331 -0.02834801 -0.09714018 0.07588827
0.06416221 -0.08595538 -0.08569658 0.053272463 0.037130505 -0.06826764 0.14278713 -0.06582009
0.015812263 0.16015515 0.044464447 0.047759898 -0.040921655 -0.03852991 0.1219274 -0.081732996
0.106313094 -0.18678384 -0.0024057892 0.0041471976 -0.11566406 -0.090800755 0.07923944 0.015035213
0.119015664 0.062690854 0.052680325 -0.12999599 -0.10034966 -0.0795598 0.022245597 0.0346207
-0.04551146 0.11279406 -0.066991135 -0.07768216 0.02937082 0.08265743 0.0007112671 0.094428785
-0.014764879 0.07138999 -0.024662958 0.043707278 -0.090001315 -0.037319656 -0.04266152 0.14480793
-0.029924449 -0.1438275 -0.11837584 -0.04492232 -0.10303763 0.0068032574 -0.038145702 -0.0007635732
0.10542876 -0.12603329 -0.04644734 -0.075157724 -0.14429833 0.20650578 -0.09266965 -0.12618218
0.018223302 -0.08044444 -0.04294926 0.035249054 -0.0507912 -0.0877791 0.103495404 -0.030126462
-0.052101474 0.06081546 0.026663024 0.07998506 -0.004491127 0.09407614 0.093799226 -0.081396855
0.16220887 -0.14493826 0.13202514 0.026461529 0.057194468 0.0968697 -0.037095293 0.12182829
0.041456647 0.0070759137 0.05024346 -0.17024711 -0.0058305142 0.016728787 -0.08100184 0.09207034
0.1623318 -0.13568525 -0.18184671 -0.016110586 -0.112724595 -0.110384405 0.0823103 0.13516739
0.011676112 -0.037653714 -0.04947576 0.044585273 0.115214445 -0.027173895 0.07994557 -0.10362342
-0.10860234 0.1704728 0.057900324 -0.027898518 0.033129342 0.019066323 -0.059496403 -0.03899628
0.06933765 -0.14105757 0.058864992 0.10675339 -0.08595 0.07003 0.040344726 0.110481046
0.1447991 -0.02904779 -0.12216229 -0.14427117 -0.095776044 -0.02296538 0.04326202 -0.024209298
0.13014603 -0.003889232 0.054199737 -0.07969246 0.044543017 0.039567165 0.07812849 0.10710234
0.0009939261 0.049230386 -0.08993307 0.0027722134 -0.19404648 0.034953497 0.06314955 0.1798166
00000000: 5c9d 5e3d 0742 b1bd 7f7b a33d 0afa e8bd
00000010: ceb3 96bb 1da2 5a3d 2d9f 193e 5e43 cebc
00000020: dc03 08be 271d c23d ac5c 1dbe 50f3 fd3c
00000030: 7881 20bd cd6e e9bd 47e1 d33d 44e3 0bbe
00000040: 270e 1ebc 0cab e73d 147d 5fbc 8cad a13c
00000050: ecb5 90bc 5a24 b63c 647b af3c 523f 05be
00000060: cd8b d0bd e617 fbbc d171 e5bc 8307 763d
00000070: c517 9c3c 54b0 19be eab4 6dbd cf5d 07be
00000080: c93a 2f3d 0054 db3d 3c8c 873d 3057 e53d
00000090: 73da e6bd 86c2 9f3d 3a42 fe3c 6b3e 84bc
000000a0: e476 fabd 275f 043e 582f 0b3d 9631 ea3d
000000b0: ea3f 81bd 0411 80bd cd04 33bd a972 a8bb
000000c0: 49fd 133d 867c f13d ef0b 9bbd 42f4 6dbd
000000d0: d25d 283c a848 0b3e 0c15 523c 7b5f 023e
000000e0: 0a37 b3bb b367 4a3e 87d0 303c ea84 5d3c
000000f0: 2b36 f33c f6f6 1fbe 4856 fbbd c001 a0bd
00000100: ca55 063e be00 c9bd 4d3d a23d 0ba2 6dbd
00000110: 4383 20bd 95d3 21be 0b8c 1abd e536 d63d
00000120: 84ef 2ebd 2e84 81be edcd a93d 39b5 1fbe
00000130: dcd1 afbd a287 d53d 7cf2 9ebd 50e5 3e3e
00000140: 3aeb cabd 30fa fb3d 7f09 5dbc f051 a43b
00000150: 9478 66bd 7da5 003d cef9 7c3b ecce de3d
00000160: aa40 3d3c d545 97bd 0ba0 9dbd fc5d fdbc
00000170: dada 28be aa5e 8abc 3eeb 093d b1c6 f23c
00000180: d970 623d 255d 94bd 0130 e73d 5d70 003e
00000190: fb5a 44be 163a e8bc 6ef1 c6bd 4f6b 9b3d
000001a0: 7a67 833d 6009 b0bd b081 afbd 3a34 5a3d
000001b0: 2816 183d e8cf 8bbd ca36 123e afcc 86bd
000001c0: b888 813c b6ff 233e 5a20 363d e29f 433d
000001d0: 779d 27bd 8ad1 1dbd 13b5 f93d a163 a7bd
000001e0: aeba d93d 4344 3fbe 72aa 1dbb 37e5 873b
000001f0: 47e1 ecbd bff5 b9bd 4a48 a23d 4156 763c
00000200: 7cbe f33d 1064 803d 53c7 573d ab1d 05be
00000210: 1f84 cdbd 40f0 a2bd 663c b63c 6fce 0d3d
00000220: 3a6a 3abd 9200 e73d a632 89bd d317 9fbd
00000230: 139b f03c 4c48 a93d 5474 3a3a e163 c13d
00000240: 64e8 71bc ea34 923d f909 cabc 6706 333d
00000250: 9c52 b8bd 7fdc 18bd d9bd 2ebd 8848 143e
00000260: 1e24 f5bc 8447 13be 086f f2bd 7700 38bd
00000270: 6505 d3bd dced de3b ab3e 1cbd 882a 48ba
00000280: 09eb d73d df0e 01be 913f 3ebd 4bec 99bd
00000290: f1c2 13be 4076 533e 96c9 bdbd e735 01be
000002a0: 0949 953c 0ec0 a4bd 90eb 2fbd 5061 103d
000002b0: 6f0a 50bd 87c5 b3bd 66f5 d33d c5cb f6bc
000002c0: 5b68 55bd a219 793d 6a6c da3c 35cf a33d
000002d0: 4e2a 93bb feaa c03d cf19 c03d 65b3 a6bd
000002e0: 151a 263e b26a 14be 9931 073e d9c5 d83c
000002f0: bf44 6a3d 9f63 c63d 3cf1 17bd 1c81 f93d
00000300: 72ce 293d 11dd e73b 16cc 4d3d 4255 2ebe
00000310: e60d bfbb cf0a 893c 4be4 a5bd 608f bc3d
00000320: 4f3a 263e 13f1 0abe 0636 3abe 59fa 83bc
00000330: 27dc e6bd 3811 e2bd 4d92 a83d 5269 0a3e
00000340: 2a4d 3f3c c83a 1abd 18a7 4abd 0c9f 363d
00000350: 8df5 eb3d ca9b debc 81ba a33d 8438 d4bd
00000360: e76a debd 6c90 2e3e e428 6d3d 6f8b e4bc
00000370: a2b2 073d fa30 9c3c 80b2 73bd 90ba 1fbd
00000380: e600 8e3d 6571 10be 6b1c 713d 85a1 da3d
00000390: 8e06 b0bd e36b 8f3d 8340 253d e343 e23d
000003a0: 3746 143e a2f5 edbc 3930 fabd d2bb 13be
000003b0: 3b26 c4bd e521 bcbc 8433 313d 9452 c6bc
000003c0: 0045 053e 7ce2 7ebb 8b00 5e3d cd35 a3bd
000003d0: bd72 363d 2e11 223d d401 a03d 7958 db3d
000003e0: a046 823a cda5 493d d42e b8bd 06ae 353b
000003f0: 1fb4 46be 662b 0f3d 8d54 813d d821 383e

hidden_layers.3.bias f4 [104]
0.052369185 -0.04349031 0.029067608 0.031141909 0.08455838 -0.048812374 0.021860901 0.036871433
0.038957525 -0.0390311 0.026332784 -0.0049167126 -0.005316517 0.059065484 0.0915837 -0.044978753
-0.042110752 0.028617306 -0.02274426 0.087696455 0.0020256478 0.11251126 0.012693105 0.008745231
-0.05532889 0.0807242 0.03426321 -0.09701105 0.14808056 0.10004554 -0.0016842529 0.036358576
-0.05522671 0.06939887 -0.08770519 -0.05786566 0.09916304 -0.03165322 0.074783936 0.05227017
-0.047249556 0.016730435 -0.109193295 0.12801997 -0.025229968 -0.014567164 -0.11498186 -0.1028131
-0.023177838 -0.05783131 -0.004515759 0.060174797 -0.060856897 -0.015003821 -0.0053382684 -0.053313654
0.079853214 -0.09517322 -0.027111784 0.03293712 -0.08804994 -0.0983291 -0.051220674 -0.04076149
0.05132795 0.052989084 -0.11930273 0.013553866 -0.058919813 -0.010184669 0.057646785 0.042207558
-0.0007489161 0.03362944 0.059496988 0.005289037 0.07055149 0.03125826 0.09235857 0.027296524
-0.07904555 0.05926384 0.11737293 -0.104791954 0.06859182 -0.064960696 0.021191299 -0.06407681
-0.032676622 0.008625152 -0.026256176 -0.08970928 0.099599965 -0.05802679 0.04999167 0.030261405
-0.09055612 -0.032840937 -0.039119687 -0.033969916 0.022522533 -0.057920247 -0.10666704 0.05299066
00000000: 1281 563d e522 32bd 311f ee3c 511d ff3c
00000010: f22c ad3d 7cef 47bd a215 b33c 8006 173d
00000020: ed91 1f3d 13df 1fbd dab7 d73c 601c a1bb
00000030: 2d36 aebb a6ee 713d 3c90 bb3d a43b 38bd
00000040: 537c 2cbd d76e ea3c 2c52 babc 339a b33d
00000050: bbc0 043b 4e6c e63d bef6 4f3c 2848 0f3c
00000060: 8ca0 62bd bb52 a53d 9457 0c3d bbad c6bd
00000070: 6ea2 173e ade4 cc3d 26c2 dcba bbec 143d
00000080: 6735 62bd ff20 8e3d c79e b3bd 8b04 6dbd
00000090: fe15 cb3d cfa6 01bd 5228 993d 3f19 563d
000000a0: c088 41bd 440e 893c bca0 dfbd ab17 033e
000000b0: 14af cebc 1dab 6ebc 9c7b ebbd ad8f d2bd
000000c0: 73df bdbc 86e0 6cbd eff8 93bb d979 763d
000000d0: 1545 79bd 96d2 75bc a4ec aebb 6b5f 5abd
000000e0: 158a a33d 2dea c2bd 8819 debc 13e9 063d
000000f0: 8753 b4bd c460 c9bd c5cc 51bd 85f5 26bd
00000100: 423d 523d 150b 593d fd54 f4bd 0911 5e3c
00000110: e755 71bd 99dd 26bc 091f 6c3d d5e1 2c3d
00000120: e952 44ba 06bf 093d 1db3 733d a84f ad3b
00000130: 4d7d 903d a908 003d 7d26 bd3d f69c df3c
00000140: a2e2 a1bd a4be 723d 3861 f03d 2a9d d6bd
00000150: de79 8c3d 1d0a 85bd 6099 ad3c b43a 83bd
00000160: ecd7 05bd 8250 0d3c 3117 d7bc 80b9 b7bd
00000170: 11fb cb3d 80ad 6dbd 11c4 4c3d c4e6 f73c
00000180: 7d75 b9bd 3884 06bd f73b 20bd 0a24 0bbd
00000190: 2d81 b83c c83d 6dbd 4074 dabd bc0c 593d

output_layer.weight f4 [10, 104]
-0.020359488 0.11576873 0.20383848 -0.20726848 -0.06349609 -0.15706764 0.1668169 -0.009373133
0.09034067 -0.14119843 0.0051791486 -0.22811808 -0.21326499 0.112931386 -0.003046081 -0.1809989
-0.09717032 -0.11170577 0.1798895 -0.18331227 0.12609392 -0.09567622 0.10997471 0.11197332
-0.10379838 0.142173 -0.010245455 -0.1358315 0.105361484 0.24954085 0.07864338 -0.03514395
0.10802146 0.1476467 -0.024058174 0.20143344 0.12015989 -0.014142823 0.15331319 -0.043377675
0.2208633 -0.1255878 -0.18696018 -0.23339966 -0.06289189 -0.16122797 0.22492844 0.026679803
-0.16801874 -0.23398815 0.032296043 -0.07089982 -0.1984431 -0.16899547 -0.006116072 0.018956408
-0.18250205 -0.048418712 -0.23263897 0.17134511 -0.2841833 0.30184 0.15921885 -0.1439337
-0.0118031185 0.17294571 0.059411608 0.12187602 -0.017140422 -0.032095168 0.07446291 -0.15073547
0.23101 0.2483566 0.23860852 0.17612246 -0.03862082 0.16066484 -0.19543573 -0.078420214
0.19544365 0.19352561 0.15561672 -0.11285113 -0.29044282 0.22477198 0.34302777 0.11661233
0.29613212 -0.105491176 0.08557084 0.010912164 -0.027161894 0.22732118 -0.09144983 -0.24739623
0.18989804 -0.11619592 0.22883894 0.12697902 -0.20929806 -0.16508727 0.2895314 -0.22179483
0.11867939 0.21603426 0.06608789 0.031160556 0.028873187 0.23769997 -0.017829875 -0.07307883
0.1982937 0.073142886 0.15365143 0.17738181 0.14734842 0.08031976 0.21151167 0.031918164
-0.17171234 0.0058244937 -0.11336809 0.04198289 -0.17948438 0.1463535 -0.19990872 -0.15266207
0.06988428 -0.22227137 0.15493453 -0.19527604 -0.14329922 -0.057033643 -0.14255734 -0.116448775
0.23668014 0.1491312 -0.258623 -0.16724926 -0.25713858 -0.14950086 -0.15605056 0.054316845
0.20137747 0.09123084 -0.043046102 0.060571965 -0.30111137 0.30307066 0.057512727 -0.1267261
0.13675646 0.14987656 -0.20230554 0.1664887 -0.04138961 0.2331163 -0.23573649 -0.21100639
0.09720042 -0.08059473 -0.028632814 -0.18509462 -0.115339585 -0.08772871 -0.19293657 -0.22372691
0.12825337 -0.17955753 -0.20502384 -0.1618309 0.11935366 0.18551701 0.19398712 -0.20353326
-0.15054592 -0.12803987 -0.1736763 -0.047054257 -0.049249772 0.2743086 -0.054042686 0.23382904
-0.1325282 -0.18362473 -0.14356802 0.23392081 0.056903075 -0.10790125 0.29894516 -0.14513028
0.21204719 0.13682576 -0.20375052 0.058710862 0.21192385 -0.22336332 0.08613903 -0.2033032
-0.053135667 0.20823248 -0.041726403 0.023951484 0.093150586 -0.060192827 0.018767575 0.19525442
-0.26631004 0.16472945 0.15161183 0.060331363 0.20194007 -0.22903852 0.053822707 -0.109633595
0.07401227 0.21330173 0.06123583 -0.26806945 0.14161855 -0.26302823 0.026939752 0.19423968
-0.121365584 -0.17434052 -0.07345582 0.18338208 -0.22428359 -0.06910136 0.23032399 0.18092634
0.20793243 0.1330787 0.1916575 -0.027183171 0.111951694 0.23781323 0.064958654 -0.023672896
-0.07444274 -0.09636035 0.16705537 0.19673705 0.16731493 -0.07342408 0.18039824 0.14779204
-0.122857414 -0.036518637 0.28811815 0.13607253 0.17975676 -0.2098489 -0.095081694 -0.12868233
00000000: f1c8 a6bc 2818 ed3d 09bb 503e 303e 54be
00000010: 3d0a 82bd 57d6 20be 0dd2 2a3e c591 19bc
00000020: 8704 b93d 5296 10be d9b5 a93b c997 69be
00000030: 2362 5abe 9248 e73d c2a0 47bb c757 39be
00000040: 3c01 c7bd ffc5 e4bd f434 383e 36b6 3bbe
00000050: c41e 013e e5f1 c3bd 6c3a e13d 4552 e53d
00000060: 3f94 d4bd cd95 113e 8edc 27bc 6a17 0bbe
00000070: c3c7 d73d a387 7f3e c80f a13d 1af3 0fbd
00000080: 5b3a dd3d b230 173e a615 c5bc 9144 4e3e
00000090: 6316 f63d 4db7 67bc 22fe 1c3e caac 31bd
000000a0: fd29 623e 179a 00be 7d72 3fbe 5200 6fbe
000000b0: 77cd 80bd f218 25be a453 663e 9a8f da3c
000000c0: 1b0d 2cbe 979a 6fbe db48 043d ed33 91bd
000000d0: ab34 4bbe 260d 2dbe 5569 c8bb 784a 9b3c
000000e0: d1e1 3abe b352 46bd e938 6ebe 1875 2f3e
000000f0: 7980 91be c68a 9a3e 440a 233e 5b63 13be
00000100: de61 41bc ae18 313e 9659 733d 239a f93d
00000110: 126a 8cbc 3976 03bd 0380 983d 665a 1abe
00000120: e38d 6c3e 3151 7e3e cb55 743e 7259 343e
00000130: dd30 1ebd 5385 243e 4e20 48be c79a a0bd
00000140: 6122 483e 942b 463e fd59 1f3e 7e1e e7bd
00000150: ecb4 94be a02a 663e 56a1 af3e 72d2 ee3d
00000160: a19e 973e c20b d8bd c43f af3d efc8 323c
00000170: 9f82 debc e2c6 683e 0c4a bbbd 7055 7dbe
00000180: a274 423e 20f8 edbd c154 6a3e ca06 023e
00000190: 3b52 56be a30c 29be 763d 943e 2f1e 63be
000001a0: 2e0e f33d 1638 5d3e 1659 873d 6c44 ff3c
000001b0: 7687 ec3c 9f67 733e f50f 92bc 5baa 95bd
000001c0: 810d 4b3e f0cb 953d cd56 1d3e 94a3 353e
000001d0: 81e2 163e b07e a43d 8496 583e 9fbc 023d
000001e0: 5cd5 2fbe 65db be3b 872d e8bd 40f6 2b3d
000001f0: c1ca 37be b1dd 153e dfb4 4cbe 7253 1cbe
00000200: 7d1f 8f3d 1b9b 63be 28a7 1e3e 71f6 47be
00000210: 08bd 12be 1c9c 69bd 8dfa 11be b27c eebd
00000220: 475c 723e d9b5 183e 3c6a 84be 6443 2bbe
00000230: aba7 83be c116 19be b8cb 1fbe 577b 5e3d
00000240: e535 4e3e 3cd7 ba3d 1c51 30bd 4f1a 783d
00000250: 452b 9abe 142c 9b3e 7792 6b3d 7dc4 01be
00000260: e309 0c3e 3e79 193e 2f29 4fbe 047c 2a3e
00000270: 2788 29bd 0ab6 6e3e e864 71be 0f12 58be
00000280: 0411 c73d da0e a5bd 5d8f eabc 7289 3dbe
00000290: 2937 ecbd 1cab b3bd 2a91 45be ab18 65be
000002a0: da54 033e eedd 37be c5f1 51be 00b7 25be
000002b0: b16f f43d 2cf8 3d3e 8fa4 463e 066b 50be
000002c0: b628 1abe e21c 03be 33d8 31be f7bb 40bd
000002d0: 21ba 49bd 2d72 8c3e dd5b 5dbd e170 6f3e
000002e0: 79b5 07be 1f08 3cbe 7f03 13be f088 6f3e
000002f0: 3313 693d 55fb dcbd 570f 993e 089d 14be
00000300: e622 593e 0d1c 0c3e faa3 50be cd7a 703d
00000310: 9102 593e 5bb9 64be a969 b03d b72e 50be
00000320: c9a4 59bd e53a 553e 4ee9 2abd e735 c43c
00000330: bcc5 be3d c18c 76bd 75be 993c c6f0 473e
00000340: ca59 88be d6ae 283e 2240 1b3e 051e 773d
00000350: 61c9 4e3e 1389 6abe 3375 5c3d 9487 e0bd
00000360: bf93 973d c56b 5a3e 6cd2 7a3d 6640 89be
00000370: 7404 113e a3ab 86be c1b0 dc3c c4e6 463e
00000380: 858e f8bd 5286 32be 0170 96bd 83c8 3b3e
00000390: 99aa 65be 0485 8dbd 0dda 6b3e c144 393e
000003a0: 3dec 543e c845 083e dd41 443e 3eaf debc
000003b0: ee46 e53d 5085 733e 0b09 853d a9ed c1bc
000003c0: 6f75 98bd 9358 c5bd 9010 2b3e 7075 493e
000003d0: 9b54 2b3e 5d5f 96bd 51ba 383e cc56 173e
000003e0: ab9c fbbd 9194 15bd 3984 933e 9956 0b3e
000003f0: 2812 383e a1e2 56be 31ba c2bd 4dc5 03be

output_layer.bias f4 [10]
-0.12080459 0.08251186 -0.021723367 0.04749269 0.043349717 0.11327811 0.056691345 0.0738465
-0.066196345 -0.028336512
00000000: 6668 f7bd fafb a83d 34f5 b1bc b287 423d
00000010: 798f 313d 5bfe e73d 2f35 683d d53c 973d
00000020: f391 87bd f921 e8bc
