Results/BayesianResult1/best_model_weights.pt (torch, 357302 bytes, 6 tensors)

hidden_layers.0.weight f4 [99, 784]
0	0x3c15981b	0.009130503
1	0x3c58addd	0.013225046
2	0x3cdfe6b6	0.027331691
3	0x3c892ea3	0.016745871
4	0xbb0037ab	-0.001956443
5	0xbca835b8	-0.020533428
6	0xbc69cebf	-0.0142704835
7	0x3a74688e	0.0009323441
8	0xbd0eb1f7	-0.03483769
9	0x3b5f802a	0.0034103491
10	0x3c18af05	0.009319072
11	0xbc2384c3	-0.009980383
12	0x3b08268c	0.002077493
13	0x3d064ed1	0.03279001
14	0xba896210	-0.0010481495
15	0x3cd2b626	0.02572162
16	0x3c1018c8	0.008794971
17	0x3cfbd646	0.030741822
18	0x3bb62d26	0.0055595813
19	0xbb9f0ada	-0.0048535885
20	0xbc007f8c	-0.00784291
21	0xbd167baf	-0.036739048
22	0x3cb46084	0.022018678
23	0xbb3b1f96	-0.0028552762
24	0x3b3942b4	0.0028268518
25	0xbcde793c	-0.027157418
26	0xbd0a2b97	-0.033732977
27	0x3bc88298	0.0061190836
28	0xbc71823c	-0.014740523
29	0x3c4211fb	0.011845107
30	0xbb04302b	-0.0020170312
31	0x3b2b9726	0.002618262
32	0x3cbb61f4	0.022873856
33	0x3cbb7042	0.022880677
34	0x3cbe625a	0.023240257
35	0x3c6a0879	0.014284247
36	0x3b585a54	0.0033012824
37	0x3c2f2821	0.01069072
38	0x3c40d811	0.011770264
39	0xbd1e1a74	-0.038599446
40	0x3ca48bfd	0.020086283
41	0xbc7d7cf3	-0.015471685
42	0xbc1fc44f	-0.009751393
43	0xbcadbb85	-0.02120758
44	0xbcc57442	-0.024103288
45	0xbac338ff	-0.0014894305
46	0x3cf5ff5d	0.030028993
47	0xbc8862c2	-0.016648654
48	0x3c71e658	0.014764391
49	0xbd08cf2a	-0.033400692
50	0xbc4d06b6	-0.012513807
51	0x3d0358df	0.032067176
52	0xbce82db6	-0.02834211
53	0xbcf7444c	-0.030183934
54	0x3cd1a6c2	0.025592212
55	0x3cc88c58	0.024480984
56	0xbcd9ad4c	-0.026571892
57	0xbca7bedc	-0.020476751
58	0x3bb4a398	0.005512666
59	0x3cd9cb88	0.02658631
60	0x3acba73e	0.0015537513
61	0x3c1ec3c8	0.009690233
62	0x3ca5cd98	0.020239636
63	0xbc066add	-0.008204189
64	0xbc996133	-0.018723106
65	0x3c58bb4c	0.013228249
66	0xbd35d62f	-0.044393715
67	0xbbe3ac11	-0.006948002
68	0xbd018c64	-0.031628028
69	0x3bde04b9	0.0067754653
70	0x3bcbf301	0.0062240367
71	0xbd0d799c	-0.034539804
72	0xbc665353	-0.014057952
73	0x3c9227f2	0.017841313
74	0x3c9e2119	0.019302892
75	0x3c8ce4b0	0.01719889
76	0xbb815fc4	-0.0039481837
77	0x3ba17ecd	0.004928446
78	0xbc6a0953	-0.01428445
79	0xbc476be1	-0.012171716
80	0xbcc7a50b	-0.02437069
81	0x3c35ad51	0.011088685
82	0xbcec4e0a	-0.028845806
83	0x3d037bd9	0.032100532
84	0x3be01600	0.00683856
85	0xbbd7b19e	-0.006582453
86	0xbcc57680	-0.024104357
87	0xbcc5b67a	-0.024134863
88	0x389510c0	7.1079936e-05
89	0xbd095351	-0.033526722
90	0xbd18169c	-0.037130937
91	0xbcaba795	-0.020953933
92	0x3bfc60b9	0.00770196
93	0x3c9131cf	0.017723946
94	0xba75a383	-0.00093703734
95	0xbcccc891	-0.024997981
96	0xbd055132	-0.032548137
97	0xbd3fd66f	-0.04683536
98	0xbcf00e1c	-0.029303603
99	0xbcb62ca2	-0.02223808
100	0xbdb20b91	-0.08693612
101	0xbd2d45f6	-0.042303048
102	0xbd1389af	-0.036019977
103	0xbc34f6c5	-0.011045163
104	0xbba32194	-0.004978368
105	0x3ca8c1cd	0.020600224
106	0xbbef65f5	-0.0073058554
107	0x3ca471f5	0.02007387
108	0xbcc74812	-0.024326358
109	0xbc57ba09	-0.013166913
110	0x3cc937e2	0.02456278
111	0xbc5a15e1	-0.01331088
112	0xbce3b89a	-0.027797986
113	0x3ca37a6e	0.01995584
114	0xbd058572	-0.032597966
115	0xbc6b7eba	-0.014373476
116	0x3cd0e07a	0.025497664
117	0xbd07d60b	-0.03316311
118	0xbb55116c	-0.0032511605
119	0x3c8bb30a	0.017053146
120	0xbd03f1bc	-0.032212958
121	0xbce97f43	-0.028503066
122	0xbd6cdfa4	-0.057830468
123	0xbd3a72cc	-0.045519635
124	0xbd44f8da	-0.048088886
125	0xbdd0a38e	-0.101874456
126	0xbde0798c	-0.10960683
127	0xbd970db3	-0.0737566
128	0xbda4fb4d	-0.08055744
129	0xbdb3b0b1	-0.087739356
130	0xbd96edc9	-0.07369573
131	0xbce2b90c	-0.027676128
132	0xbbd87e0d	-0.0066068233
133	0x3d08dc38	0.033413142
134	0x3ca25319	0.019815015
135	0x3c191be2	0.009345027
136	0xbc47d8c4	-0.012197677
137	0x3b26288a	0.0025353753
138	0x3d0412e5	0.03224458
139	0xbced1d74	-0.028944708
140	0x3cdd76e4	0.02703423
141	0x3ca32db2	0.01991925
142	0xbcb6c688	-0.022311464
143	0xbd040994	-0.032235697
144	0xbcbd24e5	-0.023088882
145	0xbab7db7e	-0.0014027206
146	0x3b80a7a6	0.0039262353
147	0xbbc42282	-0.005985559
148	0xbcb37c7c	-0.021909945
149	0x3bc84d21	0.00611271
150	0xbd0df037	-0.034652915
151	0x3cd930b3	0.02651248
152	0xbcb82ccb	-0.022482296
153	0xbd52cfee	-0.05146783
154	0xbd012a41	-0.031534437
155	0xbd0258ee	-0.03182309
156	0xbda86001	-0.08221436
157	0xbd697180	-0.056993008
158	0xbd1498c3	-0.036278497
159	0x3ba7d790	0.0051221326
160	0x3d220b65	0.039561648
161	0x3d3c9a8c	0.046045825
162	0x3d8176f2	0.06321515
163	0x3cb96779	0.022632347
164	0x3c20621c	0.009789016
165	0x39b0382c	0.00033611187
166	0xbbfa9305	-0.0076469206
167	0xbd18b05f	-0.037277576
168	0xbcb116b6	-0.021617275
169	0x3ce24648	0.027621403
170	0xbce40e0f	-0.027838735
171	0xb9ca73c8	-0.00038614706
172	0xbd42709b	-0.04747067
173	0xbcc26b67	-0.023732854
174	0xbd87a233	-0.06622734
175	0xbc97096a	-0.018437106
176	0xbc94c83a	-0.018161882
177	0x3d912f1e	0.07089065
178	0xbc347a2b	-0.011015455
179	0x3d5d5d92	0.054044314
180	0xbc2cc433	-0.010544824
181	0xbc6d12ca	-0.014469812
182	0xbd1859f9	-0.03719518
183	0xbd0df0bc	-0.03465341
184	0xbd5a3083	-0.05326892
185	0xbd70abfe	-0.058757775
186	0xbcb11f3e	-0.021621343
187	0xbc9d28cd	-0.019184494
188	0x3c88f174	0.016716696
189	0x3cfe93ce	0.031076338
190	0x3dcf3fed	0.10119615
191	0x3d6c601f	0.057708856
192	0x3dda95b5	0.106730856
193	0x3d008a32	0.031381793
194	0x3c68c0b7	0.014206103
195	0xbd1d9e72	-0.038481183
196	0xbbe6e05c	-0.0070457887
197	0xbd033553	-0.032033276
198	0xbc64fcb8	-0.0139762685
199	0xbd3cfdfc	-0.046140656
200	0xbc8c9811	-0.017162355
201	0xbd063dcf	-0.03277379
202	0xbd8bfb0c	-0.06834993
203	0xbd34633e	-0.044039957
204	0x3d6c1e68	0.057646185
205	0x3ddbb2d9	0.10727472
206	0x3bb7215e	0.0055886945
207	0x3d12c157	0.035828914
208	0xbc2e270d	-0.010629428
209	0xbd7402b1	-0.05957288
210	0xbe27ac20	-0.16374254
211	0xbd8bc6a3	-0.06824996
212	0xbcd8b446	-0.026453149
213	0x3b94bb81	0.004538954
214	0x3d31102e	0.04322832
215	0xbb2c7795	-0.0026316394
216	0x3c4eb4c5	0.012616341
217	0x3ce6613d	0.028122539
218	0x3d726941	0.05918241
219	0x3dbbed8a	0.09176166
220	0x3dbe7415	0.09299485
221	0x3c143686	0.0090462025
222	0x3c9b7916	0.018978637
223	0xbcedfbc8	-0.029050723
224	0x3c52bfd5	0.012863119
225	0xbcdcfc32	-0.026975725
226	0x3cf38fd9	0.029731678
227	0x3b89650f	0.0041929553
228	0xbd2cec64	-0.042217627
229	0xbac21449	-0.0014807071
230	0xbc6a745a	-0.014309967
231	0x3ca83a8f	0.020535735
232	0x3d974f4f	0.07388174
233	0x3dd4b568	0.10386163
234	0x3d1bdefe	0.03805446
235	0x3d641caa	0.0556914
236	0xbdafb6c4	-0.08579782
237	0xbe16585a	-0.14682141
238	0xbe1d9405	-0.15388496
239	0xbd6602fb	-0.056155186
240	0x3cba8931	0.022770496
241	0x3dc4df1f	0.096128695
242	0x3d6f4675	0.058416802
243	0x3d056af8	0.032572716
244	0x3d8ef2f9	0.06979937
245	0x3ddb4ec0	0.1070838
246	0x3d9787b4	0.0739893
247	0x3dd5f472	0.10447015
248	0x3da9cc25	0.082908906
249	0x3ca64669	0.020297246
250	0x3c5e6e3d	0.013576088
251	0xbcc31bf8	-0.023817047
252	0xbcba443d	-0.022737617
253	0x3c669881	0.014074446
254	0x3c20008f	0.009765758
255	0xbd504b59	-0.050853107

hidden_layers.0.bias f4 [99]
0	0xbb9b08d2	-0.004731276
1	0xbcc8bd66	-0.024504375
2	0xbc206564	-0.009789798
3	0x3cb75ca9	0.022383051
4	0xbd0ed16c	-0.03486769
5	0xbcb59c0e	-0.02216914
6	0xbbfa08c4	-0.0076304395
7	0x3cc943d3	0.024568474
8	0xbc5d4507	-0.013505227
9	0xbd0e3722	-0.034720547
10	0xbbbb2e17	-0.0057122814
11	0xbcf7a031	-0.030227752
12	0x3cee58ef	0.029095141
13	0xbd172fd1	-0.036910836
14	0x3cd7b614	0.026331939
15	0x3c8fdd92	0.017561708
16	0x3c67d19b	0.014149095
17	0xbcb3de63	-0.021956628
18	0xbcabd728	-0.020976618
19	0x3af69174	0.0018811659
20	0x3cbda96d	0.023152078
21	0xbd23ade1	-0.039960746
22	0x3cbe102c	0.02320107
23	0xbbbcc724	-0.005761044
24	0x3cc680d2	0.024231348
25	0x3a1f25f9	0.0006071027
26	0x3d182e7d	0.03715371
27	0x3c22917f	0.009922384
28	0xbb9c6a0d	-0.0047733844
29	0x3ae2924a	0.0017286029
30	0xbbc0388e	-0.005866117
31	0xbcf8002b	-0.030273518
32	0x3caa3190	0.020775586
33	0xbcd13ae1	-0.025540771
34	0xbbbc2227	-0.005741376
35	0x397b5450	0.00023968634
36	0x3cb83b4b	0.02248921
37	0x3c6a2be8	0.014292695
38	0xbbe70d1f	-0.0070511247
39	0xbc195caf	-0.009360476
40	0xb9b6cbb6	-0.00034865522
41	0x3cab1dfb	0.02088832
42	0xbc590fe4	-0.0132484175
43	0x3c32c24c	0.010910582
44	0x3cb08f1a	0.021552611
45	0x3cc110a9	0.023567514
46	0xbca91580	-0.020640135
47	0x3b2dd618	0.0026525315
48	0x3c296867	0.010339833
49	0x3ca2d2e2	0.019875947
50	0xbc8e173a	-0.01734506
51	0xbc6f8d55	-0.0146210985
52	0xbbaf49dc	-0.005349381
53	0x3cb210e2	0.021736566
54	0x3bd5b110	0.0065213516
55	0x3c758c94	0.01498713
56	0xbcf6f412	-0.030145679
57	0x3cc41abe	0.023938533
58	0x3cf3502d	0.029701317
59	0x3bd3db8c	0.006465381
60	0x3ae18f50	0.0017208848
61	0x3d1b6d8f	0.03794628
62	0xbc691b7c	-0.014227744
63	0x3cef02c8	0.02917613
64	0x3a17a87d	0.00057852996
65	0x3d04743b	0.03233741
66	0x3b531eee	0.003221448
67	0xbb1dc0be	-0.0024071182
68	0xbb34ea15	-0.0027605344
69	0x3cbb97f4	0.022899605
70	0xbc1f0c1a	-0.009707475
71	0x3cf1f446	0.029535424
72	0x3caf5e88	0.02140738
73	0x3a5c82f4	0.00084118475
74	0xbcf134e1	-0.02944416
75	0xbcba46e2	-0.022738878
76	0x3cc2bcb8	0.023771629
77	0x3cdea678	0.027178988
78	0xbd022e6a	-0.031782545
79	0x3ca1334d	0.019677782
80	0x3beeb3df	0.007284626
81	0x3cdba0d1	0.026810082
82	0x3d040a27	0.032236245
83	0xbc60f9f1	-0.013731466
84	0x3cabe313	0.0209823
85	0x3c6df84e	0.0145245325
86	0xbbc5de19	-0.006038439
87	0xbc38b9f3	-0.0112748025
88	0x3bbfae89	0.0058496636
89	0x3c96f8dc	0.018429212
90	0x3ca665de	0.020312246
91	0x3cba297c	0.02272486
92	0xbc32f4ce	-0.010922624
93	0xbd19a250	-0.03750831
94	0xbd04cf4a	-0.03242425
95	0xbce3a79a	-0.02778988
96	0x3c30564d	0.010762763
97	0xbb7db80e	-0.0038714441
98	0x3c25b96c	0.010115009

hidden_layers.3.weight f4 [99, 99]
0	0x3d30351a	0.04301939
1	0xbd3ecc7f	-0.04658174
2	0x3d7552bf	0.059893366
3	0xbd1fcf22	-0.039015897
4	0x3d69a670	0.057043493
5	0xbdc4507c	-0.09585664
6	0x3db5c8a8	0.08876163
7	0xbded47fe	-0.11585997
8	0x3dd2835f	0.10278963
9	0x3d948d35	0.072534956
10	0xbca28cde	-0.019842561
11	0xbc60437e	-0.013687966
12	0xbd0b1be8	-0.03396216
13	0xbd6c9925	-0.057763238
14	0xbd3eabb9	-0.046550486
15	0xbc9e04fb	-0.019289484
16	0xbdbdcf6a	-0.09268077
17	0xbdc01cb9	-0.093804784
18	0x3db22714	0.0869886
19	0xbc821879	-0.01588081
20	0x3d3a228f	0.045443114
21	0xbc039d45	-0.008033101
22	0xbbeccc33	-0.007226491
23	0xbd64d493	-0.05586679
24	0x3c8f10a2	0.017463986
25	0x3be3c887	0.006951395
26	0xbdd6fcba	-0.104974225
27	0xbdb18f54	-0.08669916
28	0x3d715d89	0.058927093
29	0xbde536ef	-0.111921184
30	0xbd861f5f	-0.06548952
31	0xbd8aae9a	-0.06771584
32	0xbc100dad	-0.008792323
33	0xbca0eb2f	-0.019643394
34	0x3d9ce71e	0.076612696
35	0x3cc283eb	0.023744544
36	0xbdde2845	-0.108475246
37	0xbdc90163	-0.098147176
38	0x3db4f0a6	0.088349625
39	0x3d63651d	0.05551635
40	0x3c9bd6d0	0.019023329
41	0xbc533447	-0.012890882
42	0xbdc65c2d	-0.0968555
43	0xbc95cab8	-0.01828514
44	0xbbbfabd0	-0.005849339
45	0x3d7319cb	0.05935077
46	0x3da8a300	0.08234215
47	0xbd41b56c	-0.047292158
48	0x3d94fdf0	0.07274997
49	0x3bdcbacc	0.006736135
50	0x3c9496e4	0.018138357
51	0x3d16b1b1	0.036790553
52	0x3b4cc97d	0.0031248026
53	0x3d5903b9	0.052982066
54	0xbb1b02d3	-0.0023652806
55	0x3d2f94a5	0.042866368
56	0x3c849627	0.01618488
57	0x3d4eda33	0.05050106
58	0xbb09f893	-0.0021052703
59	0xbc9ae414	-0.018907584
60	0x3c7fdd12	0.015616672
61	0xbb8b9a10	-0.004260309
62	0x3d3196ab	0.04335658
63	0x3c99c698	0.018771455
64	0xbda7284d	-0.08161984
65	0x3d867fa7	0.065673165
66	0xbd4e1472	-0.050312467
67	0x3d143b4d	0.036189366
68	0x3ddf9639	0.109173246
69	0xbd8d0b4d	-0.06886921
70	0x3d31999e	0.04335939
71	0x3d8fcf92	0.07022013
72	0x3cc5d8b8	0.024151191
73	0xbd6ccbf1	-0.05781168
74	0xbd95886c	-0.07301411
75	0x3d944e9a	0.072415546
76	0x3dd99d19	0.10625667
77	0x3d229a6b	0.039698046
78	0x3c9aae27	0.01888187
79	0xbd721ba1	-0.05910838
80	0xbdbc25a9	-0.091868706
81	0x3b1e2aa2	0.0024134298
82	0xbd28a6be	-0.041174643
83	0x3da4d3ed	0.08048234
84	0x3da9b18a	0.08285816
85	0x3c06923c	0.008213576
86	0x3d3abd0e	0.045590453
87	0xbe047055	-0.12933476
88	0xbbbbc1fe	-0.005729913
89	0xbd6bfd97	-0.05761489
90	0x3d4137ad	0.047172237
91	0xbdc7ec21	-0.09761835
92	0xbb2a72b5	-0.0026008312
93	0x3ce69bdd	0.028150493
94	0xbd9490b1	-0.0725416
95	0x3cbd4912	0.023106132
96	0x3d8a64ad	0.06757484
97	0xbc1f47a4	-0.00972167
98	0xbdc7cc52	-0.09755768
99	0x3dd49ed5	0.10381857
100	0xbd268f44	-0.040663972
101	0x3c4d4758	0.012529217
102	0xbe02a962	-0.12759927
103	0xbdaa4658	-0.08314198
104	0xbcdf9218	-0.027291343
105	0x3d8c3ad0	0.06847155
106	0xbd31fb31	-0.043452445
107	0xbcdbbeb7	-0.026824338
108	0x3d2ca800	0.042152405
109	0xbd3fca46	-0.046823762
110	0x3d552c40	0.052044153
111	0xbbc16ca1	-0.005902842
112	0x3ac242f7	0.0014820982
113	0x3d491342	0.04909063
114	0xbe0221a8	-0.12708151
115	0x3d5c6478	0.053806752
116	0xbca2d5dc	-0.019877367
117	0xbca52871	-0.020160886
118	0xbc6a5e06	-0.0143046435
119	0xbdb5706b	-0.08859333
120	0x3d594c62	0.05305136
121	0xbd46208a	-0.048370875
122	0xbc9bc224	-0.019013472
123	0x3d46bdfe	0.048521034
124	0x3d05748a	0.032581843
125	0xbe193531	-0.14961697
126	0xbce40585	-0.027834663
127	0x3aafaaf1	0.0013402385
128	0x3d1e4359	0.038638446
129	0x3dbe6ceb	0.09298118
130	0x3db835c3	0.08994629
131	0x3cac4985	0.02103115
132	0xbd75abde	-0.05997836
133	0x3ddfb9d4	0.10924116
134	0x3da0ec9c	0.0785763
135	0xbd9b0862	-0.07569958
136	0x3c96e3b9	0.018419133
137	0x3de5bf18	0.11218089
138	0xbdc36763	-0.09541204
139	0x3df622fd	0.12018392
140	0x3d195df4	0.037443116
141	0x3d92a2a2	0.07159926
142	0xbd9260eb	-0.07147392
143	0x3c5b119e	0.0133708995
144	0x3ce24d15	0.027624646
145	0x3cd48ac7	0.02594508
146	0x3cb9776b	0.02263995
147	0x3d9cdc1f	0.07659172
148	0xbdd12453	-0.102120064
149	0xbcd3c19a	-0.025849152
150	0x3e0b71a8	0.13617575
151	0xbd94f99c	-0.07274172
152	0xbdbc9a95	-0.09209172
153	0xbc07e717	-0.008294842
154	0x3e039baa	0.1285235
155	0xbd5862f0	-0.05282873
156	0x3e0f3a0a	0.13986984
157	0xbcef9151	-0.029244097
158	0x3d871e80	0.06597614
159	0xbc888707	-0.016665949
160	0xbdc11cdb	-0.09429332
161	0xbc8f9803	-0.01752854
162	0x3be7b651	0.0070712944
163	0x3d8f83d5	0.07007567
164	0x3e27eb0d	0.16398259
165	0x3ca5a3cd	0.020219708
166	0xbd4b4bc1	-0.04963279
167	0xb9418634	-0.00018455909
168	0x3cb3b61e	0.021937426
169	0xbdbfa65f	-0.09357905
170	0xbdb60b7c	-0.08888909
171	0x3d87a921	0.06624056
172	0xbdab4b6a	-0.083639935
173	0xbdb3ff3b	-0.08788916
174	0x3dd4682a	0.1037143
175	0x3d75bb35	0.059992988
176	0x3ddd2729	0.10798485
177	0xbc6b89dc	-0.01437613
178	0x3d703f45	0.05865409
179	0xbd94f2e3	-0.072728895
180	0xbdac04e2	-0.08399369
181	0x3c2b79f7	0.01046609
182	0x3d101ed7	0.03518566
183	0x3b16bdb9	0.0023001267
184	0xbd0d7025	-0.034530777
185	0xbd001a5f	-0.03127515
186	0xbe23c51f	-0.15993164
187	0xbb6bb7af	-0.0035967638
188	0x3e07a557	0.13246666
189	0xbdb9a420	-0.090645075
190	0xbd43407a	-0.04766891
191	0x3d033ae5	0.032038588
192	0xbd4cebc2	-0.050029524
193	0xbbc6fe30	-0.006072782
194	0x3d213620	0.03935826
195	0xbd99601a	-0.07489033
196	0xbdb9bfa3	-0.09069755
197	0xbe023ae4	-0.12717777
198	0x3a612718	0.0008588894
199	0x3d14efb1	0.0363614
200	0x3d022988	0.03177789
201	0x3e2e634b	0.17030065
202	0x3d8a5806	0.067550704
203	0xbcd5c0a6	-0.026092838
204	0xbc3ffcf0	-0.01171802
205	0x3de49ca1	0.11162687
206	0x3c6ba9bc	0.01438373
207	0x3e23b2e6	0.15986213
208	0x3da65907	0.08122449
209	0x3dbc59da	0.09196825
210	0x3b996c79	0.0046821204
211	0xbb9bfc3a	-0.0047602924
212	0xbd8e6978	-0.0695371
213	0x3d73cb9c	0.05952035
214	0xbc1620a7	-0.009163058
215	0x3c03a74f	0.008035495
216	0x3d83a7b4	0.06428471
217	0xbce606f0	-0.02807948
218	0x3db31af9	0.08745379
219	0x3bbc8511	0.0057531674
220	0x3d2d5450	0.042316735
221	0xbc89fed0	-0.016845137
222	0x3b58b47a	0.0033066557
223	0x3db53056	0.0884711
224	0xbd21530a	-0.039385833
225	0x3d1df53e	0.03856396
226	0x3c331db8	0.0109323785
227	0xbde11a97	-0.109914
228	0xbd4a6b1a	-0.049418546
229	0x3cd1dd5d	0.02561825
230	0x3d6d5d24	0.057950154
231	0xbd8f3c35	-0.069939055
232	0x3d9032e8	0.070409596
233	0x3d6ffeb8	0.058592528
234	0xbcbdcddb	-0.023169449
235	0x3d9b6f9c	0.07589647
236	0xbc68364d	-0.014173103
237	0xbd72f57c	-0.059316143
238	0x3d54548d	0.051838446
239	0xbd13e177	-0.036103692
240	0xbd50000b	-0.05078129
241	0xbdd214c3	-0.10257866
242	0xbdb9f2c2	-0.090795055
243	0xbd367b45	-0.044551153
244	0xbd00d80f	-0.03145605
245	0xbd0e7389	-0.03477815
246	0xbd9c647d	-0.07636354
247	0x3d6c8d3f	0.05775189
248	0xbd988fbc	-0.0744929
249	0xbcf5ed67	-0.030020429
250	0xbd856192	-0.06512751
251	0xbd85951a	-0.065225795
252	0xbdfaede3	-0.122524045
253	0x3d4539bc	0.048150763
254	0x3d9c90b1	0.07644785
255	0x3c80dae3	0.015729373

hidden_layers.3.bias f4 [99]
0	0x3c9c307a	0.019066084
1	0xbd51d422	-0.051227696
2	0x3daf7cbe	0.085687146
3	0x3df68ceb	0.12038597
4	0x3c20a6b4	0.00980537
5	0x3da50de9	0.08059294
6	0xbcd495a8	-0.025950268
7	0x3cb3bf76	0.021941882
8	0x3dd1b070	0.10238731
9	0xbb84997d	-0.0040466175
10	0xbd863345	-0.06552748
11	0x3da879a1	0.08226324
12	0x3d58aeaa	0.052900948
13	0x3d834601	0.064098366
14	0xbdbfd510	-0.0936681
15	0x3db47f48	0.088133395
16	0x3db18c96	0.08669393
17	0xbd476832	-0.048683353
18	0xbd56e51a	-0.052464582
19	0x3d154a22	0.03644765
20	0xbdc8407f	-0.09777927
21	0xbd84135c	-0.06449005
22	0xbd1d05bd	-0.03833555
23	0x3db8f999	0.09031982
24	0xba7d672a	-0.0009666557
25	0xbda1d2e8	-0.07901555
26	0x3d0c98b9	0.034325335
27	0xbd3498ba	-0.044090964
28	0x3dd82f8e	0.10555945
29	0x3ccd4afb	0.025060168
30	0x3d88fd07	0.06688886
31	0xbd6c3104	-0.057663932
32	0xbce8dbe4	-0.028425165
33	0xbd806b75	-0.06270496
34	0x3dcf8274	0.10132304
35	0xbce4ccec	-0.027929746
36	0xbd970fb4	-0.07376042
37	0xbd88755a	-0.06663008
38	0x3dd55a8f	0.10417663
39	0xbcc24a6f	-0.023717133
40	0x3d241166	0.040055655
41	0x3d3f5fbd	0.046722163
42	0x3d506afb	0.050883275
43	0x3d819e37	0.06329005
44	0x3ddd0a3f	0.1079297
45	0xbd169743	-0.03676535
46	0xbd7d081d	-0.061775316
47	0x3d039459	0.032123897
48	0xbd0e4e77	-0.0347428
49	0x3dac23cf	0.084052674
50	0x3d80ce91	0.062893994
51	0x3d9d1116	0.076692745
52	0xbd9d7e36	-0.076900885
53	0xbdb5aa6d	-0.08870397
54	0x3d8e81e2	0.06958367
55	0x3d904d23	0.07045963
56	0x3d499144	0.0492108
57	0xbbc8c694	-0.006127188
58	0xbdce0d42	-0.100611225
59	0xbc71d6e9	-0.014760711
60	0xbdb142c8	-0.08655316
61	0xbd97973c	-0.074018925
62	0xbd0bfa6a	-0.03417436
63	0xbbd46a57	-0.0064824033
64	0xbda0cb2c	-0.07851252
65	0xbcd4d827	-0.025981976
66	0x3cefcaa6	0.029271435
67	0xbbab262a	-0.0052230554
68	0xbd8b2cf5	-0.06795684
69	0x3c30ebf3	0.010798442
70	0xbc0db1eb	-0.008648376
71	0xbd74addc	-0.059736118
72	0x3ca6832a	0.020326216
73	0xbd70d527	-0.058797028
74	0x3de5ce47	0.11220985
75	0x3d898b08	0.06715971
76	0x3d256d01	0.040387157
77	0x3b5d1480	0.0033734143
78	0xbd398317	-0.045291033
79	0xbdc39192	-0.0954925
80	0x3d26a598	0.040685266
81	0x3c31a65b	0.010842885
82	0x3dd1af6f	0.102385394
83	0x3da27560	0.07932544
84	0x3c34fd30	0.011046693
85	0x3dab166c	0.08353886
86	0x3d99f2e2	0.07517029
87	0xbd7f0ebc	-0.06226991
88	0x3d69d20b	0.05708508
89	0xbd7f4a97	-0.062326994
90	0x3ccfe6ed	0.025378669
91	0x3c6a93e9	0.014317491
92	0xbd3eb8e9	-0.046563063
93	0x3c85b3fa	0.016321171
94	0xbd57aedc	-0.052656993
95	0xbd89e7ff	-0.06733703
96	0x3d8d4112	0.06897177
97	0x3b1235e4	0.0022309953
98	0x3da3881b	0.079849444

output_layer.weight f4 [10, 99]
0	0x3dc52424	0.09626034
1	0x3cf7707c	0.030205004
2	0xbdc1af04	-0.0945721
3	0x3dbcab44	0.09212354
4	0xbe083a82	-0.13303569
5	0xbcc1b282	-0.02364469
6	0xbdb00a94	-0.085957676
7	0xbd262512	-0.040562697
8	0xbbd05062	-0.0063572386
9	0xbe4c51e2	-0.19953111
10	0xbd8ec595	-0.069712795
11	0xbc3e7364	-0.011624191
12	0x3dbf84df	0.09351515
13	0x3e13be73	0.1442812
14	0xbc3da1d6	-0.011574229
15	0x3d254442	0.0403483
16	0xbe1b5316	-0.15168414
17	0xbe3fa69a	-0.18715897
18	0xbcd1a9ed	-0.025593722
19	0x3e078188	0.13233006
20	0xbd4d83e0	-0.050174594
21	0x3c0cd7b8	0.008596353
22	0xbd34a0c8	-0.044098645
23	0x3d7c15f8	0.06154439
24	0x3dd3dabe	0.10344456
25	0x3e2dbbde	0.16966197
26	0x3d943734	0.07237092
27	0x3cbe9daf	0.023268549
28	0xbdaaa577	-0.08332341
29	0xbe3eb2d9	-0.18622912
30	0xbd32d7f5	-0.043662984
31	0xbd5f6150	-0.054536164
32	0x3e0997de	0.13436839
33	0x3de42515	0.11139885
34	0xbdae97d9	-0.085250564
35	0xbd25b36e	-0.04045432
36	0xbb8ce684	-0.0042999405
37	0x3e02878a	0.12747017
38	0x3dd15685	0.102215804
39	0xbe52a955	-0.20572408
40	0xbd97e56c	-0.074168056
41	0x3c46900c	0.012119304
42	0x3e180577	0.14845835
43	0xbe39bd31	-0.18138577
44	0x3d095d19	0.03353605
45	0x3da33d88	0.079707205
46	0x3d84bd94	0.06481472
47	0xbe000f46	-0.12505826
48	0x3dd5565a	0.10416861
49	0x3dbbada0	0.09163976
50	0x3df0a82b	0.117508255
51	0xbdca4c9f	-0.098778956
52	0xbe57612a	-0.21033159
53	0xbd29b38a	-0.041430987
54	0xbd65a46e	-0.056065015
55	0x3b82a3c6	0.0039868085
56	0xbc0b5abf	-0.008505522
57	0xbde407c2	-0.11134292
58	0xbdc9eba9	-0.09859402
59	0x3c88d977	0.016705258
60	0xbe4b68c0	-0.19864178
61	0xbd161254	-0.036638573
62	0xbe0bbffa	-0.13647452
63	0xbe1083fb	-0.14112847
64	0xbd11fbec	-0.035640642
65	0x3d8be1f7	0.06830209
66	0xbd131025	-0.03590407
67	0x3d8973dd	0.06711552
68	0xbdc3e8c7	-0.09565883
69	0x3e03af7f	0.12859915
70	0xbd95697b	-0.072955094
71	0x3d1f6065	0.03891029
72	0xbe17d9cf	-0.14829181
73	0xbde475c7	-0.11155277
74	0x3c50c238	0.012741618
75	0x3e07204c	0.13195914
76	0xbdda39a9	-0.10655529
77	0xbc703667	-0.014661408
78	0xbce0edad	-0.027457083
79	0xbe229f02	-0.15880969
80	0xbda5789d	-0.08079646
81	0xbd7ee668	-0.06223145
82	0xbe4a38a4	-0.19748169
83	0xbe23af39	-0.15984811
84	0xbdc28d28	-0.0949958
85	0xbdbe984b	-0.09306391
86	0x3d47f3f8	0.04881665
87	0xbdf2d59c	-0.11857149
88	0xbdeb06c3	-0.11475899
89	0xbdf680ad	-0.12036262
90	0xbc947610	-0.018122703
91	0xbdaa3a2d	-0.083118774
92	0xbd51c59e	-0.051213853
93	0xbe476983	-0.19473843
94	0xbc54e087	-0.012992985
95	0xbdfc4243	-0.12317326
96	0xbd7ac986	-0.061227344
97	0xbdb885ea	-0.09009917
98	0x3da04bee	0.078269824
99	0x3da06406	0.07831578
100	0x3d9c4cf0	0.07631862
101	0x3ddde57d	0.10834787
102	0xbe5d8aaa	-0.21634927
103	0x3c963529	0.018335896
104	0x3d54eeee	0.051985674
105	0x3d7e619e	0.062104814
106	0xbd8e914f	-0.06961309
107	0xbdab6a99	-0.08369941
108	0x3caa4bb5	0.020788053
109	0x3dc8b066	0.0979927
110	0xbdbe477e	-0.0929098
111	0xbd81862c	-0.063244194
112	0x3d710ed6	0.05885204
113	0xbe3f4322	-0.18677953
114	0x3dee1a84	0.11626151
115	0xbc649975	-0.013952603
116	0x3e0819d0	0.13291097
117	0x39807c06	0.00024506467
118	0x3de87e4a	0.11352213
119	0xbd55bd8b	-0.052182715
120	0x3e089b7a	0.1334056
121	0xbdb991a7	-0.09060984
122	0xbdeec472	-0.11658563
123	0xbdee95cf	-0.116496675
124	0xbd0744f3	-0.03302474
125	0x3e29d35a	0.1658453
126	0xbe08431c	-0.1330685
127	0x3d523a54	0.051325157
128	0xbb3abbf6	-0.002849338
129	0xbe0bffe5	-0.13671835
130	0x3d03618e	0.032075457
131	0xbd992eff	-0.07479667
132	0xbe11525b	-0.14191572
133	0x3defc5a5	0.117076196
134	0xbc2f4142	-0.010696711
135	0xbe920f38	-0.28527236
136	0xbe41c2a4	-0.18921906
137	0xbe3f82b9	-0.1870221
138	0x3df22778	0.11823934
139	0xbca8c972	-0.02060387
140	0xbbc84f3c	-0.006112961
141	0xbe133c09	-0.1437837
142	0x3ac01984	0.0014656042
143	0x3dad487e	0.084610924
144	0x3d70907f	0.058731552
145	0xbc4cf88f	-0.012510433
146	0x3df66e7f	0.12032794
147	0xbe0e9256	-0.1392301
148	0xbdbf0edd	-0.09329007
149	0x3c1876ce	0.009305669
150	0x3de04316	0.109502956
151	0x3ddfba2e	0.10924183
152	0x3c8deab6	0.017323833
153	0xbd8b51cc	-0.06802711
154	0xbd8267b9	-0.0636744
155	0xbbe3331b	-0.0069335825
156	0xbc2f73a3	-0.010708722
157	0x3d13aece	0.03605538
158	0xbe037546	-0.12837705
159	0xbd78eb9f	-0.06077158
160	0x3bbff93c	0.0058585685
161	0xbe0a8a49	-0.13529314
162	0x3d405050	0.046951592
163	0xbe379c55	-0.1793073
164	0xbe2086e9	-0.15676464
165	0xbd837b33	-0.06419983
166	0x3d22fe3a	0.03979323
167	0xbc93cb41	-0.018041255
168	0xbd81c1cc	-0.06335792
169	0x3cc9b008	0.024620071
170	0xbdc333b0	-0.09531343
171	0x3da71904	0.08159068
172	0x3e1d4caf	0.15361284
173	0x3d726c30	0.059185207
174	0xbc8e8305	-0.01739646
175	0xbdcc72fb	-0.09982868
176	0xbe0d2c04	-0.13786322
177	0x3d7d76fb	0.061881047
178	0xbe13d56d	-0.14436884
179	0xbe5e20c3	-0.21692185
180	0xbd873839	-0.066025205
181	0x3de9e2c7	0.114202075
182	0x3bf0665d	0.0073364214
183	0x3cded7bb	0.027202478
184	0xbd1f3c61	-0.03887594
185	0xbe2971c7	-0.16547309
186	0x3d8209f5	0.063495554
187	0xbdd35585	-0.10319046
188	0xbd13d049	-0.036087308
189	0xbdd704b2	-0.104989424
190	0xbdd98ec8	-0.106229365
191	0x3e2ad726	0.16683635
192	0xbd593fe9	-0.053039465
193	0xbd19b995	-0.0375305
194	0xbdc9d105	-0.098543204
195	0xbd8ed7d4	-0.0697476
196	0xbdc1d3ec	-0.09464249
197	0x3d7429ea	0.059610285
198	0xbd85ddac	-0.06536421
199	0xbe1dd098	-0.15411603
200	0xbe2f4c20	-0.17118883
201	0x3d4c1271	0.049822275
202	0x3df8ad63	0.12142446
203	0xbd338b7f	-0.043834206
204	0xbd3ea64d	-0.046545316
205	0x3d729a48	0.059229165
206	0xbc3ad58d	-0.011403454
207	0xbe545123	-0.20734076
208	0xbdb139bb	-0.08653589
209	0xbdb3572c	-0.08756861
210	0xbe4b76ac	-0.19869488
211	0xbc8de867	-0.017322732
212	0xbd9e073c	-0.077162236
213	0xba1a7bc5	-0.0005893077
214	0xbdfef188	-0.12448412
215	0x3d5282f6	0.051394425
216	0xbdf46e8f	-0.1193515
217	0xbb1c2162	-0.0023823609
218	0x3cde9a3c	0.027173154
219	0xbdbf50b1	-0.093415625
220	0xbeb23da5	-0.34812656
221	0xbe2b3bd2	-0.16722038
222	0xba8f42c9	-0.0010929938
223	0xbe290fd8	-0.1650995
224	0x3dd963e0	0.10614753
225	0x3e12c704	0.14333731
226	0x3d1cec2f	0.03831118
227	0xbd7fbc09	-0.062435184
228	0x3d957243	0.07297184
229	0xbde9b4fa	-0.11411472
230	0x3c890fb2	0.016731117
231	0x3be441eb	0.006965866
232	0x3df6b698	0.12046546
233	0xbd1db37c	-0.038501248
234	0xbdde8b05	-0.108663596
235	0x3de3e070	0.111267924
236	0xbd83622b	-0.064152084
237	0x3d4608ef	0.048348363
238	0xbe33d35b	-0.17561094
239	0xbcef5de3	-0.029219573
240	0x3ded2e06	0.11581044
241	0x3d3293d0	0.043597996
242	0xbd22895f	-0.03968179
243	0x3d5a615e	0.053315513
244	0xbb429fc0	-0.002969727
245	0x3e093270	0.13398147
246	0xbe111556	-0.14168295
247	0x3d88fd4a	0.06688936
248	0xbd2f28da	-0.04276357
249	0xbda12c2a	-0.07869752
250	0xbae26991	-0.0017273893
251	0xbd8b25f8	-0.06794351
252	0xbdf32780	-0.118727684
253	0xbd2ab5ea	-0.041677393
254	0xbdb22c3f	-0.086998455
255	0xbdb3fd31	-0.08788527

output_layer.bias f4 [10]
0	0x3c3e1c23	0.011603388
1	0xbd115e0c	-0.03549008
2	0x3d72a7d0	0.05924207
3	0x3b009928	0.0019622538
4	0x3d2b6c4a	0.04185132
5	0xbdeb2342	-0.11481334
6	0xbcb97ead	-0.022643412
7	0x3becc89d	0.0072260634
8	0x3dfcce8d	0.12344084
9	0xbd7d1893	-0.061791014
