Results/RandomResult1/best_model_weights.pt (torch, 358440 bytes, 4 tensors)

hidden_layers.0.weight f4 [112, 784]
00000000: df0c 343b a3d1 913b 213b 8dbb b501 013d
00000010: c920 91ba 776c 97bc 2ded a8bc 91e2 fc3c
00000020: 6f9c 823c ff37 d33c eaab 55bc 8454 143d
00000030: 49e5 cdbc b7bf f03b a9cc bc3c 4899 003d
00000040: 0bf6 f23c 1006 123d 3af7 453b b760 4dbc
00000050: afda a1bc b6b7 0dbc d7f4 b4bc 6573 013d
00000060: 981e ff3b ac01 023d 6b0a 1a3c e5f5 9cbc
00000070: f954 f6bc c8e6 053d 3f24 d4bc d3fc 88bc
00000080: d154 e9ba 7438 623c af10 c1bc dd58 973c
00000090: 0872 2ebb 3ff5 dc3c 1c5c 6ebc 30a1 cbbb
000000a0: edd0 01bd 6597 b03c 30bc 113d c512 a93c
000000b0: 4855 863c 9893 06bc f90b f9bb 912c 593c
000000c0: 2f14 cdbc 46ef 8c3c ec9e 983c 15f2 ab3c
000000d0: b7c2 2bbc 3bd5 f13c fbdf 7b3c bde1 31bc
000000e0: e163 013d fdf4 d23c d7b1 e9bc 796e b53c
000000f0: 77bf 02bd 22ac f9b9 b1c5 4cbc da02 02bd
00000100: f89c 343c da56 853c 959c 98bc 65ad 97bb
00000110: 9a57 863c 2df8 953c 121c 8d3c 613e 13bd
00000120: b04c 84bc 9078 44bd 7fb8 a6bc 28de eabb
00000130: 24dd 863c 64d9 3bbb 5fa1 ac3c 46e4 223c
00000140: 3e8b b2bc dacf 57bc 4d71 2e3b 71f1 4bbc
00000150: 57ef 463c 2b9a 91bc 7892 073d 7fbb 01bd
00000160: f1e7 b5bc 42f2 a6bc bc43 72bc cc6b 92bb
00000170: 104a 98bc 7805 653a 9168 1f3c 7b72 65bc
00000180: 27dc 50bc 206c 173c bf64 bfbc 70c6 22bd
00000190: 3ee1 83bc 916f 5ebd e30d 46bd 86cd adbc
000001a0: ce8f 23bd 17ec 1abc 8247 4ebc 36dc df3c
000001b0: aab2 fd3c 7f87 ba3c 0083 813b 438c ccbc
000001c0: 7b52 c2bc 53da b53c 39fb c0bb 500c 0b3d
000001d0: dd9a 67bc f91c 903c 92cd 0bbd f56e f9bc
000001e0: aeee 7f3c 1b81 0abd 12a6 0abd eaa9 f6bc
000001f0: 9e04 8dbc 4ceb b73c 54ec 9ebc d938 acbb
00000200: 2679 76bd 0532 04bd dc78 42bd 8b42 723a
00000210: ae6a 903c 91f9 333c 193f 1f3c e0ca 6fb9
00000220: 6ebd 103c 5c4b 1d3d 91dc 933b d83e f53b
00000230: d2de 0c3d 0965 dabc 5944 063d 2b80 b1bc
00000240: a693 70bb f56b bb3c 73dc 88bb 1c31 21bd
00000250: 2917 25bd e61f 36bc a1f4 503c f50c 42bc
00000260: 200a cabc 3511 9dbc e599 423d 49eb f53c
00000270: 0946 31bc 1cc4 fd3c a4f3 b33c cb4d 503d
00000280: bbc8 643d aee8 573d fa55 9e3d 34ac 6e3d
00000290: 6169 053d f199 013d 852d a73c 3987 063d
000002a0: 1d4b d83c a773 febc 1038 d6bc d44b 63bc
000002b0: d4e2 8fbb c9a9 08bd 2ece d8bc 4787 75bc
000002c0: f15a 84bb b178 013d d5f7 893c 247d bd3c
000002d0: e175 7b3d 3249 3b3c 4eda 993c f732 f8bc
000002e0: 1088 83b7 cf73 debb 51af 73bb c478 1c3d
000002f0: 5f24 a23d 64fd 6e3d b4d4 363d c25e e43c
00000300: 1154 1c3d b7ab 2d3d 7540 203c 3f8c af39
00000310: 3888 c7bb 0cce b7bb f86d ccbc ea68 d6bc
00000320: 940a ec3c fbd5 c73b 07b7 8ebb 90f0 5dbc
00000330: df6a 363d be5d ad3c 6320 09bd 85de c23c
00000340: aa8a 733c a69c 8f3d 248b 24bb bf72 6cbd
00000350: 0c96 c23b 7577 033d f6a6 933c dfbc 293d
00000360: 2e65 1c3d 282c 3b3d 5bff 0c3d 2a70 8c3d
00000370: 8a96 933c c811 053d d674 043d e661 3ebc
00000380: fa52 4fbc 37c2 193d d645 c73b 0888 b0bc
00000390: 68f6 053d 6a06 9bbc 6a8b 173b f2c4 cc3c
000003a0: eb69 313c e012 803b 038c 8ebd 72e9 a63c
000003b0: d4bc a23d e63b 503d 4553 fdbc f708 bfbd
000003c0: 34ec 9cbd 5408 72bc d28c 023d 431f b13c
000003d0: 885e 91bc f9cb 1d3d 53f3 8a3c 174a 203d
000003e0: 8dfd 1a3d af6e 543d 94d7 4f3c 4d74 b0bc
000003f0: b178 ef3c 4a0b 3fbc e7cd 953c df94 c63c
0.0027473492 0.0044500395 -0.004310027 0.03149577 -0.0011072393 -0.018484337 -0.020620907 0.030869754
0.015943734 0.025783537 -0.013041476 0.036213413 -0.025133746 0.007347073 0.023046808 0.03139618
0.029658338 0.035650313 0.0030207173 -0.012535266 -0.019757597 -0.008649757 -0.022089405 0.03160419
0.0077856295 0.031739876 0.009401898 -0.01916022 -0.030069815 0.032690793 -0.02589619 -0.016722118
-0.0017801767 0.013807405 -0.023567526 0.01847499 -0.002661826 0.026972411 -0.014548328 -0.0062142834
-0.031693388 0.021556566 0.03557986 0.020638833 0.016398087 -0.0082139 -0.007600304 0.013255254
-0.025034038 0.017203938 0.018630467 0.020989457 -0.010483435 0.029520622 0.015373225 -0.010857043
0.031589393 0.025751585 -0.028527183 0.022147404 -0.031920876 -0.0004762123 -0.012498305 -0.031741
0.011023752 0.016276766 -0.018629352 -0.0046288245 0.016399194 0.018306816 0.017225299 -0.03594816
-0.016149849 -0.04796654 -0.020351646 -0.0071675964 0.01646287 -0.002866351 0.021073041 0.00994212
-0.021794911 -0.013172114 0.0026617825 -0.012447701 0.012142024 -0.017773708 0.033098668 -0.03167295
-0.022205325 -0.02037919 -0.014786657 -0.004468417 -0.018590003 0.00087364716 0.00972952 -0.014004345
-0.012747801 0.009242088 -0.02336347 -0.039740026 -0.016098615 -0.054305617 -0.048353087 -0.021216165
-0.039932065 -0.009455702 -0.012590291 0.027326684 0.030968983 0.022769688 0.003952384 -0.024969226
-0.02372097 0.022198832 -0.005889323 0.03394729 -0.014136043 0.01759194 -0.034131594 -0.030448416
0.0156208705 -0.03381453 -0.033849783 -0.030110318 -0.017214116 0.022451065 -0.0193998 -0.0052558
-0.06017413 -0.032274265 -0.04747854 0.0009241483 0.017628994 0.010984794 0.0097196335 -0.00022868393
0.008834226 0.038401946 0.0045123775 0.007484298 0.034392186 -0.026659505 0.032780025 -0.02166756
-0.00367091 0.022878626 -0.00417667 -0.039353475 -0.04030529 -0.011116004 0.012753637 -0.0118439095
-0.024663031 -0.019173244 0.047510047 0.03001942 -0.01081992 0.030977301 0.021966763 0.05085544
0.055855494 0.052712135 0.077312425 0.058269694 0.0325712 0.03164095 0.020407448 0.032843802
0.026403004 -0.031061007 -0.02614978 -0.013873059 -0.0043910537 -0.033365045 -0.026465502 -0.014985866
-0.0040391614 0.03160924 0.016841808 0.02313096 0.061391715 0.011431025 0.018780854 -0.03029774
-1.5679776e-05 -0.006788708 -0.0037183354 0.03820111 0.079170935 0.05834712 0.044636443 0.027877215
0.03816611 0.04240009 0.009780993 0.00033483093 -0.0060892366 -0.0056092795 -0.024954781 -0.026173074
0.028813638 0.0060985065 -0.0043553147 -0.013546124 0.044535514 0.021162864 -0.033478152 0.023787746
0.014864603 0.070123 -0.0025107348 -0.057726618 0.005938297 0.032096345 0.01802395 0.041439887
0.03818243 0.045696408 0.034423213 0.06857331 0.018016119 0.03248766 0.032337986 -0.0116200205
-0.0126540605 0.037538733 0.006081323 -0.02154924 0.032705694 -0.018923957 0.0023123869 0.024996255
0.0108284755 0.0039085 -0.06960299 0.020374987 0.07946172 0.050838374 -0.030923495 -0.09327882
-0.0766224 -0.014772493 0.031872578 0.021621352 -0.017745271 0.0385246 0.01696173 0.039133158
0.03783946 0.05186337 0.012685675 -0.021539832 0.029232355 -0.011660406 0.018286658 0.02424091

hidden_layers.0.bias f4 [112]
00000000: d2b0 fe3c 85b9 6abc 92ad 973c fcb3 6bbc
00000010: 81cf 83bc ad2d 1dbd bc73 10bd f52b 73ba
00000020: 38ad c73c 31a0 32bc 9318 b6bc 1b6d 13bd
00000030: 44db d5bc 7d4f 053d e0e0 ac3c 7358 e0bc
00000040: ea3d 35bc 5977 87bc 131a 6b3c d1d0 9abc
00000050: 6365 01bd cf1b 2ebc 0b38 9b3c 6f58 f53c
00000060: 3c1a 02bd 87cd 543c 1a74 dab9 a767 1ebd
00000070: 410a b3bc 53cf d0bc e110 a0bc 7a0c 13bc
00000080: c7e3 03bc 0e0d 82bb 1040 92bb 4e54 273d
00000090: 8d72 f43c dc33 2bbc b674 8fbc b874 c53c
000000a0: 1266 d63c e7ba 12bd fe0a dbbc 088c 2f3d
000000b0: bdc8 cfbc 33da b9bc d260 f5bc ee17 973a
000000c0: 8bc6 113d 7e1a 09bd c81f 743c 5a3b cabb
000000d0: d583 dabc 1e5d 0d3c d7b6 abbc 01e5 fe3c
000000e0: cf66 f13b 068e 0c3d c645 9cbc b023 b83c
000000f0: 789a 963b d991 7dbc 7d9c d53c bebc fcbc
00000100: ff4f 0bbd 904a 11bd 9e50 98bc d416 44bc
00000110: fe72 ac3c 1b57 b3bc d50d 0a3c 63c4 f9bb
00000120: 8c52 e2bc 5b0b c73b bb1b 88bc a180 ce3a
00000130: 748f b93c 94ef bcbc 798d c3bc 55c4 28bc
00000140: 32a1 0b3c 1e73 89bc fd80 8e3c 02e8 cc3b
00000150: 94f9 3d3c 455e f0bc fccc b5bc 14df 843c
00000160: 1c2b 2c3d e657 3cbc b16e 9fbc e008 8e3c
00000170: 2c47 e2ba d1a4 d73c 557c 613c fa4b 77bc
00000180: 89e0 b03c c9f3 c4bb 28ce e8bc beed e7bc
00000190: 1df5 cdbc 083b f4bc bdac d23c b1bc e2bc
000001a0: e98a 16bd 82b7 f0bc 1b88 dabc 811e 083d
000001b0: 64ee b53c 5a33 eeba 129c b83b 1580 edbc
0.031090174 -0.014326458 0.018515382 -0.014386173 -0.016090157 -0.038373638 -0.035266623 -0.00092762645
0.02437459 -0.01090245 -0.022228515 -0.035992723 -0.02610553 0.03254651 0.021103323 -0.027385926
-0.011062125 -0.016536402 0.014349478 -0.0188984 -0.03159083 -0.010626747 0.018947622 0.029949395
-0.0317633 0.012988455 -0.00041666703 -0.03867307 -0.021855475 -0.025489485 -0.019539298 -0.008975143
-0.008049912 -0.0039688414 -0.0044632033 0.040851884 0.029839778 -0.010449376 -0.017511707 0.024103507
0.026171718 -0.035822775 -0.02673864 0.042858154 -0.025364274 -0.022687053 -0.029953394 0.0011527517
0.035589736 -0.03347253 0.014900155 -0.006171626 -0.02667419 0.008628158 -0.020961208 0.031115057
0.007366992 0.03431513 -0.01907624 0.022477955 0.004596051 -0.015476667 0.026075596 -0.030851718
-0.034011837 -0.0354715 -0.018593129 -0.011968333 0.021050926 -0.021892121 0.008426149 -0.007622288
-0.027627252 0.0060743517 -0.016614785 0.0015754887 0.022651412 -0.023063459 -0.02387117 -0.010300715
0.008522319 -0.016778525 0.01739549 0.0062532434 0.011595149 -0.029341826 -0.02219247 0.016219653
0.0420333 -0.011495566 -0.019461961 0.017338216 -0.0017263643 0.026323708 0.013762553 -0.015093798
0.021591442 -0.006010507 -0.028418615 -0.028311606 -0.025141293 -0.029813305 0.025717134 -0.027677866
-0.03675357 -0.029384378 -0.026676228 0.033232216 0.0222084 -0.0018173263 0.0056338394 -0.028991738

output_layer.weight f4 [10, 112]
00000000: e9e0 873e c15b 723d be19 27be ff5c e5bd
00000010: ccf7 bfbd 0b84 843e bffa 65bd b38f 273e
00000020: c78b 01bd 0b0b b73d 72bc 843d d4da 92bd
00000030: 29ca a4bd d36b a03d 7e9b 1abe a92b d3bd
00000040: f30c 933d 316d 193d bfad 32bd f41e 1abe
00000050: 975c 28bd 9aa0 bf3d cfe6 103e 3ba5 4f3d
00000060: 72d2 09be a762 cebc 4186 e33d b5b6 5f3e
00000070: e571 0a3c 4f6d 2f3d 8982 123e 0199 bebd
00000080: a0d7 d5bd d38a f0bc a9d3 1abe aa7e 983d
00000090: ce53 093e ffcb cd3d 0cae d8bd bae7 b83d
000000a0: 8ac2 d33d 3f84 363e 2b84 aa3d f365 52bd
000000b0: 4cf4 073e 1e0f d0bd d21d ee3d 574e 873d
000000c0: c10a 23be 2852 38be ddd1 fabd 6096 813e
000000d0: d739 54bd 2eb8 d5bd 64ae 8dbd 2262 593d
000000e0: 17ca a7bd 7de0 b23d 1d22 86bd e073 4f3e
000000f0: 218e 523d aa5e 613e 20df 71bd 59b4 a8bd
00000100: 47b6 3cbe 0648 0a3e c62d 243e f47e 56be
00000110: 1cd2 2ebe 4fb3 cd3d 0c57 c23d 9380 4dbe
00000120: 636e 603e fad0 173e 0d99 c63d f3de 293e
00000130: cd15 8bbe af1d 02be 09eb cb3d b31b 063e
00000140: e648 f9bd c908 17be a30b 223d 689f 263d
00000150: 5414 463c 3885 153e 7495 463e 9196 303e
00000160: 348e 733d 8752 473d e0e3 ef38 7fe8 e73c
00000170: 98e6 98bd 6326 aa3d 634e 62be c5b3 633e
00000180: 7c0b 083e 7049 82be 54c0 9a3c 43ed fb3d
00000190: bd52 82bd da60 913d f4f2 d63d 1daf ae3d
000001a0: deb6 d1bc 0ce6 3a3e 425a ef3d 1db4 d83d
000001b0: 8259 78be f506 4a3d 804c d2bd d9a4 1cbe
000001c0: 706a 243d eaab 8abc fc42 6f3e ecc7 b1bd
000001d0: 3ce8 82bc 7bb3 6e3d 72a3 44bd c0b8 52be
000001e0: 5f2a 43be 6e82 d7bd 14cc 083d 6143 2b3e
000001f0: c52c 343e 3ae9 103c 8739 20be 36fe fbbd
00000200: a649 d2bd db56 71bd 9448 3e3e ff4d 5c3d
00000210: a6e7 183e 365e e8bd 9e12 1dbe 6eb8 073e
00000220: 40e1 273e b8af f0bd 6a10 68be 4bfc e1bd
00000230: a7cc 2c3e 419a 873d 8bc4 213e 05e3 113c
00000240: c40e 453e 8086 863c 7246 513e b9dd 40be
00000250: 36cc 223e 7336 2abe 54d6 28be 2279 053e
00000260: 67ab 23be ded5 64bd fe67 853d 9bd4 43be
00000270: e5ba 8d3d fe8b 5a3e 1a81 18be d8e6 10be
00000280: abc0 f13d 8913 8c3d fa90 4c3c 8b7a 10be
00000290: 37f9 ee3d f558 b5bd 53c2 3dbe 3432 23be
000002a0: 5ab8 efbd ced5 413d de39 f23d 009f afbd
000002b0: 6a09 33bd 54ee 6cbd c3bb 583e cd38 083e
000002c0: 7fdb 413e e0f5 36be d8f6 2fbc 6495 58be
000002d0: 263b 963d 7da9 3c3d 23cb 43be b41f 2d3e
000002e0: bce1 ebbd 9ce5 17be 5e20 c63d 4eaf 32be
000002f0: dd14 a03d 1a72 bebc 5da1 3bbd 351d f5bc
00000300: 9c82 b7bd 19d5 e53d bb29 0ebd bbf5 8d3b
00000310: 89a9 bbbd 6cae 09bd 16a9 27be 2dc6 e93d
00000320: 89ef 5ebe fa52 cbbd 766a 93bd 34d4 f33d
00000330: f111 853e a60c b3bd 4b46 3bbe f381 c5bd
00000340: 638c 0dbe 8fdd 09be 749b 11be b51f 66be
00000350: 8501 b4bd 44a5 a53b 9b99 efbd f27b 2abe
00000360: c1ce 553e 8055 e43d 030f 383d db7d 28be
00000370: d9db f8bd acb3 0d3e 3208 6d3e 2e38 303c
00000380: 9988 303c 7920 fe3d 5910 513e 5681 013e
00000390: 2e58 a0bb d0c8 1f3d aa05 2bbd 9ed8 dd3c
000003a0: 8a55 8abd 57ff e83d f8c8 2fbe 4148 41be
000003b0: 68da 1d3e ea5d b13d d7dc 563e fd37 dbbd
000003c0: ea28 973d d03a 79bd 54fc 383e fc19 c63d
000003d0: 5526 3fbe 6154 04be 1f49 4dbe 4265 1bbd
000003e0: 4b7d 42be 4e05 19be c0ba e73d 8f1b e0bd
000003f0: 4358 f7bd 021a be3d 4bf6 1cbe 404d 55be
0.2653878 0.059169535 -0.16318414 -0.11199378 -0.093734354 0.2588199 -0.056147333 0.1636341
-0.031627443 0.08937653 0.064812556 -0.071706444 -0.080463715 0.07833066 -0.15098378 -0.10311062
0.07180204 0.03745765 -0.04362273 -0.1505087 -0.041103926 0.09356804 0.14150546 0.050694685
-0.13459185 -0.025193525 0.11109591 0.21847041 0.008450006 0.042828854 0.14307608 -0.09306527
-0.10441518 -0.029363072 -0.15119804 0.07446034 0.13410875 0.10048675 -0.10580072 0.09028573
0.1033984 0.17823885 0.0832599 -0.051366758 0.13276786 -0.101591334 0.116267815 0.06606739
-0.15922071 -0.1800009 -0.122470595 0.2531004 -0.051812973 -0.1043552 -0.06918028 0.053072102
-0.081928425 0.08734224 -0.06549475 0.20259047 0.051405076 0.22008768 -0.05905068 -0.082375236
-0.18428908 0.13504037 0.16033086 -0.20946866 -0.17072338 0.10043966 0.09489259 -0.20068578
0.21917109 0.14825812 0.09697161 0.16588955 -0.2716507 -0.12706636 0.09956939 0.13096504
-0.121721074 -0.14749445 0.03956188 0.040679365 0.012089808 0.146016 0.1939295 0.17244937
0.059461787 0.04866269 0.00011438853 0.028309105 -0.07465857 0.08308103 -0.22100215 0.22236545
0.13285631 -0.25446653 0.018890537 0.123011135 -0.06363437 0.07098551 0.104955584 0.08529494
-0.025599893 0.18251818 0.11687137 0.10581229 -0.24252895 0.04932304 -0.102684975 -0.1529726
0.04014057 -0.016927678 0.23365396 -0.0868071 -0.015979879 0.058276635 -0.048007436 -0.20578289
-0.19059132 -0.10522924 0.03339775 0.16724922 0.17595203 0.008844668 -0.15646945 -0.12304346
-0.102679536 -0.058920722 0.18582374 0.05378532 0.14932117 -0.11346094 -0.15339133 0.13253948
0.1639452 -0.11752266 -0.22662511 -0.11034449 0.16874944 0.066212185 0.15797631 0.008904223
0.19243914 0.016421556 0.20437029 -0.1883458 0.15898213 -0.16622333 -0.1648801 0.1303449
-0.15983354 -0.055868022 0.065139756 -0.19124071 0.06920413 0.21342465 -0.14892998 -0.1415056
0.118043266 0.068396635 0.012485737 -0.14109246 0.11668628 -0.08854858 -0.1853116 -0.1593712
-0.11705084 0.04732304 0.118274435 -0.08575249 -0.04371015 -0.057844475 0.21165375 0.13302918
0.18931387 -0.17867231 -0.0107400045 -0.21150738 0.073355004 0.046060074 -0.1912046 0.16906625
-0.11517665 -0.14833683 0.09674142 -0.17449686 0.07816479 -0.023247767 -0.045808185 -0.029921154
-0.08960459 0.11222286 -0.034707766 0.004332272 -0.09163196 -0.033613607 -0.16373095 0.11414752
-0.21771063 -0.09927936 -0.0719804 0.11905709 0.2599025 -0.08742647 -0.18288533 -0.096439265
-0.13823085 -0.13463424 -0.14219457 -0.22473033 -0.08789352 0.0050551016 -0.1169922 -0.16648844
0.20879652 0.1114912 0.04493619 -0.1645426 -0.121513076 0.1383807 0.23147658 0.010755582
0.010774755 0.124085374 0.20416392 0.12646994 -0.0048933243 0.03900987 -0.04175345 0.02708083
-0.067545965 0.11376827 -0.17166507 -0.18875219 0.15415347 0.08660491 0.20982681 -0.10704038
0.073808506 -0.060847104 0.18065006 0.09672925 -0.18666966 -0.12922813 -0.20047425 -0.037938364
-0.18993108 -0.1494343 0.113149166 -0.109427564 -0.120773815 0.09282304 -0.15328328 -0.2083025

output_layer.bias f4 [10]
00000000: 2b4b dbbd 4d51 bfbd bf2f b93c 155a 8f3d
00000010: 32eb f5bc a5cb 94bc e535 623b 718e e73c
00000020: 79b1 153c 336d a4bd
-0.107076965 -0.09341679 0.022605775 0.06999604 -0.030019376 -0.018163512 0.0034516987 0.028266164
0.009136551 -0.080286406
