Results/GeneticResult3/best_model_weights.pt (torch, 532228 bytes, 8 tensors)

hidden_layers.0.weight f4 [126, 784]
000000 4e ef 1e 3d 7a 0f 24 bc e2 13 e9 bc a4 2c 47 bc
       0.038802437 -0.0100134555 -0.028451864 -0.012156639
000010 a8 46 83 3c 0a 36 e9 bc 90 09 54 3c 6d a1 f0 3c
       0.016024902 -0.02846815 0.012941733 0.029373849
000020 84 d2 d6 bc 6b 8c d4 bc f3 02 cf 3b f7 98 84 ba
       -0.026223429 -0.025945863 0.0063174902 -0.0010116388
000030 ab e6 53 bc a8 bb ae bb 0d e2 ed bc 82 80 ca 3c
       -0.0129334135 -0.005332429 -0.029038453 0.02471948
000040 e4 b6 85 bc 0f a8 ec 3c 40 68 d2 bc 22 5e a3 3b
       -0.01632256 0.02888873 -0.025684476 0.0049855867
000050 74 12 dd bc 8c dd 05 3d 98 f2 d7 3c f7 d1 ae ba
       -0.026986338 0.032681987 0.026360795 -0.0013337721
000060 8e 10 1d 3d c6 eb 3a 3c a7 aa d7 bc 2f e1 df bc
       0.038345866 0.011408752 -0.02632649 -0.027329056
000070 7f 84 0e 3d bf 9a f9 3a 7e f1 63 bc ed e0 ec bc
       0.034794327 0.001904331 -0.013912557 -0.028915847
000080 c6 38 df 3c cf a3 16 3c fb 15 ad bc 88 71 cd 3c
       0.027248751 0.009194328 -0.021128645 0.02507855
000090 83 7d 28 bc 2f 03 84 bc 17 9c 7e bc 48 59 18 bc
       -0.010283831 -0.0161148 -0.015540144 -0.00929863
0000a0 ea 1f fa bc 6b 54 d6 bc 4b 64 bf 3c 43 ea b8 bb
       -0.030532796 -0.0261633 0.023363253 -0.0056431605
0000b0 98 15 21 3d 44 07 b9 bc 8b 13 64 3c b9 70 72 3c
       0.039327234 -0.022586472 0.013920675 0.014797383
0000c0 f7 7d 02 3d 1c 99 45 bc ed 74 46 3b de 37 12 3d
       0.03185841 -0.01206043 0.0030282096 0.03569781
0000d0 1d 84 31 3c 52 81 df 3c 5c b5 1d 3c e2 24 02 bd
       0.010834721 0.027283344 0.009625759 -0.031773455
0000e0 56 de 48 bc 43 7c 07 3d d3 40 1d 3c 2d cf bd 3c
       -0.01226004 0.03307749 0.009597975 0.023170078
0000f0 1b 98 ae bc 9c 73 ad 3a c7 69 7b 3c d7 e9 32 bc
       -0.021312764 0.0013233307 0.0153450435 -0.01092001
000100 e2 6f a6 3b d8 84 83 3c 30 f0 ba bc 12 91 b5 bc
       0.0050792554 0.016054556 -0.022819608 -0.022163901
000110 64 53 09 3d f4 9b 2e 3b 29 bf 13 bc 70 f0 1f 3d
       0.033526793 0.0026643248 -0.009017744 0.03904766
000120 37 d1 fd b9 d3 71 08 3d 67 ef f2 3c b7 a1 1a 3d
       -0.00048411798 0.033311676 0.029655172 0.03775188
000130 e5 86 7c 3c bf f4 c3 3c e6 59 c3 3b 1d 58 72 bc
       0.015413021 0.023920415 0.0059616445 -0.014791516
000140 94 89 d1 bc c8 e4 01 bd 2c ea f8 bc 45 57 b0 3b
       -0.025578298 -0.031712323 -0.0303851 0.005381497
000150 e6 b6 6f bc cd d1 cb bc 48 bb f8 3c 47 11 e1 bc
       -0.014631009 -0.024880314 0.03036274 -0.027474059
000160 a4 83 99 bc b6 80 3d 3b 94 09 25 bb 35 ae 5e 3c
       -0.018739529 0.002891583 -0.002518271 0.013591339
000170 10 98 19 3d 13 9f bf bc 4d 5b 03 3c bd 73 18 3d
       0.037498534 -0.023391282 0.008017373 0.03721975
000180 5b f9 18 3d ae 69 8e 3c e8 80 d9 bc 8b f7 24 bc
       0.03734718 0.017384376 -0.026550725 -0.0100687845
000190 c0 f1 25 3c d3 e5 00 3a e1 c9 e1 3c d0 7b 84 3c
       0.0101284385 0.0004917059 0.027562084 0.01617232
0001a0 f9 35 e4 bc 8c f0 15 3d bd 64 b6 3b 23 a6 1a bc
       -0.027857767 0.036606357 0.005566208 -0.009439024
0001b0 22 6e cc bc 51 8f 3b bc bd cc bf 3c cd 49 e8 3c
       -0.02495486 -0.0114477435 0.023413057 0.028355503
0001c0 ad 80 30 bc c1 d3 02 3d e2 28 7f 3c db b5 b7 3c
       -0.010772866 0.031940226 0.015573712 0.022425583
0001d0 ab e1 df bc 3d 9c ad bc b0 ff 8d bc 2c d1 a3 3c
       -0.027329287 -0.021192664 -0.017333835 0.019997202
0001e0 d1 dc 9b bc e0 88 05 3d da b9 24 3c 88 92 e4 bc
       -0.019026192 0.032601237 0.010054076 -0.027901903
0001f0 98 ff d5 3c c9 74 35 bc be 60 ff 3c 8f 9a ef bc
       0.026122853 -0.011075207 0.03117406 -0.029248504
000200 8c 2d c1 3c fd 12 28 3d 13 2d 34 3c 22 13 1a 3d
       0.023581289 0.041033734 0.010997075 0.037615903
000210 f3 e6 e6 bb 7e d0 e0 bc a5 f6 00 3d d3 06 02 3d
       -0.0070465743 -0.027443167 0.03148522 0.03174479
000220 f9 1b 05 bc 70 4f dd bc 9e be 45 3c 92 8b ad bc
       -0.008124345 -0.027015418 0.012069372 -0.021184716
000230 ca 00 5d 3b 4e 85 9b 3c 1d a4 e8 3c 4d 36 b6 3c
       0.0033722394 0.018984463 0.028398568 0.02224269
000240 9f 8c f1 3c 91 ab fb 3c 96 1b 31 bc ce d2 8f 3c
       0.029485999 0.030721458 -0.0108098 0.017556574
000250 2b fd 46 3c 98 0b 1e 3c 82 4b e0 3b fd 41 41 bc
       0.012145321 0.009646319 0.0068449387 -0.011795518
000260 99 ed bf 3c dc d6 9b 3c 96 d3 b5 bc 52 71 80 bc
       0.023428725 0.019023351 -0.022195619 -0.015679035
000270 ac 18 a0 3c 1c cb c0 bb 57 5c 04 3d 6a 93 a4 bb
       0.019543014 -0.0058835875 0.032314625 -0.005022456
000280 f9 6b e8 3c a6 ab 11 3d 54 98 2a 3d a9 89 0d 3c
       0.028371798 0.035564087 0.041649178 0.008638778
000290 a9 cd d9 bc 9f f7 d1 bc ee 2e 1a 3c 3b 10 a9 3c
       -0.026587324 -0.02563077 0.009410603 0.020637622
0002a0 cf 57 02 3d d7 0d a5 bb be ac 8c 39 a3 e6 06 3a
       0.031822022 -0.00503705 0.00026831584 0.0005146062
0002b0 13 91 29 bc 01 4b f5 3c ac 71 e4 bb 75 3b 6f bc
       -0.01034953 0.029942991 -0.0069715586 -0.014601578
0002c0 95 fc 06 bd 92 11 95 bc 46 19 51 ba 66 c0 74 bc
       -0.032955725 -0.018196855 -0.00079764833 -0.0149384495
0002d0 3b 68 32 3c 37 db 0d 3d c5 69 68 3c 38 b5 fc 3c
       0.010889108 0.034632888 0.014185374 0.03084813
0002e0 ac e8 a7 bc ad 4d 9d 3c ff a1 17 bc 40 b9 8c bc
       -0.020496689 0.019202078 -0.0092549315 -0.017178178
0002f0 f5 c8 99 3c 13 eb cd 3c ac 58 a8 3b d3 34 ce 3b
       0.018772582 0.025136506 0.0051375236 0.006292918
000300 e5 f1 f0 bc b9 ff 95 bc 4b 2b cf 3c 6a cc fe 3b
       -0.02941222 -0.018310415 0.025289198 0.007775833
000310 dd 65 bf bc 56 73 98 bc 9b 24 c8 3c 33 f8 b1 3b
       -0.023364002 -0.018609684 0.024431517 0.005431199
000320 fb 7c d1 3c b8 10 85 3b d4 e2 eb 3c d9 91 a5 ba
       0.02557229 0.004060831 0.028794684 -0.0012631967
000330 2c 67 20 3c 38 51 92 bb 67 02 db 3c 14 3e 00 3d
       0.009790223 -0.0044652484 0.026734544 0.031309202
000340 4b a4 e0 b9 4c 55 f5 3c fe 7f 8a 39 72 f1 c5 3c
       -0.00042847017 0.0299479 0.00026416773 0.024162982
000350 5e e4 d5 3b 4a b7 86 bc a4 08 aa 3c 8f 83 9c 3b
       0.0065274676 -0.01644482 0.020756073 0.004776425
000360 f5 d9 9b 3c ba 11 d9 bc 14 47 3c 3c 36 03 17 3d
       0.019024828 -0.02649771 0.011491556 0.036868297
000370 4a 29 02 bc 3f b2 c9 3c f3 75 07 3b 34 ec 81 3b
       -0.007944414 0.024621127 0.0020669668 0.003964925
000380 26 76 b7 bc 5b d4 34 bc b9 dc 9d bc 7e 5c 15 3d
       -0.022395205 -0.011036958 -0.019270288 0.03646516
000390 b2 8c 01 3d 63 bd f3 bc 7f d9 12 bc 92 a7 b2 3c
       0.031628318 -0.029753393 -0.008962988 0.02180842
0003a0 ba e1 b5 3c c4 ba 55 bb bd 83 c5 bc 7f 0a 85 3c
       0.022202361 -0.0032612542 -0.02411067 0.016240356
0003b0 88 71 03 bd d6 c0 71 bb 80 e4 e6 3b 63 35 b7 bc
       -0.032090694 -0.003688862 0.0070462823 -0.022364324
0003c0 7b 25 1f bc 33 18 14 bd 89 68 1c bd 3b 35 e2 3c
       -0.009713526 -0.03615589 -0.03818563 0.027613273
0003d0 1c f6 53 3c e5 04 43 bc aa ca 26 3d bf d4 37 bc
       0.012937095 -0.011903022 0.04072062 -0.011220156
0003e0 a4 16 29 3c df b7 2e 3c f5 54 a0 3c ea bf 46 bc
       0.010320339 0.0106639555 0.01957176 -0.012130717
0003f0 bf 19 c3 3c b2 94 d1 bc 7d 64 10 3d 51 42 92 ba
       0.023815988 -0.025583599 0.035252083 -0.001115868

hidden_layers.0.bias f4 [126]
000000 fd 69 3e 3c 12 91 df 3c 1e f0 ab 3c 28 92 c6 3c
       0.011621949 0.027290855 0.02098852 0.024239615
000010 0a eb 17 bc 09 b4 8b bb 9c 2b 84 bc 13 05 67 bc
       -0.009272346 -0.004263405 -0.016134076 -0.014100331
000020 11 55 a0 3c 2e bc ec bb ea 16 50 bc e9 61 40 bd
       0.019571813 -0.007224581 -0.012700776 -0.046968374
000030 05 d6 e2 3b a3 ab 07 3c 55 5f eb bc cb 5d 06 bd
       0.006922486 0.0082806675 -0.028731981 -0.03280429
000040 05 05 dd 3c dc a3 43 3c 78 f4 96 bc 9e 80 17 bc
       0.026979933 0.011940923 -0.018427119 -0.009246973
000050 d7 61 f9 3a 58 96 ef 3c c7 01 e2 3c ec 3e e5 3c
       0.0019026351 0.029246494 0.027588738 0.027984105
000060 5f 60 c8 3b 83 db 32 3c 9a 8b dd bc 49 de b5 3c
       0.006115004 0.0109165935 -0.027044106 0.02220072
000070 14 34 de 3b 81 84 ab bc fd 2b 15 bd d1 07 f2 3c
       0.0067811105 -0.020937206 -0.036418904 0.029544743
000080 d3 20 4e bc d3 a3 65 3c e4 a9 f1 3c 33 49 79 3c
       -0.012581068 0.0140161095 0.029499955 0.015215206
000090 e1 72 b4 3c 7a 16 36 3c 8c 3c fd bc 94 a3 a1 3c
       0.022027435 0.011113757 -0.03091266 0.01973132
0000a0 7c 3a d7 3b db d2 d8 bc 02 29 0c bd 8e 97 a9 3c
       0.006568251 -0.026467731 -0.034218796 0.02070215
0000b0 4f 68 4e bc b2 dd 13 3d 85 1e b5 3c df fe 76 bc
       -0.012598111 0.036100097 0.02210928 -0.015075414
0000c0 54 ed 9e bb 5b 52 88 bc c3 85 a2 bb 36 50 e3 3b
       -0.004850069 -0.016640833 -0.0049597933 0.006937052
0000d0 d9 59 c8 bc 9e 13 93 ba 2d 90 23 bd 1e c7 a2 bc
       -0.024456905 -0.0011221056 -0.03993242 -0.019870337
0000e0 75 22 d7 bc 07 b5 8b bc df 62 e9 3c 7b 9c 18 bd
       -0.026261548 -0.017054094 0.028489528 -0.037258606
0000f0 9c 80 18 3d b7 c8 5e 3b d0 7b b2 bc e2 9f a9 3b
       0.037232026 0.0033994147 -0.021787554 0.00517653
000100 32 87 88 3c 38 f4 e5 3c 59 dd 9e 3c b4 6a 13 bd
       0.016666029 0.028070554 0.019392656 -0.035990432
000110 f1 b8 ce bb 8e db 1a bd 5e 0d 19 bd e4 25 2e bc
       -0.006308668 -0.03780704 -0.037366264 -0.010629151
000120 9b f4 ce 3b 82 d8 e8 bc 18 f5 99 3b da fc b0 bc
       0.0063157803 -0.028423551 0.004698407 -0.021604944
000130 82 53 e7 3c a0 e2 f6 3c fe ae 32 3c f5 bc 30 bd
       0.028238062 0.03013736 0.010905979 -0.043148953
000140 87 b8 d7 bc 56 be 9b 3c 4b e8 67 3c c3 7f b1 3c
       -0.026333107 0.019011658 0.014154504 0.021667367
000150 06 55 27 bc 2b 96 8e bc 59 ce 1d 3d 2b f1 69 bc
       -0.010213142 -0.01740559 0.038526867 -0.01427869
000160 8f ae 3a bc e0 82 9c 3c 5f 98 ad 3b 1a 1b cc bc
       -0.011394157 0.019105375 0.005297705 -0.024915267
000170 12 a2 a7 bc 2c c1 22 3c e0 db 80 3b d6 55 bd 3b
       -0.020463023 0.009933751 0.003932461 0.0057780547
000180 f6 85 28 3c 68 bc b8 bc c2 92 07 3c 3b e4 04 bd
       0.010285845 -0.022550777 0.008274736 -0.03244422
000190 16 37 92 bc af 70 dd 3c 30 5c 83 bc 6d 1b 08 bd
       -0.017848533 0.02703127 -0.01603517 -0.03322928
0001a0 dc aa 8d bc 68 da 84 bc 61 f5 1f bd dc 65 f3 bc
       -0.017293386 -0.016217425 -0.03905237 -0.029711656
0001b0 4c 3d 98 3c 29 79 bb 3c b1 59 ca 3c ca 20 97 bc
       0.018583916 0.022884922 0.024700971 -0.018448252
0001c0 fd 2e cd 3c 6f 40 48 bc 06 82 ac 3c 9f 63 05 bd
       0.02504682 -0.012222393 0.021058094 -0.03256571
0001d0 30 f6 1f bd c8 93 61 3b 7a 69 48 3b 7c b7 18 3d
       -0.039053142 0.003442036 0.0030580447 0.03728436
0001e0 56 7a f1 bc f3 15 0d bd e3 61 8c bc de d1 45 bb
       -0.02947728 -0.03444476 -0.01713652 -0.0030184905
0001f0 5c a6 60 3c 94 68 1f 3b
       0.013711538 0.0024323808

hidden_layers.3.weight f4 [126, 126]
000000 3d f7 b4 bc 76 08 d8 3b b5 de 83 bb 5f f7 9c 3d
       -0.022090549 0.0065928055 -0.0040243515 0.0766437
000010 92 2b 91 3d 4f 9b 33 3d f5 a8 0d bd d4 c2 a2 3c
       0.070883885 0.043849286 -0.034584958 0.019868292
000020 fb d3 a2 bd 66 4c 23 3d 85 01 fc bd 3f 9c a0 3d
       -0.07950588 0.03986778 -0.12304977 0.078423016
000030 5b e9 b6 3d ed 48 bc bc 46 67 68 bc 92 9e 8d bd
       0.08931228 -0.022983992 -0.014184779 -0.069150105
000040 03 39 fb 3b 65 e4 8f 3b a6 2c b3 3d fb ec 01 be
       0.0076667084 0.0043912404 0.087487504 -0.12688057
000050 98 57 1c 3d dd d5 f1 bd b3 09 9c bc 71 2a 0d 3d
       0.038169473 -0.11808369 -0.019047594 0.034464303
000060 b3 7f 13 3d 4a 76 86 bd a4 31 35 bc 3e f3 e1 bc
       0.036010455 -0.065655306 -0.0110591985 -0.027581807
000070 ee bb b2 bc f4 e8 a4 3b d5 fc d2 bd 1e 7f 82 bc
       -0.021818127 0.005032653 -0.1030213 -0.015929755
000080 a1 a7 dc 3b 73 f7 a3 3d 2f e9 59 bb 27 71 3e 3d
       0.00673385 0.080061816 -0.003325056 0.04649463
000090 80 e4 b5 3d c4 8f 9f 3d 3d 6e 98 3c de cc a9 bd
       0.088814735 0.07791093 0.018607253 -0.082910284
0000a0 f5 ad af 3d 85 71 3d 3d 71 aa a3 3d 60 d1 02 3e
       0.085781015 0.04625084 0.079914935 0.12775183
0000b0 61 9c 11 3d 98 20 84 bd 2f 78 2f 3d 33 9c 26 3d
       0.035549525 -0.06451529 0.042839225 0.040676307
0000c0 fe d1 92 bc db 4a 87 bd e9 c9 70 3d 77 d7 37 bc
       -0.017922398 -0.066060744 0.058786307 -0.011220804
0000d0 b3 6d 13 3d 82 a3 ab 3d 58 6d 1c bc 06 f2 ab 3d
       0.03599329 0.08380796 -0.009547554 0.08395772
0000e0 c5 af b0 3d 94 5c 03 be 07 9e ae 3d b6 79 e1 ba
       0.086272754 -0.12828285 0.08526235 -0.001720241
0000f0 61 3b c3 bb 62 11 d0 3c 4e 1a d6 bc b7 1f 97 3b
       -0.0059580063 0.025398914 -0.02613559 0.004611935
000100 f9 5b 01 3d f4 49 d9 bc 10 47 79 bd 4d b0 34 3d
       0.031581853 -0.026524521 -0.060858786 0.044113446
000110 af 4e cc 3b 0f 47 e5 bc 57 de 81 3d c2 ee c4 3d
       0.0062349658 -0.027987985 0.06341236 0.09615852
000120 8c c3 1b 3d c9 06 af 3c cc aa 84 bd 3c 06 45 3d
       0.038028285 0.02136554 -0.064778894 0.04810165
000130 3b 75 41 3c e8 3d cf 3d 2c d0 43 3d ea 11 6f 3d
       0.011807735 0.101192296 0.04780595 0.058366694
000140 5c a9 8f bd 11 0a 2b 3c 38 d9 8a bd cb 79 c0 bd
       -0.070147246 0.010439412 -0.067797124 -0.0939823
000150 d3 86 9c 3d 2b bf f3 bb f2 99 3f 3d ad 8a 10 bc
       0.07642903 -0.0074385605 0.046777673 -0.008822125
000160 21 cc 84 bb 26 d3 a4 bd ce de c1 3d e0 a8 18 3d
       -0.0040526544 -0.08048086 0.09466325 0.037270427
000170 21 c7 45 3d 68 35 9d bd 52 5c 95 3d f0 47 a2 3d
       0.048285607 -0.07676202 0.07292999 0.07923877
000180 6e a5 63 bd 68 15 bc 3c 8a a9 b5 bc cb c3 fe bc
       -0.055577688 0.022959426 -0.02217557 -0.03109922
000190 8e 31 7f 3d e8 77 8f 3d 70 04 88 ba 19 08 71 3d
       0.06230312 0.07005292 -0.0010377299 0.058845613
0001a0 4a 2d a8 bc fe cd b5 3d b8 87 59 3d 2a c5 9d bd
       -0.020529408 0.088771805 0.053107947 -0.07703622
0001b0 bc 03 1c 3b 4a db a6 bb 60 90 fc 3c 7b c9 23 bc
       0.0023805937 -0.0050920593 0.030830562 -0.009996767
0001c0 02 1e 74 3d 73 da a4 bd 83 88 42 bd a7 16 a6 bc
       0.05959893 -0.080494784 -0.04749347 -0.020274473
0001d0 00 81 a9 bd c1 55 a6 bd ad 83 dd 3c e7 e6 ad bd
       -0.08276558 -0.08121825 0.027040327 -0.08491307
0001e0 d8 5d 48 bd 60 84 ac ba b5 7e 20 3d 18 bb 94 3d
       -0.04891762 -0.001316201 0.039183337 0.07262248
0001f0 a8 64 bb 3c 5f b1 36 bd 0a a7 65 3d 0d 6b a9 3d
       0.022875145 -0.044602748 0.056067504 0.082723714
000200 62 64 8d bc 84 08 c6 3d 64 c8 30 3d 45 ce 36 3d
       -0.01725978 0.09669593 0.043159857 0.044630308
000210 e3 e2 56 3d 6b a9 c3 bc a6 b8 2b 3d cb 3a 81 bc
       0.05246247 -0.023884496 0.04192414 -0.015775105
000220 fd 8c 1e bc b4 82 76 bd da 24 9b bb af 4a eb bd
       -0.009677169 -0.060183242 -0.0047346177 -0.11488854
000230 bb 8d 82 bd 74 97 a3 bd 1a cd 35 3c 48 47 a3 3d
       -0.06374689 -0.07987872 0.011096263 0.0797258
000240 ce b1 ad bd 3a 6d 4f 3d c5 02 b0 bc 3b 7d b4 3c
       -0.08481179 0.050641276 -0.021485696 0.02203237
000250 08 a8 c3 3d 16 d8 8d 3d 69 7c 44 bd 88 a8 33 3d
       0.09553534 0.06925981 -0.04797021 0.043861896
000260 aa 8d 47 bd 6a 3b 8a bd 58 e4 94 3d 65 da 76 3d
       -0.048719086 -0.067496136 0.072701156 0.06026687
000270 20 2b 36 bc a5 93 73 3d f2 66 98 bc 4d 30 1c bd
       -0.01111868 0.059466977 -0.018603776 -0.038132
000280 ba 7a 2d 3d c7 37 22 bd 32 c2 93 bd fa 83 13 be
       0.04235337 -0.039603975 -0.07214774 -0.14405814
000290 65 3a 85 bc 65 45 f8 3c 48 e0 ad bc 74 07 47 bd
       -0.016263196 0.030306527 -0.02122511 -0.048591092
0002a0 3e c2 3f bd f6 13 cc 3d 5e 1e 63 bd b1 66 43 bd
       -0.046816103 0.09964745 -0.055448882 -0.047705356
0002b0 22 85 a9 bd 33 8a 8d 3d 2c af 96 bd 02 81 e9 bc
       -0.08277346 0.06911125 -0.0735763 -0.028503899
0002c0 1a 18 c2 bd 0c 11 a8 bd e5 38 ad bd 44 2d f8 bd
       -0.09477253 -0.082063764 -0.084581174 -0.12118009
0002d0 17 d5 40 bd 8f 50 f2 bc 02 b0 09 3d 9b 6a a6 3d
       -0.04707822 -0.029579429 0.03361512 0.08125802
0002e0 ac 8f e1 bd d3 0d 63 bd d8 d3 d8 3c 3a 55 5a 3d
       -0.11013731 -0.055433106 0.026468202 0.053303935
0002f0 97 63 5c bd 82 a7 a8 3d f1 a2 85 bc 44 42 53 3d
       -0.053805914 0.082350746 -0.016313048 0.051576868
000300 c6 d8 d5 bc 32 42 2a 3d d3 87 6a bd fc 27 8f 3c
       -0.026104342 0.041567035 -0.05725844 0.01747512
000310 df b8 46 3d 38 82 f2 bc 89 3c b6 bc df 1f 69 3d
       0.04851615 -0.029603109 -0.022245662 0.05691516
000320 6a 4c 5e 3d 00 ab 4d 3d 59 2d 2e 3d 38 8e 4a bc
       0.054272093 0.050211906 0.042523716 -0.012363009
000330 56 6c 8c 3c 7e ba dd 3c ad 69 6a bc 5b b9 c4 bc
       0.017141502 0.027066465 -0.014307422 -0.024014166
000340 ef da aa bd bb ee 28 3d 2e 78 00 bd c5 23 a1 3c
       -0.083425395 0.041243296 -0.031364612 0.019670377
000350 fb 77 9f 3d 69 a9 8d 3c 26 89 47 3d fb 00 35 3d
       0.07786556 0.017292695 0.04871478 0.04419039
000360 65 f5 5f bd 18 a6 87 bc 20 bb 93 3d e2 d1 9d bd
       -0.054677386 -0.016558692 0.07213426 -0.077060476
000370 4b d0 75 bd ec bb ad 3d 82 41 1c 3c 9f b5 30 3d
       -0.060013097 0.08483109 0.009537103 0.043141957
000380 01 24 a2 3d a4 66 e0 bc c7 e0 fa bc 43 ba 06 be
       0.079170235 -0.027392693 -0.03062476 -0.1315699
000390 a5 29 84 bd 7f cf 84 3d 15 97 af 3d d7 a6 17 bd
       -0.064532556 0.06484889 0.085737385 -0.037024345
0003a0 c8 28 9c bd 27 b9 1c 3d 2e 78 98 bd a7 1e 1c 3e
       -0.07624966 0.038262513 -0.074447975 0.15246068
0003b0 ad 2c 2d 3c 08 3e 97 3d 18 5b 66 bd 88 b7 b4 bd
       0.010569734 0.073848784 -0.056239218 -0.08824068
0003c0 67 6b aa bd 91 03 33 bc 5c a3 cf bc d7 a7 46 bd
       -0.083212666 -0.010926143 -0.02534645 -0.04849991
0003d0 7c e8 2b 3d 2d d2 95 bc 85 ba 7d 3d ac 0f 44 3d
       0.04196976 -0.018288696 0.061945457 0.04786651
0003e0 58 7e c0 bd d6 8f 88 bd c5 5a 19 be 7d a5 1c bd
       -0.09399098 -0.066680595 -0.14976032 -0.03824376
0003f0 9b fc 83 3d a3 08 26 3d 54 d1 07 3d 8d 5d 87 3c
       0.06444665 0.04053558 0.033158615 0.0165241

hidden_layers.3.bias f4 [126]
000000 db c9 e8 bb ff de 5c 3d 6c 27 4d 3d a7 f6 60 bd
       -0.007104141 0.053923603 0.050086424 -0.054922726
000010 b9 b6 70 bd a8 fc cd bc 2b a7 9d 3c 2b 71 5d bd
       -0.058768008 -0.02514489 0.019244751 -0.054063004
000020 a4 83 8b 3d ab c6 aa 3d d5 53 72 3c 9f c7 77 bd
       0.06812218 0.08338674 0.014790495 -0.060493108
000030 0a c3 67 3d e6 68 28 3c 3c f5 8a bd db 46 b2 bc
       0.056582488 0.010278916 -0.06785056 -0.021762302
000040 af f6 a4 3d 29 e0 01 3d 6c d8 ba bc 2f e2 19 bd
       0.08054864 0.031707916 -0.022808276 -0.03756922
000050 56 da e2 bb 77 07 c9 bd ed e0 79 bb 9e c0 a5 3d
       -0.0069230003 -0.09815877 -0.003812845 0.080933794
000060 07 f6 28 bd 2f 1f c6 3d d9 e3 ad bc d6 27 d3 bd
       -0.041250255 0.096739165 -0.02122681 -0.103103325
000070 b2 45 fe bc 43 5d ec 3c f8 02 99 bc 28 23 a6 3d
       -0.031039093 0.028853064 -0.018678173 0.08112174
000080 48 76 b5 bd fa fe c1 bd 0b 0c 99 bd c1 33 b1 3d
       -0.08860451 -0.09472461 -0.07473 0.086524494
000090 58 f7 55 bd dd 29 a0 bd 2d 17 a8 bd f3 70 45 bd
       -0.05223784 -0.07820485 -0.082075454 -0.04820342
0000a0 17 df 9f bd d8 d5 9f 3d 6e d9 8f 3d db fa 8d 3d
       -0.07806223 0.07804459 0.07023893 0.069326125
0000b0 40 53 c2 bd de a8 6c 3b 95 8a a6 3d 5a 8e 1d bd
       -0.09488535 0.0036111395 0.08131901 -0.038465835
0000c0 2d 53 9e bd 71 98 03 3e 91 94 72 bd c6 af ac 3d
       -0.07730708 0.1285112 -0.059223715 0.084319636
0000d0 74 a6 a3 3c af f1 83 3d fa 9b 1b 3d 20 1d 8a bd
       0.019976832 0.06442582 0.037990548 -0.067438364
0000e0 9c d6 b1 bc 75 f0 91 3d 93 81 a0 3c a3 da 94 3d
       -0.021708779 0.07125942 0.019593036 0.07268264
0000f0 03 8e 85 3c 84 c8 d9 3b e4 df 30 bd 07 96 12 3d
       0.016303068 0.006646218 -0.04318227 0.03578761
000100 4f f7 22 bd 45 70 83 bc 92 d9 f3 3c 1e 1a 3e 3d
       -0.039786633 -0.016044745 0.029766832 0.046411626
000110 4d 73 4f bb a6 2c 35 3d 37 99 0d bd 54 56 c7 bb
       -0.0031654418 0.044232033 -0.034569945 -0.006083289
000120 e8 3b 47 3d fc 52 67 bc 91 3f 80 3d 70 20 8f 3c
       0.048641115 -0.014118906 0.06262124 0.017471522
000130 c9 01 d1 3d c1 15 64 3d 5a 44 f4 3d 55 a6 d3 bc
       0.102054186 0.05568481 0.119270995 -0.02583615
000140 4d 17 1f 3c f0 4b 6e 3d 33 2e 64 3d 7d 65 80 3d
       0.009710145 0.05817789 0.05570812 0.06269357
000150 8a 8c 6b bd 74 27 f8 3d dd 3f 4b bd 83 b7 c7 3d
       -0.057507075 0.121169 -0.04962145 0.09751799
000160 1f 98 59 bd 81 2a ee bc 5b b4 6a 3c 31 31 b2 3d
       -0.05312359 -0.029073002 0.014325227 0.08700789
000170 94 40 04 ba b2 22 7c 3d cb 45 a7 bc dd 92 24 3d
       -0.0005045023 0.061556526 -0.020419022 0.040179122
000180 33 f0 04 3d 78 73 74 bc 98 fe ed 3d 1f 1b 8b 3d
       0.032455634 -0.014920108 0.116208255 0.06792282
000190 1f 91 1c 3d 0c f8 ab 3d be 11 c4 3d 9d d0 a8 3d
       0.038224336 0.083969206 0.095736966 0.08242915
0001a0 ac f2 22 3d b6 ad c0 3d b4 01 52 3d 45 da 1e bb
       0.03978221 0.09408133 0.051271155 -0.0024238985
0001b0 4e a1 39 3d bc 81 8c 3d 16 6b 5d 3c 91 a7 f6 bb
       0.045319848 0.06860682 0.013514301 -0.0075272997
0001c0 ad d2 7c 3d 63 95 5b 3d 36 49 80 bd 29 ba 8e 3d
       0.061724354 0.053609263 -0.06263964 0.06969101
0001d0 f4 c8 62 bd e4 52 2a bd 4e 5c ad 3d 62 91 31 3d
       -0.055367425 -0.041582957 0.08464871 0.04335154
0001e0 5b 3a a8 3c 51 9d a8 3d 3a 24 89 3d eb 38 06 3c
       0.020535639 0.08233131 0.06696363 0.008192281
0001f0 84 34 08 3d ce 2a 4f bc
       0.033253208 -0.012644483

hidden_layers.6.weight f4 [126, 126]
000000 1e c8 0e bd 28 61 6e bd ee 2e 9b 3d 19 39 c0 bd
       -0.034858815 -0.058198124 0.075773105 -0.093858905
000010 af 4f e9 3d f5 67 f2 3c 95 f9 06 bd 81 f2 fd 3d
       0.113921516 0.029590586 -0.032952864 0.123997696
000020 b2 dc a8 3d 6d f2 d3 bc 62 ea 21 bd 68 63 12 3e
       0.08245219 -0.025872434 -0.039530165 0.14295733
000030 42 50 43 bd b8 89 ac 3d 09 50 06 3e c2 6e ab 3d
       -0.04768396 0.08424705 0.13116468 0.08370735
000040 57 bb 1a 3d 1b ef 24 bd 07 22 96 3c ba 1e 75 bd
       0.037776317 -0.04026709 0.018326772 -0.059843756
000050 bf 6d 00 bd 1a b0 81 bd a9 a8 33 bd 25 ea e6 bc
       -0.031354662 -0.06332417 -0.04386202 -0.02818782
000060 f7 34 93 3d 60 70 7e 3d 76 f1 9f 3d 43 d4 a8 3c
       0.071878366 0.062118888 0.07809727 0.020609027
000070 a7 56 8b bd be 9a 2c 3c b5 63 51 3d b5 11 14 3d
       -0.06803637 0.01053494 0.05112048 0.0361497
000080 15 dd 6e bd 41 7c ac 3c 93 98 82 bd 6f c8 22 bd
       -0.05831631 0.021055343 -0.063767575 -0.03974193
000090 5f a8 0d bd 85 e6 9e bd a4 8b 29 3d 8a 40 94 3c
       -0.0345844 -0.07758812 0.041392937 0.01809718
0000a0 13 41 00 3d 35 a3 c9 bc 28 25 21 3c dc a3 dd bc
       0.03131206 -0.024613956 0.009835519 -0.027055673
0000b0 c3 69 25 3c 1b c1 75 bd 61 8b f6 bd ea f6 27 bd
       0.010096016 -0.059998613 -0.12038303 -0.04100696
0000c0 2d d1 8c bd fd e4 88 3d 9d ea 9e bc cb f4 8d bc
       -0.068758346 0.06684301 -0.019398982 -0.01732864
0000d0 c4 6b ec bd f5 e5 84 3d 40 f7 17 3e de b3 2d 3d
       -0.11543992 0.06489173 0.14840412 0.042407863
0000e0 e7 3b 63 3c 5b b7 00 3e 87 90 11 3e 64 ab 19 3d
       0.013869262 0.12569945 0.14215289 0.037516966
0000f0 a3 87 a3 3c 6e 67 b3 3d 68 21 46 39 26 93 3e 3d
       0.019962138 0.08759962 0.00018895196 0.04652705
000100 d9 1b 89 bd 71 67 02 bd 59 c3 85 3d 94 3e cc 3d
       -0.06694765 -0.03183693 0.065314 0.09972873
000110 c1 12 e3 bd 34 fc ca bc c9 f1 2f bd e2 73 0e 3e
       -0.110875614 -0.024778463 -0.042955194 0.13911393
000120 f6 89 96 bd ad 68 38 3d 9d 1b 18 3d 49 bc aa 3d
       -0.07350533 0.0450217 0.03713571 0.08336694
000130 ff b1 b8 3d 8a 2f 49 bd 84 0f a1 3d 9d 78 c1 3c
       0.09018325 -0.049117602 0.078642875 0.023617083
000140 fc 07 7b 3d 0d 91 01 bd 6b e2 bb bc 99 07 15 bd
       0.06128691 -0.03163247 -0.022935113 -0.0363842
000150 7b b8 dd bc 00 f1 5a bd 2c 91 e2 bc 82 fa a2 3c
       -0.027065506 -0.05345249 -0.027657114 0.019894842
000160 2d e8 57 3d e2 e1 92 3d db b6 23 bd 63 78 a5 bd
       0.052711654 0.0717199 -0.039969306 -0.080796026
000170 be 5b ac 3d 8a d6 07 be 79 d4 20 bd b1 5c fa 3d
       0.08415936 -0.13265434 -0.03926513 0.12224711
000180 cb 68 ea 3d c5 51 29 3d 19 64 7d 3d 20 d9 e1 3c
       0.11445769 0.041337747 0.06186304 0.027569354
000190 52 ca 6a 3d 8b 0c 39 bd a3 0d 04 bb cf 64 43 3d
       0.057321854 -0.045177978 -0.002014973 0.04770356
0001a0 c7 b0 bb 3c 0f 93 30 3d f4 c4 65 3c a3 39 4d bd
       0.022911442 0.043108996 0.014024008 -0.050103795
0001b0 53 1f fa bd 1a ff 7b bd 14 c5 17 bd 5e d0 fb 3d
       -0.12213006 -0.06152258 -0.037053183 0.12295602
0001c0 91 2b ae 3b 90 81 b4 3d 6a 93 be bd b2 94 74 3d
       0.005315252 0.088137746 -0.09305461 0.05971212
0001d0 8d 18 e6 3d 2d da a3 3d a0 60 fb 3c 2e 7a 83 3d
       0.112351514 0.08000598 0.030685723 0.06419788
0001e0 1f 59 1b 3d 4f a0 b3 bd 35 69 cc 3d c8 58 0e bd
       0.03792679 -0.08770811 0.09981004 -0.034752637
0001f0 bc b3 c9 3a f0 d2 ab bd 21 8a 17 bd 61 12 0a 3e
       0.0015388648 -0.083898425 -0.036996964 0.13483573
000200 6a 4f a1 3d 37 57 ef 3d 03 47 93 3d db ae 8c bd
       0.07876475 0.11686557 0.07191279 -0.068692885
000210 72 66 0d 3d 25 6c 4a 3d 6c e1 28 bd 43 43 52 3c
       0.034521528 0.04941954 -0.041230604 0.012833419
000220 38 e6 84 bd 3e 16 b9 bc 92 b8 05 bd 65 38 5b 3d
       -0.06489223 -0.022593614 -0.032646723 0.05352058
000230 0a c5 9d bd b8 ba 8c 3d ee 91 3b 3d 68 4f 8f 3b
       -0.07703598 0.06871551 0.045793466 0.0043734796
000240 ff 1d 11 3d da 3d 76 bc ff 9a ec 3d 0a 7e a5 3d
       0.035428997 -0.015029395 0.11553001 0.08080681
000250 eb d7 94 3d 5e 18 cb 3d fe 78 f2 bc 96 7f 11 3d
       0.072677456 0.09916757 -0.02959871 0.035522066
000260 aa 91 0f bd 29 b0 80 bc 6f 28 71 3d 7c 8e ab bc
       -0.035051025 -0.015709 0.05887645 -0.020941965
000270 81 40 dc 3c 0c 54 e9 bb 82 85 5b bd 32 12 38 3c
       0.026886227 -0.007120615 -0.05359412 0.011234807
000280 77 30 71 3d 61 3c 6c 3d 7d 5d 8d 3b 83 58 b4 3d
       0.05888411 0.05767477 0.004314123 0.08805945
000290 78 c8 95 bd 6c 9a 8a 3c 96 d4 ed bd a8 21 e7 3d
       -0.07313627 0.016919337 -0.11612813 0.11285716
0002a0 c9 a1 49 3d ab a1 6a 3d 68 af ec 3c 1d b2 9a 3a
       0.049226556 0.057283085 0.028892234 0.001180235
0002b0 3e 49 70 3d 11 fa 70 bd 5c 3f 16 bc 77 45 c9 bd
       0.0586636 -0.058832232 -0.0091703795 -0.098277025
0002c0 f5 d4 a6 bd 59 9a 7c 3d 34 04 fb 3c 51 c4 11 3d
       -0.08146087 0.061670635 0.030641653 0.035587613
0002d0 d4 3b df bc f7 04 01 3c b0 5a 9b 3d cb 40 c2 bc
       -0.027250208 0.007874719 0.07585657 -0.023712536
0002e0 ce 91 52 bd 62 41 8a bd 6a a1 b5 3b 61 5c 24 bd
       -0.05140858 -0.06750752 0.0055429237 -0.040127162
0002f0 83 ec 17 bc df 92 bd bd a1 e5 31 3d 0a b3 b2 3c
       -0.009272697 -0.09256529 0.04343188 0.021813888
000300 00 f3 11 3d f4 8e a6 bd 56 d8 b5 bd 14 5c de bc
       0.035632133 -0.08132735 -0.088791534 -0.027143516
000310 fb f9 1e 3d cb 77 11 be aa 5c 5e 3d db 9c 35 bc
       0.03881262 -0.14205854 0.05428759 -0.011084761
000320 82 7f 10 3d c5 b5 20 bd 67 77 03 bd 26 d6 8b 3c
       0.03527785 -0.03923585 -0.032096293 0.017069887
000330 fb 0d f0 bd ae 2a b9 bd cb d6 88 3d d8 68 87 3d
       -0.117214166 -0.09041344 0.066815935 0.06611794
000340 0f 1a 0e bd 2c 7f b8 3c 4c c5 a2 3d 72 9d 31 3d
       -0.03469282 0.022521578 0.07947788 0.043363042
000350 39 a6 99 3c 45 ac a6 3d ee 84 c4 3d 8f 33 19 bd
       0.018756019 0.081383266 0.09595667 -0.037402686
000360 d9 1a 24 3c 62 dc 44 3d c2 86 5b 3d 87 94 74 3d
       0.010016167 0.048061736 0.053595312 0.05971196
000370 b4 f1 be bc 7d 05 2a 3d 08 d8 43 bd 2a e9 80 bd
       -0.023308612 0.04150914 -0.047813445 -0.062944725
000380 20 c5 3a bc 51 18 06 3e 5f 13 cf bc 6f ed 87 3d
       -0.011399537 0.13095213 -0.025277792 0.06637084
000390 cd d0 bd bd eb 38 07 3d 9e d7 de 3c 3e 20 b2 bc
       -0.09268341 0.033013266 0.027202424 -0.02174389
0003a0 6d 53 14 bd 19 3b 0d 3e 9f 16 71 bd 48 e2 8a bd
       -0.036212374 0.13792075 -0.058859464 -0.06781441
0003b0 1e f0 0e bd 66 bd 8c bd 89 af a5 bd e9 aa 8a 3d
       -0.034896962 -0.068720624 -0.08090121 0.0677088
0003c0 aa 97 2e bd d2 b7 02 bd 18 6a fe bc 3f f0 12 3c
       -0.042625107 -0.031913586 -0.031056449 0.008968412
0003d0 ac 55 b0 3c 27 0c ab 3d 5b 12 53 3d 99 4b 9e bd
       0.021525227 0.08351927 0.051531177 -0.07729263
0003e0 e2 f0 34 3d de 81 d7 bc da 7e aa bc e0 47 54 bd
       0.044175036 -0.026307043 -0.02081244 -0.051826358
0003f0 9f e4 88 bd 27 a4 5b bd 47 dd 14 bd 1b 0e 92 3c
       -0.06684231 -0.053623345 -0.03634384 0.017828992

hidden_layers.6.bias f4 [126]
000000 31 27 b7 bc d3 38 e7 3c d6 50 42 bd d8 a6 7e 3c
       -0.022357555 0.028225338 -0.047440372 0.015542708
000010 5a ec 6f 3d e8 1c a4 3d cd 74 6a 3d 21 8e a4 3d
       0.05857501 0.08013326 0.057240296 0.080349214
000020 f4 b5 72 3d 92 6e f1 3d 41 80 a8 bc b4 d4 80 3d
       0.059255555 0.11788668 -0.020568969 0.0629057
000030 ce 95 ff 39 59 8d 40 3c d2 94 d1 3d ad 39 f5 3c
       0.00048749003 0.01175245 0.10233463 0.029934729
000040 aa 13 16 3c e3 54 94 bd 9c 01 59 3d fb 06 a7 3d
       0.009159962 -0.07242753 0.05298005 0.08155628
000050 1d b0 b4 3d 7d 57 61 bd 00 17 41 3d 06 e2 74 3d
       0.088226534 -0.055015076 0.047141075 0.059785865
000060 aa 97 6d 3d fd 3c 36 bd 24 e8 14 bd d3 03 8a 3d
       0.058005966 -0.044491757 -0.0363542 0.06739011
000070 67 bf 21 3d df 80 32 bd 3c 8f b0 bc 14 46 7d bd
       0.039489176 -0.043579932 -0.021552674 -0.06183441
000080 5d 9c 95 3c 66 5d 8a bd 20 0d 8e 3d d5 89 68 bd
       0.018263036 -0.067560956 0.06936097 -0.056772072
000090 05 3e 3d 3d 95 01 5a 3d f9 5a 06 bc fd 35 b1 bc
       0.046201725 0.053224165 -0.0082004005 -0.021632189
0000a0 27 cf 0a bb a2 38 c3 3d 41 20 0a 3c 45 f6 3f bd
       -0.0021180601 0.09532286 0.0084305415 -0.04686572
0000b0 6f 87 8a 3d d0 7c 22 3c 4d ef fe bc 8c 31 09 bd
       0.06764113 0.009917453 -0.031119967 -0.033494517
0000c0 e0 7d 93 3c 3f 20 a2 3d 81 66 a8 3d 1f 58 1e bc
       0.018004358 0.07916307 0.08222676 -0.009664564
0000d0 70 0d a1 3d 31 26 b1 bc ae d0 8f bb eb eb 2d 3d
       0.07863891 -0.021624656 -0.00438889 0.042461317
0000e0 a1 90 b1 3d c0 63 1c 3b 82 29 be 3d 79 74 9a bb
       0.08670164 0.0023863167 0.09285261 -0.0047135917
0000f0 fb 0d da 3d e5 ae 22 bb c2 97 78 3d 7f 0d bc bd
       0.10647198 -0.0024823484 0.060691603 -0.09182262
000100 4c e7 75 bd 46 38 b3 bd 89 dc 5c bb 19 ae ae bd
       -0.060035035 -0.08750968 -0.0033700785 -0.085293
000110 90 a4 8b bd 85 87 f6 3d bf 73 0f bd 2f d9 1b bb
       -0.06818497 0.12037567 -0.035022493 -0.0023780575
000120 7b 9b fd ba 74 3a 25 3d cd ff 0e 3d ca 78 08 bd
       -0.0019348705 0.04033895 0.03491192 -0.03331832
000130 df 2e 68 bc 39 76 d4 bc 42 58 11 3b 7f c6 92 3d
       -0.014171331 -0.02593528 0.002217785 0.071667664
000140 c3 92 97 3c 45 ec 77 bd 33 12 eb 3d 3b 1e 2b 3d
       0.018502599 -0.06052806 0.114780806 0.041776877
000150 66 48 65 3c f2 d9 bd 3c df 68 8e bd b5 72 c4 bd
       0.013994312 0.023175213 -0.06953596 -0.09592191
000160 69 f1 13 3d 4f bf ac 3d b4 d6 92 3d c5 89 a3 3d
       0.0361189 0.08434927 0.071698576 0.07985262
000170 be 96 c8 bd e9 4e 8a 3d 7c 97 14 bd 6e 91 1d bd
       -0.09794377 0.06753332 -0.03627728 -0.03846877
000180 ba 04 d2 3d 0d 2f 15 3d cd 3b 68 bd bb cf fb bc
       0.10254808 0.036421824 -0.056697655 -0.030738702
000190 fa 9d 63 3c bb 1a 9d 3d c1 5b 48 3d fa a6 ff bc
       0.013892645 0.07671114 0.04891563 -0.03120755
0001a0 5c 86 ff bb c7 83 08 bd 8f c5 32 3d e3 ae 77 bd
       -0.0077979993 -0.033328798 0.043645438 -0.06046952
0001b0 43 b1 2b bc 22 f2 67 bd b0 f0 2e 3d 38 d6 a4 bb
       -0.010479274 -0.0566274 0.042710006 -0.0050304197
0001c0 26 b7 c1 bc 8e f8 df 3d 00 e7 3f 3d 8e f7 20 bd
       -0.023646902 0.1093608 0.04685116 -0.039298587
0001d0 f7 8d f1 bb 7e 43 78 3d 34 64 5d 3d c3 6f 24 bd
       -0.00737166 0.06061124 0.05405064 -0.040145647
0001e0 55 86 47 bd 1f 5b 0a bd 99 66 e6 3c 71 83 da 3d
       -0.048712093 -0.033778306 0.028125094 0.10669602
0001f0 f2 5f 21 3d 57 03 8e 3d
       0.03939814 0.06934231

output_layer.weight f4 [10, 126]
000000 28 e2 66 3d a2 98 ca bd 00 21 14 be ef 7d 99 bd
       0.056368023 -0.09892394 -0.14465714 -0.07494723
000010 29 84 07 3d 9b 5d 84 bc 9e 72 d1 bd 2c a7 0c 3e
       0.033085022 -0.016157916 -0.102269396 0.13735646
000020 bc ae b1 3c 38 08 ec bd af a7 c9 3c 0b 46 50 3b
       0.021689765 -0.11525005 0.02461609 0.003178003
000030 6c de 0f bd a5 5a cd bc 0f e4 93 3d 4e a4 b8 3c
       -0.035124227 -0.025067637 0.07221233 0.022539284
000040 ac e9 af 3c 5f db dd 3d 8f 0a bd 3d 81 e2 72 bd
       0.021473728 0.10832857 0.092305295 -0.059298042
000050 b7 6e cf 3c c8 60 af 3d 4e 81 1f b9 57 0d 7b 3d
       0.025321348 0.085633814 -0.00015211591 0.06129202
000060 39 9a c9 bb 27 5e bc 3a fa 4e fd ba 48 a3 58 bd
       -0.006152418 0.0014371321 -0.0019325905 -0.052890092
000070 9a b1 c4 bd df b3 a1 bd 39 a0 90 3d b6 91 01 bd
       -0.09604187 -0.07895636 0.0706181 -0.0316331
000080 be 3e 35 3d 31 5b 50 be 0b c0 ec bc ad 51 a9 3a
       0.04424929 -0.20347287 -0.028900167 0.0012918018
000090 17 e6 c2 bd 3e e7 c5 bc 28 a3 91 3d ee 07 2e be
       -0.095165424 -0.024158116 0.07111198 -0.16995212
0000a0 a2 a8 7a bd 3e 08 24 bc 50 15 ac 3d 94 bb 04 be
       -0.061195977 -0.010011731 0.084025025 -0.1296218
0000b0 1c 10 f2 bd a1 b7 55 3c 3e e3 8c 3d f4 2d 3e 3d
       -0.11819479 0.013044269 0.068792805 0.046430543
0000c0 44 91 ac 3c 41 2b 9c 3b 15 eb ed 3d f8 6c d6 3d
       0.021065362 0.0047658985 0.11617104 0.10470003
0000d0 23 bf 3e 3d d2 e1 c5 bd a6 8c 29 3d 1d 1e bf bd
       0.046569 -0.096622124 0.0413939 -0.093319155
0000e0 ba 2e 30 bd 9f 9d d1 bd 9a 39 2c be dc 29 c7 bd
       -0.043013312 -0.10235142 -0.16818848 -0.09724781
0000f0 4b f1 34 be de aa be 3c 51 28 58 3c a2 d6 f0 3d
       -0.17670171 0.023274835 0.013193206 0.11759688
000100 c9 ff c5 bc 32 78 3f 3c 55 44 fc 3c 29 5f 73 bd
       -0.02416982 0.011686372 0.030794302 -0.059416924
000110 29 d1 1d be cc fe 46 be ed 36 e5 bd ef bf 94 bd
       -0.1541182 -0.19433135 -0.11192117 -0.07263171
000120 0c da 6b 3d 4e 81 ab bc 76 5e 40 3d 16 37 63 3d
       0.057580993 -0.02093568 0.046965085 0.055472456
000130 01 aa 71 3d 23 59 df bd d3 60 49 3c df 53 91 3d
       0.05900002 -0.10905673 0.012291151 0.07096075
000140 18 18 e1 3d ee 71 63 3d 11 9e 16 be d9 19 9c bd
       0.10990924 0.055528574 -0.14708735 -0.076221175
000150 11 eb e7 bd 5f 76 26 bd 1c 58 24 3c 5d 96 59 bd
       -0.11324132 -0.04064023 0.010030773 -0.053121913
000160 17 d9 5d bd cb c4 3c bc d9 c9 7f bd 8f 7a b4 bd
       -0.05416211 -0.0115215285 -0.062448356 -0.08812439
000170 83 e6 a5 bd e4 2c ad 3d 09 2a 0e be 10 af 57 3d
       -0.08100607 0.08455828 -0.13883223 0.052657187
000180 41 9b d0 bd b1 90 02 bd 78 98 66 3d 9f a4 eb bd
       -0.10185862 -0.03187627 0.05629775 -0.11506008
000190 4f 63 f9 bd eb f3 b3 bc 1c 42 a4 bd 99 8f 5e bd
       -0.12177145 -0.021966895 -0.08020422 -0.054336164
0001a0 69 f9 e1 bd f0 75 80 bd d3 12 8a bd 68 a9 15 be
       -0.11033899 -0.06272495 -0.06741872 -0.14615405
0001b0 e0 ce b9 3c 28 a7 b9 bb ee 61 7f bd fb a7 93 bd
       0.022681653 -0.0056656785 -0.062349252 -0.07209774
0001c0 4a c0 b8 bd ca 7d 08 be f1 b2 a9 3d 8c 75 2a 3d
       -0.09021051 -0.13329235 0.082860835 0.041616008
0001d0 e0 48 23 3e 55 73 76 bd 01 eb 19 be 19 0a 28 be
       0.15945768 -0.060168583 -0.15031053 -0.16410102
0001e0 2f ea 9c 3c a9 2c ec bc 17 17 ba 3d 31 a2 15 be
       0.019154636 -0.02882989 0.09086435 -0.14612652
0001f0 d9 ca b1 3d c6 11 1e be 55 1c f4 bc b2 6c 05 bc
       0.08681268 -0.15436468 -0.029798666 -0.008143591
000200 e8 6f c3 3c e7 f8 94 bd 60 94 09 bd 5a 6b bf bd
       0.023857072 -0.07274037 -0.033588767 -0.093466476
000210 7c d0 33 3d 06 10 52 bb 02 7d d5 3d cc 92 1f bc
       0.043899998 -0.0032053008 0.10424234 -0.009739589
000220 62 6c 27 bc f7 f2 31 bd 18 e4 43 3d 70 65 93 3c
       -0.010218712 -0.0434446 0.04782495 0.017992705
000230 3f 3d 02 3d 3c 16 d3 bd ac 40 da ba 13 72 21 be
       0.03179669 -0.10306975 -0.0016651354 -0.15766172
000240 c7 7d 00 be 43 8c ad bc 9a 20 27 be 62 60 fe bd
       -0.1254798 -0.021185046 -0.1632103 -0.12420727
000250 39 13 9e 3d bf 86 cf bd e0 73 f7 bd a2 25 1e be
       0.0771851 -0.10133123 -0.12082648 -0.15444043
000260 05 0e 25 3d f1 f3 c7 3c 10 c1 69 bc b6 fd 3d 3d
       0.040296573 0.024408313 -0.014267221 0.046384536
000270 26 44 d8 3c 8f 63 9a bc 94 7d 00 be 92 81 f3 3d
       0.026399683 -0.018846301 -0.12547904 0.11889948
000280 6c 62 c8 bd 10 d4 86 3d 26 1d 05 3e 93 42 de bd
       -0.097843975 0.065834165 0.129994 -0.10852542
000290 98 5c ac bd 6e 27 28 bd 65 03 9e 3d f4 5c 18 3c
       -0.08416098 -0.041053228 0.07715491 0.0092995055
0002a0 34 f9 0c be 42 f7 bb 3d b8 42 b1 bd 41 82 c4 3d
       -0.13766938 0.0917802 -0.08655304 0.095951565
0002b0 01 db fe bd 3b 41 07 be 71 e1 bb bc 1c 9b d9 bd
       -0.124441154 -0.13208477 -0.022934647 -0.10625288
0002c0 80 33 1c be 86 9b 1f bd e7 36 66 3d 42 8f f2 3c
       -0.1525402 -0.038966678 0.056204703 0.029609326
0002d0 b2 f7 36 be 32 dc 83 3d 5c f0 c8 3c b5 f5 c5 bd
       -0.17867926 0.06438483 0.024528675 -0.096660055
0002e0 09 7d 38 3d d2 db f6 3d c2 ba 87 3d 93 47 90 bd
       0.045041118 0.12053646 0.06627418 -0.07044902
0002f0 3f d8 aa bd 8a 08 b5 bd 42 5f a6 bd c2 00 34 bc
       -0.08342027 -0.08839519 -0.08123638 -0.010986509
000300 e2 22 b9 bd ef 21 38 3d 96 9a 08 3d 4e 45 94 3d
       -0.090398565 0.044954237 0.03335055 0.07239781
000310 16 47 27 bd dc 13 98 3d 25 c1 92 3d 11 7a 5d bd
       -0.040839277 0.07425663 0.07165746 -0.05407149
000320 60 42 e4 bd de d2 1c 3d 78 a9 fb 3d 88 be da 3d
       -0.111454725 0.038287036 0.12288183 0.10680872
000330 04 1f bd 3d 10 6f 1c 3d 98 90 18 be 64 d0 33 be
       0.092344314 0.038191855 -0.14898908 -0.17559963
000340 7f 06 ba 3d 87 63 ca bd 49 f5 83 bd 52 f0 36 3d
       0.0908327 -0.098822646 -0.06443269 0.04466278
000350 de d8 07 be 03 a9 6f 3d 64 39 70 bd 2d 01 99 bd
       -0.13266322 0.05851079 -0.058648482 -0.074709274
000360 9e fc b6 3d 0f 78 f3 3d 5d 38 01 bd 6d 18 af 3d
       0.08934902 0.11888134 -0.031547893 0.08549581
000370 69 e9 ef 3d 00 fb b1 3c 40 f1 85 bd 8b 86 14 be
       0.11714441 0.021726131 -0.065401554 -0.14504449
000380 f8 ec eb bd 5e bd e0 bc 5f f4 c9 bc 23 5e 47 3d
       -0.115198076 -0.027434047 -0.024652658 0.04867376
000390 5c a8 d2 b9 b0 c1 d9 3d e7 c0 56 3d d0 90 09 3b
       -0.0004017976 0.10632646 0.05243006 0.0020990856
0003a0 ac 97 37 bd 12 10 81 3d 21 03 2d bd 36 e6 80 bc
       -0.04482238 0.06301893 -0.042239312 -0.015734773
0003b0 b2 21 8f bd 2a 43 95 bb 34 1a e7 3d ab ce 09 be
       -0.06988849 -0.0045551257 0.11284295 -0.13457744
0003c0 6d 0f 94 3d 20 b2 a4 3d b2 9b f4 bd a6 24 60 bd
       0.07229505 0.08041787 -0.11943759 -0.05472245
0003d0 8c 7a 8b 3d 82 80 04 bd 4f 88 09 be 20 9a 91 3d
       0.06810483 -0.032349117 -0.13430904 0.07109475
0003e0 66 7a 66 bd 47 3c 3e bd a2 e9 16 be 2b e3 96 3d
       -0.056269072 -0.046444204 -0.14737561 0.073675476
0003f0 2d 80 91 bc ef 47 6b 3d 80 65 9d 3d 8c 80 9d 3d
       -0.017761314 0.057441648 0.07685375 0.07690534

output_layer.bias f4 [10]
000000 30 46 bb 3b 28 0b d0 3c c8 61 74 bd ff 88 17 3d
       0.005715154 0.025395945 -0.059663564 0.036995884
000010 ca 2f 38 bc e5 fb 63 3b eb 3d ca bd 13 7b aa bc
       -0.011241863 0.0034787592 -0.09875091 -0.02081064
000020 f9 d7 15 3d e9 fa 97 bc
       0.03658292 -0.01855226
