Results/SFResult/best_model_weights.pt (torch, 306230 bytes, 6 tensors)

hidden_layers.0.weight f4 [86, 784]
00000000: 4bdc bbbc 176d bfbb a5f0 d3bc 7b37 153c
00000010: 43c3 f53c 2d8e c2bc 830b d4bc 0d6c 0c3d
00000020: 916a 263d bb2b 0b3d f537 183d c070 3c3c
00000030: 13dd 1f3d ce79 c5bb 7116 e23c 6995 123c
00000040: a169 c9bc 9f7c e13c e9dc c0bc f939 1e3d
00000050: e59d ca3c 570d d83b bc9c afbb 7288 2ebc
00000060: 297c 75bc 68dd 113d 21f4 e13c e8b3 28bc
00000070: 079a 6bbb b326 0a3d c21f 303d cf4e d9bb
00000080: 5599 173d b025 893b d98f 323d 047d 12bc
00000090: aec8 103d 899c ab3c 8ed4 6e3c fb18 283c
000000a0: fceb 843c 7bca cf3b ac24 15bc 39c8 703b
000000b0: 64b5 013d 16e6 17bc b405 2e3d c6aa 06bc
000000c0: 6d0e f93c 8617 533c 61d9 6ebb 60f8 6a3c
000000d0: db37 dcbc 6b9d bcbb f827 29bb 2ca7 673b
000000e0: 5f72 c23c 49c7 0d3d 5a3b acba 8b13 dbbc
000000f0: 2da7 ed3c f2f8 a5ba 8850 453b 7327 e93b
00000100: e156 bdbc bfcb d9bc 061f 063d 5de1 153d
00000110: 4aab 683c 1fd7 81bc 6126 c4bb 9a99 b23c
00000120: 4f98 cb3c d0f2 993c c772 9abc 0e6f b93b
00000130: 6176 6eba d54a 313d 3888 a3ba 365b 3dbc
00000140: 65b1 babc d2ef 38bc 4dc3 ad3b d9d0 a73c
00000150: fee8 953c 230f 883c 8c82 0abc e52b e0bc
00000160: d136 b2bc fdf6 ea3c a179 f63c 05bd 81bc
00000170: 17cd 1a3c 8f60 fe3c 076f f53c 78b6 e0bc
00000180: a33c 413c c031 843c 4fda bf3c f209 52bc
00000190: 2ce1 30bc 4c7c 24bc d36e 7fbc 054b ea3c
000001a0: aac5 473c 4057 8f3c 5900 b7bc d9ce ee3c
000001b0: d8a3 d7bb 5587 313d 05be e73b b97f 9a3c
000001c0: d9be 0d3d 61b1 f33c 032d ccbc 1a6a 893c
000001d0: fc56 303d 751f 173d bc45 1e3d 7d18 80bb
000001e0: 2ffb dbbc 58dd 2d3d ad14 c5bc 1095 a53b
000001f0: 8feb 233b 43fa c03b ecff c2bc f2a3 8bbb
00000200: 27ef 02bd 0ac6 f6bb e170 d6ba 28af 78bc
00000210: 4554 0c3d cb74 e83b 7295 f5ba 32d2 513c
00000220: 35c9 283d 019c ddbc 07d9 9dbc 55ed 993c
00000230: 0590 fe3c 550d adbc 04e6 143c a914 b03c
00000240: 4ae4 543c 126f 16bc f94e f03c 1526 9a3a
00000250: 6f74 c83c 7408 aebc 73fd f1bc cb2e 093b
00000260: 64b8 5fbb 5d75 043d b4db b03c 6a14 18bc
00000270: 4f7a adbb aea5 f03c 41b9 073c b9e6 edbb
00000280: 9cb6 ec3c 9d39 023d 6f4c e03c 4e76 8239
00000290: e1a8 d4bc 1076 313d 3346 8cbc 2a58 c2bb
000002a0: 9301 9ebc a97a 133c 8802 2c3d 1464 063d
000002b0: 8004 f5bb b3d6 a33c 462b 543c cde9 913c
000002c0: 1929 2dbb 43dd e1bc eff5 0b3d d026 d53b
000002d0: 7971 823b 0d07 5f3b 0798 24bc 8729 37bc
000002e0: 0da6 ae3c 4497 aa3b dab4 1cbd 5cad 01bd
000002f0: 99c5 4cbc 10e6 8b3c 8380 003d 5532 c73c
00000300: 8633 8e3c 7702 bc3c 5559 f53c b591 88bc
00000310: 21d4 dc3b 4911 a8bc f2c8 163c ad19 ff3c
00000320: d748 9a3c 532f a53c 7799 71bc 6d05 1d3c
00000330: 1759 f63b 6102 db3b 2f2f 04bd 014f e53b
00000340: 4202 973c c9d6 b73c 188c 82bb 49c6 eb3c
00000350: 8e77 353c e35d e8bc fbe0 84bc 7610 3ebc
00000360: 74e8 f73c c562 3fbc 4118 b63c 4050 6bbc
00000370: 7933 61bc 87d4 dfbb 5cad 633c 2307 a2bc
00000380: 8f64 fe3c e72c d4bc a174 fc3c c0bd 2ebb
00000390: 0fe3 8ebb a109 d4bc 96fb 8c3b a36d a2bc
000003a0: 49ba 07bc 0a18 81bc 9969 05bd 114b c0bc
000003b0: 09d4 fdbc 148e 13bc 5a79 92bc 81c6 da3c
000003c0: 6420 9d3b 2d63 69bc 4cc4 d13c 7917 63bc
000003d0: f75b f4bc 5036 7abc 4b46 4fbc dd55 3dbc
000003e0: 1384 96bc 8d15 923b 3c90 483b 3dfa ae3c
000003f0: ee19 893c 7873 683c c8b5 3ebc 7118 c4bc
-0.022932192 -0.005841862 -0.025871584 0.009107466 0.030000335 -0.023749435 -0.025884395 0.034282733
0.040628973 0.03397725 0.03716274 0.011501491 0.039029192 -0.006026483 0.027598592 0.008946755
-0.0245865 0.027525244 -0.023542838 0.038629506 0.024733493 0.006593387 -0.0053592604 -0.010652648
-0.014983215 0.03561154 0.02758223 -0.010296799 -0.0035949962 0.033728313 0.042999037 -0.006631709
0.037011463 0.004185401 0.043594215 -0.008940939 0.035347633 0.020948665 0.014577044 0.010259862
0.016225807 0.006341276 -0.009102982 0.0036740436 0.03166713 -0.009271165 0.042485908 -0.0082194265
0.030402387 0.012884026 -0.0036445486 0.014341444 -0.026882103 -0.0057560704 -0.0025811177 0.0035347445
0.023736177 0.03461388 -0.0013140247 -0.026742717 0.02901038 -0.0012662692 0.0030107815 0.0071152984
-0.023112716 -0.026586412 0.03274443 0.036591876 0.014200995 -0.015849648 -0.0059860204 0.021801759
0.0248529 0.01879254 -0.018853558 0.0056589907 -0.00090966193 0.043284256 -0.001247651 -0.011557391
-0.022789666 -0.011287646 0.0053028227 0.020485329 0.018299576 0.01660878 -0.008453976 -0.02736468
-0.021754654 0.028682226 0.030087294 -0.015837202 0.009448311 0.031051902 0.029960169 -0.027430758
0.011794242 0.016137004 0.023419527 -0.012819754 -0.010795873 -0.0100394 -0.015590387 0.028600225
0.012193123 0.017497659 -0.022339033 0.029151367 -0.006580811 0.043341953 0.0070722126 0.018859731
0.034605835 0.029747667 -0.024923807 0.016774226 0.043051705 0.036895234 0.038640723 -0.003909169
-0.026853172 0.042447418 -0.02405771 0.00505317 0.002501223 0.0058892085 -0.023803674 -0.004261487
-0.031966355 -0.0075309323 -0.0016360545 -0.015178479 0.034260053 0.007094001 -0.0018736555 0.012806462
0.04120751 -0.027051928 -0.019268526 0.018789927 0.031074533 -0.021124521 0.009088043 0.021494227
0.0129938815 -0.009181755 0.029334532 0.0011760617 0.024469582 -0.021244265 -0.0295398 0.0020932432
-0.0034137005 0.03233849 0.021589138 -0.009282211 -0.0052941213 0.029375877 0.008283914 -0.0072601703
0.028895669 0.031793226 0.027380196 0.00024883676 -0.025959434 0.043325484 -0.017123317 -0.00593092
-0.01928786 0.009001412 0.0419946 0.032810286 -0.007477343 0.019999838 0.01294977 0.01781168
-0.0026422201 -0.027571326 0.034170087 0.006504871 0.003980812 0.0034031302 -0.010046012 -0.0111793345
0.021319414 0.0052060205 -0.03825841 -0.03165947 -0.012498283 0.017077476 0.03137256 0.024315992
0.017358553 0.022950394 0.029949823 -0.016671041 0.006739155 -0.020516055 0.0092031825 0.031140173
0.01883356 0.020164168 -0.0147460615 0.009583813 0.0075179446 0.006683633 -0.03227156 0.0069979434
0.018433694 0.022441285 -0.0039839856 0.028781073 0.011075867 -0.028365081 -0.01622056 -0.011600604
0.03026221 -0.011681263 0.022228362 -0.014362395 -0.013745182 -0.006830755 0.013896313 -0.019778794
0.03105381 -0.025900317 0.030817332 -0.0026663393 -0.0043605636 -0.025883498 0.0043024523 -0.01982767
-0.00828416 -0.015758533 -0.03257141 -0.023473294 -0.030984895 -0.009006042 -0.01788013 0.026705982
0.004795121 -0.014244837 0.025606297 -0.013860577 -0.029829009 -0.015271738 -0.0126510365 -0.011556116
-0.018373525 0.0044581355 0.0030603549 0.021359557 0.016735997 0.014187686 -0.01164002 -0.023937436

hidden_layers.0.bias f4 [86]
00000000: 0e6b 34bc 84f4 043c 97d8 793c 45c4 febb
00000010: 772f abbc 4f13 013d 477e 48bd 8b75 1bbd
00000020: 1072 8639 db48 673c abb9 c9bc bba9 d5ba
00000030: 59b7 d63c 95ac 87bc 71d7 85ba a4ab 733c
00000040: b0a0 ddbb aa62 333d df01 b3bc 5d61 39bc
00000050: b07f 823b 2de1 86bc f4f2 88bc 3afa 03bd
00000060: 81e3 63bc 5ea2 9cbc 4fc9 cdbc afc2 a03c
00000070: db2e d0bc c10a 29bd a579 2abd 78c2 9bbc
00000080: 5214 cdbc 6fd1 25bc ed68 1a3c d467 81ba
00000090: 18b7 a33b cf60 923c 8767 3a3a 09f8 db3c
000000a0: 9eba a43c ec28 8bba df73 d63c 230b 63bc
000000b0: 9a39 a6bc 8028 03bd 3dc7 b13c ad8c 6f3c
000000c0: 8bff 91bc 7275 2a3b f010 903c 3f11 a73c
000000d0: de5b 44bc ea46 b0bc 14c0 b63c a6c9 453c
000000e0: c276 34bd b5f9 0fbd 73bb 00ba f2bb a93c
000000f0: 28b1 1f3d e6b2 013d 970b 86bc f563 91bc
00000100: a5b4 7fbc d69f e53a 62b2 693c 0c93 ecbb
00000110: 4acb ad3c 5a16 a33c 6907 dcbb f81b d3bc
00000120: d075 5ebc 220d 963c 1bd3 d93c 100d 373c
00000130: 6b17 0fbb 4bfa 013c 6ade e0bc fd44 51bc
00000140: 0d4b 18bd 085c a13b 2868 03bd 0058 94bb
00000150: 9e13 2a3c be54 c23c
-0.011011852 0.008114938 0.015249393 -0.007774862 -0.020896656 0.031512555 -0.048948552 -0.037953895
0.00025643455 0.014116491 -0.024624666 -0.0016301194 0.026210474 -0.016561786 -0.0010211301 0.014872465
-0.00676354 0.043795265 -0.021851478 -0.011314717 0.0039825067 -0.016464794 -0.016717412 -0.032221057
-0.013909222 -0.019120391 -0.025120405 0.019624082 -0.025412967 -0.04127002 -0.041619916 -0.019013628
-0.025034104 -0.010120734 0.00942443 -0.0009872862 0.0049961917 0.017868428 0.00071107637 0.02685167
0.020108517 -0.0010617054 0.026178299 -0.013857636 -0.020291138 -0.032021046 0.02170145 0.014620942
-0.017822048 0.0026009944 0.017586201 0.020393966 -0.0119847935 -0.02151819 0.022308387 0.0120720025
-0.04405857 -0.03515025 -0.00049107446 0.020719502 0.03898731 0.03166475 -0.016362948 -0.017747859
-0.015607034 0.0017518948 0.014263721 -0.007219678 0.0212151 0.019908119 -0.0067147505 -0.025770172
-0.013577893 0.01831681 0.02658992 0.011172548 -0.0021834027 0.00793321 -0.027449805 -0.012772796
-0.03718095 0.004924301 -0.032081753 -0.004527092 0.010380654 0.023722049

hidden_layers.3.weight f4 [86, 86]
00000000: 50b8 70bd 4713 1ebc bd7d b73d e7d7 eabc
00000010: 2c50 c8bb 0cc1 c2bd a550 a0bd 1234 553e
00000020: cede a83d f86b bf3c 7a65 56bd 60b9 ea3c
00000030: 46ab 893d 2c75 dc3d 9e09 7abd 3d01 9abd
00000040: 96be b5bd 630f d43c cc1a 323d b37f 11bd
00000050: abfd c13d 5eaa 353d bb8e 3e3d 1961 ecba
00000060: 9b6f 5dbd 051f ca3c 27c5 b9bd 5b92 e8b9
00000070: fa33 cf3c 59eb 9d3c f9eb 84bd 2a19 36be
00000080: 3e2d 64bd acc8 b63c 0c46 ecbc f7fa 46bd
00000090: ca79 92bd 8854 86bd a2b5 fcbd a4bf fd3d
000000a0: f601 643c 1985 973d ffb0 d83d 1d0d 403e
000000b0: e9ea f9bc 744b b33b 10ca f5bd 36b7 fb3d
000000c0: ed46 8a3d b77a 09be 8174 123d e4ac 0b3e
000000d0: a000 14bb 7372 76bc 75ca a6bb 1b52 84bc
000000e0: 74b2 66bd 2a44 93bc 8dc4 21bd d9e4 b1bd
000000f0: b149 eb3d ecda 173d e220 cc3d 813f baba
00000100: ac04 5abd 7f3d 2cbd f67b 873d 46fb 82bc
00000110: f294 bdbd e41c a9bc 8805 ca3d 9f3b bb3c
00000120: 7384 aa3b ee06 b83c 7cc2 babd 2f6e 57bd
00000130: fb46 46bd ecd0 6e3d b340 8b3d 45a6 13be
00000140: 5e40 c1bd 10c5 eb3d 98c3 aabc 56c1 473d
00000150: e92e f0bb cb3c aebc 9ec3 13bc c5db f43d
00000160: abc6 c03b cfb5 dbbd 81d2 af3d 74c3 12bd
00000170: c988 073e 8100 733e 6def 973d f143 41bd
00000180: e251 493c b4a3 ad3d 9263 943d 0810 b93d
00000190: 5a37 93bd 5987 b43d a52e 873d 4d8a a93d
000001a0: 693d 7a3d e5e0 3cbd e424 a1bd 88b3 0cbd
000001b0: cc30 97bd f046 47bc eaf2 82bd b370 77bc
000001c0: 5c6b 9e3d 9ba1 96bd 1c63 79bc 1b18 a8bb
000001d0: 0440 52bd 9d3f 2dbe 8933 d83d 5e96 c4bc
000001e0: fcce e2bd e10f 12bd fbf3 dcbd 7bf8 b23d
000001f0: a1d7 6ebe 8e5a f4bd d443 60bd eaaf d33d
00000200: 9517 93bd b88a 8b3c b0f8 20bd 878b db3d
00000210: fd02 973c a032 043e 46b6 52bc 4dad eebd
00000220: c559 d83c e4a8 213e 151a cabd 4f33 be3d
00000230: 9bd6 623d 9773 903d 4504 8f3d 8248 3e3d
00000240: baaf 1d3d 5364 983c aab8 833d 10b5 fabd
00000250: 82ad e83d 4764 cd3d b980 93bd 7a70 a3bd
00000260: 9c70 c03d 221f 29bb 55ae 933d 6035 0dbd
00000270: d769 813d 5922 753c 3b1d 903c b55a 293d
00000280: 8d6a fa3c 2d0c c33d 4e1b bb3d 9b0e b9bd
00000290: d7b6 30bd d0e4 8f3d 8370 dabd c35b f6bc
000002a0: b91d 093d 02f2 693d d911 92bd 88d0 febc
000002b0: c72c 963d c557 993c b497 0abc 6b46 d9bb
000002c0: 26ea bdbd 4c10 d03d 3a39 6abd c56b c83d
000002d0: 263d cc3d 574f 9ebd fbba 9cbc 54bd 173d
000002e0: 19ea c8bd b1db e13d 7803 05bd fef8 963a
000002f0: 9e4d 8a3d a7cf 3b3d 1168 70bc b407 f83b
00000300: c33a 6c3d dd3d d93d d8ef 4fbd cd51 3b3d
00000310: de51 c13d 6cec ce3b 2cea fabd 77f1 743d
00000320: cdf4 4ebd 84bd 9cbd 1cc1 ce3d 520a 2cbb
00000330: 5181 253e 47b1 f0bd 4692 5f3d c592 2b3c
00000340: 290c 4a3c 7170 c9bd 5c28 073e 210f 573e
00000350: 0230 c93c 6eef e03c 31d2 afbd a8d7 50be
00000360: b150 b1bd 91e2 193c 50c8 903c da82 0dbe
00000370: 1564 47bd 309d 0a3d 38da 8abb fafe 2c3d
00000380: 76ba cbbd e46e db3c 54d2 5a3d c8e7 0abd
00000390: 2dd9 98bd 9968 d4bc 78e4 c53d 3279 cfbd
000003a0: 6088 d13d efea 303e b8a7 3e3d 5fd1 d33d
000003b0: 2193 29be 9ac2 91bd f083 f4bc 04d7 bb3d
000003c0: 9b50 1fbe 185d 89bb 415c a3bd b534 e4bc
000003d0: fbe1 183e 22b4 b5bd 2df0 8abd 0362 423c
000003e0: be96 79bb 3b92 3cbe 7908 46bd b9b4 b83b
000003f0: 3b5d e1bc e4db 88bd 83a8 d6bd f009 81bd
-0.058769524 -0.009648151 0.089595295 -0.028667403 -0.006113073 -0.09509477 -0.07827882 0.20820644
0.082456216 0.023366913 -0.05234287 0.028652847 0.06722121 0.10764536 -0.061044328 -0.075197674
-0.08874242 0.025886243 0.043482587 -0.035522174 0.094722115 0.044351928 0.046522837 -0.0018034308
-0.054061513 0.024672994 -0.09070807 -0.00044359532 0.025293339 0.019277262 -0.06490321 -0.17783037
-0.05570721 0.022312485 -0.028841995 -0.048579182 -0.07152136 -0.06559092 -0.12339331 0.12390068
0.013916483 0.07398433 0.10580634 0.18755002 -0.030507522 0.005471641 -0.12001431 0.12290804
0.06751809 -0.13425718 0.035755638 0.13640171 -0.002258338 -0.015041935 -0.0050900527 -0.016152432
-0.05632253 -0.01797684 -0.039494086 -0.08686227 0.11488665 0.037074015 0.099672094 -0.00142096
-0.05322711 -0.042050835 0.066154405 -0.015988957 -0.09256925 -0.020643659 0.09864336 0.022855578
0.0052037775 0.022464242 -0.09119126 -0.052595314 -0.048407536 0.058304712 0.0679945 -0.14418896
-0.09436105 0.11512196 -0.02084522 0.048768364 -0.007329811 -0.021269223 -0.009018807 0.1195598
0.005883058 -0.107280366 0.08585072 -0.03583093 0.13235773 0.23730661 0.07418714 -0.047183935
0.012287589 0.084784895 0.07245554 0.09036261 -0.07188292 0.08814878 0.066006936 0.08278332
0.06109372 -0.046112914 -0.078683645 -0.0343509 -0.07382354 -0.012162909 -0.063939884 -0.015102553
0.07735321 -0.073550425 -0.015221383 -0.0051298267 -0.05133058 -0.16918798 0.105567046 -0.023997482
-0.110746354 -0.035659675 -0.10788723 0.087388 -0.23324443 -0.119313344 -0.054752186 0.10336287
-0.07182232 0.01703392 -0.039299667 0.10719972 0.018434042 0.12909937 -0.01286084 -0.11654148
0.026409993 0.15787083 -0.09868256 0.0928713 0.055380445 0.07053297 0.06983236 0.046455868
0.038497664 0.018602526 0.06431706 -0.12241566 0.11361219 0.10028892 -0.07202286 -0.079804376
0.093964785 -0.002580591 0.072109856 -0.03447473 0.063190155 0.014961802 0.017592063 0.04134627
0.030568385 0.09523807 0.09136067 -0.09035989 -0.04314312 0.070260644 -0.10665991 -0.030073052
0.03347561 0.057115562 -0.071323104 -0.031105295 0.07332759 0.01871861 -0.00845902 -0.006630709
-0.09273176 0.101593584 -0.05718348 0.097861804 0.09972601 -0.077299766 -0.019132128 0.03704579
-0.098102756 0.11028231 -0.03247401 0.0011518297 0.067530856 0.04585233 -0.014673249 0.0075692777
0.057673227 0.106075026 -0.050765842 0.04573231 0.09439443 0.006314805 -0.12251696 0.05980059
-0.05052643 -0.07653335 0.100954264 -0.0026251269 0.16162612 -0.11752563 0.054582857 0.010472004
0.012332001 -0.098358996 0.1319899 0.21001865 0.024559025 0.027457919 -0.08585013 -0.20394766
-0.08657969 0.009392397 0.017673641 -0.13819447 -0.04867943 0.033841312 -0.0042374395 0.042235352
-0.09947674 0.026786275 0.05342324 -0.03391245 -0.07463298 -0.025928782 0.096627176 -0.10130538
0.102310896 0.1727712 0.046546668 0.10342669 -0.16560031 -0.071171954 -0.029848069 0.0917187
-0.15558092 -0.004192006 -0.079765804 -0.027857164 0.14929955 -0.08872248 -0.06784091 0.011864188
-0.0038084234 -0.18415157 -0.048347924 0.005636778 -0.027510276 -0.06682566 -0.1048136 -0.063007236

hidden_layers.3.bias f4 [86]
00000000: 1c2a b43d 1ecd 7fbd d0ce c0bd a50a 93bd
00000010: e635 a1bd d459 62bd c6fd e33d 7a9a 42bd
00000020: 22d2 7c3d e018 1f3d aec1 df3d ec27 1e3d
00000030: 0f7c 99bd 8f22 2bbd 9016 f3bc 1164 183e
00000040: 6f37 af3d 93d0 063d 07e7 7a3c 0ae7 ffb8
00000050: 9816 b0bd c4cb 5b3b 51e1 873c 0689 03bd
00000060: 62a1 c63c 2905 f33d 4770 7dbc 451c 82bd
00000070: efe5 ac3c 24c2 dd3c 71ac e63d c608 9e3d
00000080: 70bd 9c3c 9afb 323c 7de6 9bbb 5bc4 bdbb
00000090: 698c adbd 922e 36bd c787 853c 8de8 9bbd
000000a0: d579 ad3d 407a 33bd 381a 113d ae47 6fbd
000000b0: 0015 0ebd 6bf1 c13d d4d7 543b 4777 083d
000000c0: bd3b 02bd 680a 6f3c ccf1 453c b2db 863b
000000d0: 13d3 743d a5f7 c33d c645 2a3d 1fa7 80bd
000000e0: 1f74 a13d 387b d63a ca60 6ebc 79a4 45bd
000000f0: 6183 ecbd 9470 003b 8088 893c 448a 80bd
00000100: 4698 9b3d 08d5 f4ba f1e6 08be 08ea 623d
00000110: 4f37 673d b7b8 203c e3ce 133e d545 cebc
00000120: bbe9 563d f41b 493d 8d0e 0dbc 4d58 dbbd
00000130: 7ec6 623d 1309 c53b d735 3dbd de21 c8bd
00000140: 5c46 b03d ddb7 853d a591 f7bd 57fb a93d
00000150: e292 863d e187 183e
0.08797094 -0.062451474 -0.09414446 -0.07179765 -0.078716084 -0.055261448 0.11132388 -0.0475106
0.061723836 0.038842082 0.10925613 0.03861229 -0.074943654 -0.041781005 -0.029673845 0.14881922
0.08555495 0.032913756 0.01531387 -0.00012202382 -0.085980594 0.0033538202 0.016586931 -0.032113098
0.024246875 0.118662186 -0.015468664 -0.06353048 0.021105735 0.027070113 0.11263359 0.07716517
0.0191333 0.010924244 -0.004757701 -0.0057912297 -0.08474047 -0.044478007 0.016300095 -0.07612715
0.08470503 -0.04381776 0.035425395 -0.05841797 -0.034687996 0.09469875 0.0032477276 0.033316877
-0.031795252 0.014589883 0.012081575 0.004115545 0.05977161 0.09568719 0.041570447 -0.06281876
0.078834765 0.0016363626 -0.0145494435 -0.048252556 -0.11548496 0.0019598352 0.016788721 -0.06276372
0.07597403 -0.0018679211 -0.13369347 0.05539897 0.05644923 0.009809664 0.1443439 -0.025179783
0.052468996 0.049098924 -0.008609426 -0.107102014 0.05536508 0.0060130446 -0.046193924 -0.09772085
0.0860717 0.0652921 -0.12088326 0.082998924 0.065709844 0.14895584

output_layer.weight f4 [10, 86]
00000000: 1dd5 1fbe 32c9 02be 8a1b 63be 3c96 2b3d
00000010: 846f 133e c210 2fbe 73dc 1fbe dd22 d13c
00000020: 45a6 553d fbc7 113e 3dcc 763d 4326 5dbc
00000030: 6b18 7dbe 696c 9fbc d3b9 503e 6aff 36be
00000040: 5750 6d3c b5b2 2b3d f3c9 e83d 2e0a 2cbe
00000050: 8b95 173e f1a2 963c 4a46 f5bd 04ca 8dbd
00000060: 7fa6 5fbe 70fd 87bd 4b7f 51be 35dd 8bbc
00000070: 9641 f5bd 3988 27be 4c92 7bbe a8c8 b93d
00000080: 1cdd b0bd 7903 19be 6661 663b 1ab4 b4bd
00000090: 28b9 f2bd 681e f23d ec96 c3bd 1b8a a5bd
000000a0: 99e9 d6bd 2abd cf3d 86cc cb3d 7a0e c8bb
000000b0: 4fde 8ebe 5662 65bc e374 203c f64e 8fbd
000000c0: 6411 c6bc 8209 cd3c 90b2 3b3c cf85 26be
000000d0: bf01 033e 09f8 523d 0572 0a3e cd73 d23c
000000e0: a3fa 34be a030 0ebe 286a bf3d c7e3 163e
000000f0: c259 91bd 4315 2cbe 0b4f c0bd 1993 17be
00000100: 03b5 89be 7aa4 88bc cf66 063e d7e6 6fbe
00000110: 0685 ccbd 45a9 0a3e 282f 713d 99c6 77bc
00000120: 5c48 30be ca6c a7bd 0d0c e6bc e569 ec3d
00000130: 3110 743d 4b10 c0bd 71c1 37be fce8 30bc
00000140: 4d1c 1ebe ef78 1cbc 5c34 13bd ee04 4dbe
00000150: 57cd 393d b9d5 08be 8797 27be aa1b 2b3c
00000160: df03 fe3d 4116 97bd 23f4 a7bc 3335 9d3c
00000170: 7952 ff3a cbdc 6bbe 2329 6fbe d1b0 74be
00000180: bf5e 4fbe 97d7 b7bd ab2c 0c3e 2b85 5abe
00000190: 1b57 97be 9131 2b3d 17b2 f83d 137e 90bb
000001a0: cb56 a8bd f45f 9b3d 75b9 54bd bd97 8c3d
000001b0: 7e6b 9c3d 83d9 30be b33b c13d 24a1 b03d
000001c0: a1a5 bebd bd6a 97bd f1dc ff3d 77e3 d93d
000001d0: e19f cf3c 763b 853d 2d9c 89be d486 1abe
000001e0: 5415 48be 92a5 7a3d 783a 54bd 5c85 a8bd
000001f0: 6f12 c53d cb35 b1bd 897e 38bd 0e0c 09be
00000200: 7fd2 a33d aa9c 89bd 8ac7 613b a8ec 253d
00000210: fe7f 1e3e 0786 ac3c f445 18be b435 2c3e
00000220: d91e 31bc bead 153e 5b38 a43d cf8f 41be
00000230: f363 ad3c 6db1 d2bc 2254 02be cbe5 2c3e
00000240: fae8 aebd b660 13be 1b07 bf3d 1f46 773d
00000250: 9e12 033e 4960 303c 0221 173e 7a0d ccbd
00000260: 232b 6a3d d5c3 d8bd 53bd 8f3d 9d12 37be
00000270: 3c81 30bd ffe3 ab3d 2521 9abc 8389 bf3d
00000280: ac54 6e3e 4b3f efbd 40d6 d03d 2809 cebd
00000290: 6d0f 943d bb33 80be 1ccb c6bd bab0 b7bd
000002a0: b6c1 65bc 21fa 5ebe 6e8d 20bd 27d6 23be
000002b0: 89d2 9a3d 6c52 acbd 92b6 a93d 01df b5bc
000002c0: 80da 29bd 1433 acbd 8250 843d 3592 8ebb
000002d0: 510d f6bd ad9b 023e 5a3d c83c b0e2 ee3d
000002e0: cc94 d5bc b320 e0bd b4ec a7bc 9b13 283d
000002f0: b02a e73d 0af2 a8bd 4ecb e1bd 0dbc 0bbe
00000300: 3758 bc3d fbfb adbd d1a1 5abe 3b9a d23d
00000310: 51a7 bebd 44af f33d 560c 4bbe a494 0b3e
00000320: c283 4c3d cb61 ddbd a1ef b23c 5717 643d
00000330: ae41 87bc 8dea d13c 5612 a9ba 307c 28be
00000340: dfed 4fbe bb93 adbc 2ed1 f6bd 0527 f6bd
00000350: 04e9 7d3d ee64 5fbd 9549 bcbd c8f1 9f3d
00000360: 0263 4abe 6971 74bd e002 e6bd 0107 3b3c
00000370: cbc4 f83d b574 4e3e 33c5 d63d 9b78 20be
00000380: 843a 8d3d 73f6 51be 7559 5e3d 9625 823d
00000390: dc52 8bbd 4c95 e1bc a46e bf3d 9ea1 94bc
000003a0: 0d43 5a3d 73c1 013d f35f 153e b97c 59be
000003b0: e0cd 0fbe 82ec 423d f1cf 853d d51c 16be
000003c0: 4f2d 193e 0577 2ebe f909 143e df2b 0ebe
000003d0: c3f9 5a3e fa76 46bd d6e2 fbbd cb31 c63b
000003e0: 8489 00be a3e2 27bb d327 02be 9631 bdbc
000003f0: 88c9 06be 4934 dbbd fb49 4e3d a4e6 9b3c
-0.1560864 -0.12772062 -0.22178474 0.04189132 0.14398009 -0.17096236 -0.15611438 0.02552932
0.05216052 0.14236443 0.06025337 -0.013497892 -0.24716346 -0.019460874 0.20383386 -0.1787087
0.014484487 0.041918475 0.11366644 -0.16800758 0.1480314 0.018388243 -0.11976297 -0.06923297
-0.21840857 -0.06640136 -0.20458715 -0.017073253 -0.119754 -0.16360559 -0.24567527 0.09071475
-0.08635923 -0.14942731 0.003515327 -0.08823414 -0.11851722 0.11822206 -0.095502704 -0.08082982
-0.10493774 0.10143502 0.09951119 -0.0061052414 -0.27903983 -0.014000496 0.009793493 -0.069974825
-0.024178214 0.025028948 0.011456147 -0.16261981 0.12793635 0.051506076 0.13520057 0.025689984
-0.17673735 -0.13885736 0.093464196 0.14735328 -0.07097198 -0.16804986 -0.09390076 -0.14802207
-0.26895913 -0.016679991 0.13125156 -0.23427902 -0.0998631 0.13541134 0.058882862 -0.015123033
-0.17215103 -0.08175047 -0.028081918 0.11543635 0.059585754 -0.09378108 -0.17944886 -0.010797735
-0.15440483 -0.009550317 -0.035938606 -0.20021412 0.045361843 -0.13362779 -0.16366397 0.010443607
0.12403082 -0.073772915 -0.020502156 0.019190406 0.0019479535 -0.23033445 -0.23355536 -0.23895575
-0.20250987 -0.089766674 0.13688914 -0.21339862 -0.29558644 0.041795317 0.12143343 -0.0044095605
-0.082196794 0.07586661 -0.051934678 0.06864879 0.0763769 -0.17270474 0.09435215 0.08624485
-0.09308935 -0.073934056 0.12493313 0.106390886 0.02534479 0.06505482 -0.26876965 -0.15090495
-0.19539386 0.061193056 -0.051813573 -0.08228561 0.096226566 -0.08652838 -0.04504255 -0.13383505
0.07999133 -0.067193344 0.003445121 0.040508896 0.15478513 0.021060003 -0.14870435 0.16817361
-0.010810577 0.14617059 0.080185615 -0.18902515 0.021165824 -0.025719369 -0.12727407 0.16884534
-0.085405305 -0.14392361 0.09327527 0.060369607 0.1280007 0.010765144 0.14758685 -0.09963508
0.057170045 -0.10584227 0.070185326 -0.17878194 -0.043091998 0.08393096 -0.018814633 0.093524
0.23274487 -0.11681994 0.10197115 -0.1006034 0.07229505 -0.25039467 -0.09706709 -0.08969255
-0.014023235 -0.21775104 -0.039197378 -0.15999661 0.07559688 -0.08414158 0.08286776 -0.022201063
-0.041468143 -0.0840818 0.06460668 -0.0043509253 -0.12014259 0.12754698 0.024443317 0.11664331
-0.026071928 -0.10943737 -0.020498611 0.041034322 0.11287439 -0.0824929 -0.110251054 -0.13645954
0.09196513 -0.08495327 -0.2135079 0.102833234 -0.09309257 0.11898664 -0.19828925 0.1363092
0.04993034 -0.10809668 0.02184278 0.05568632 -0.01651081 0.025624538 -0.0012899141 -0.16453624
-0.20305584 -0.021188607 -0.120516166 -0.12019161 0.0619898 -0.054539613 -0.09193722 0.07809788
-0.19764331 -0.05967847 -0.11231017 0.011415244 0.1214691 0.20161708 0.104868315 -0.15671007
0.068959266 -0.20504169 0.05428453 0.06354825 -0.068029135 -0.02753701 0.09347275 -0.018143471
0.0532866 0.03167863 0.14587383 -0.21238984 -0.14043379 0.047588833 0.06533802 -0.14659436
0.1495869 -0.1703759 0.1445693 -0.13883923 0.21384339 -0.04845331 -0.12299125 0.0060484163
-0.12552458 -0.0025617264 -0.12710504 -0.023094933 -0.13162816 -0.10703332 0.050363522 0.019030876

output_layer.bias f4 [10]
00000000: 4b2f 18bd 9d29 1bbd dce4 b33d 3b9d 0c3e
00000010: d609 1ebd a1fc c3bc 8316 a3bd a37e 493d
00000020: 2308 debb c40b 873d
-0.037154477 -0.037881482 0.08783886 0.13731854 -0.0385836 -0.023924174 -0.07963278 0.049193036
-0.0067758723 0.06594041
