Results/BayesianResult3/best_model_weights.pt (torch, 361270 bytes, 6 tensors)

hidden_layers.0.weight f4 [100, 784]
00000000: a28f 013d 479d 973c 1623 6c3b dc4e c93b
00000010: 8815 f43b ec73 8bbc b3a7 0bbd 6fe6 12bd
00000020: 6cb5 ea3c 48c2 d0b8 c3cd bd3c 6dd6 a63c
00000030: 600f f9bc 55cb 07bd 3c8b 05bb b878 513c
00000040: 3b3e ddbc 97d4 b3bc c482 ffbc 6cdd 303c
00000050: a56a 03bd 7d2a 073d 7339 a8bc 8a90 53bc
00000060: 514a d9bc bd6e cf3c 3a6f c53b d328 c9ba
00000070: 351b bdbc 09e8 97bc a738 98bc 7222 ba3b
00000080: 1311 f03c ddec 063d c166 8d3c 68f5 fdbc
00000090: d5ff 0abd 50b2 86bc e2ea a23b cfda 073d
000000a0: 90bd 7c3c 10ef f93b 1b64 993c ad6f eebc
000000b0: a0e1 b23c 2eb4 233c 5327 0fbc 50b7 c1bb
000000c0: 766f 953c d5de deb9 0ef8 023b 174b 11bd
000000d0: 54f4 333c d9a5 97bc d086 72ba 1f07 b03c
000000e0: 08d8 953c a283 04bd 9e7b 4ebc 7fc7 e63c
000000f0: 3fd9 ca3c 75c4 063d e646 08bd bcad 4ebb
00000100: 62a4 bdbc fa0f 08bc 6209 fbbc b5c1 43bc
00000110: 8a4e afbb acbd c33c d9b7 62bc b14a e8bc
00000120: 0dd6 5a3c eaaa 58bc 011d d6bc d31d 04bd
00000130: 9c05 24b9 25e7 ccbc f0d3 95bc 3828 df3c
00000140: ef0f a9bb 960c f5bc 2a86 09bc 879e 133c
00000150: c063 07bd ca28 7fbc 884b e5b8 7a56 783c
00000160: 8913 a53c e472 23bb a9d8 b23b e3aa cf3b
00000170: e92e 34bd 77ff 1ebc 8e10 b7bc 77cb a8bd
00000180: 6ffd 7bbd 8327 23bc dc3b 6cbb 4a3b 52bd
00000190: 14db 63bc b413 f9bc add5 c2bc b733 5abc
000001a0: f9c5 f3bc ae6d aaba 9b5e cb3c 5387 753c
000001b0: 7dbe f23c 41b8 06bd 4af7 f2bc 4ad7 f13c
000001c0: 891e 113c b94d c9bc 183f c03b eac2 6a3c
000001d0: 923a 32bc f9aa 0cbd b28c 8bbc 6fad 20bd
000001e0: 0b44 593c 687c adbc e125 90bc d685 76bd
000001f0: 6976 ddbc 0bf6 dcba 0dd0 c3bb 42e7 70bd
00000200: ea44 6abd f68d b5bc c2df bebc 82c8 64bc
00000210: 7bde 42bd 976f bcbc df31 72bc 03b7 833c
00000220: f64d c73b c96d 11bd f956 c13c 1676 223c
00000230: 007d 4dbb 3540 f43c 1258 03bc aec8 03bc
00000240: 988d abbb e966 bd3b 2986 0ebd 2c08 1abd
00000250: 5d21 1dbc 5f79 40bc 1f41 a7bd 4adb 3cbd
00000260: a499 c4bc e79a 733d ebcc 653d 7bfc cf3d
00000270: ecf9 573d b7fb 563d d01e 3b3d 50bc 583d
00000280: 19d0 193d 85aa 583d cbdb 283d c558 1e3b
00000290: 8f56 37bc 7f96 d63c 1999 af3c f6c8 1ebc
000002a0: 3e66 3a3c 976d 063d 3116 56bc 023b 8dbc
000002b0: a71b 8dbc 758c 0cbd 7c9c 50bd 8aef 3fbd
000002c0: 4929 0ebd 4163 81bd 10c0 debb 71cc f53c
000002d0: f8fe 8f3d adb9 3d3c bf31 edbb d36d 0a3d
000002e0: 75c9 a33d f333 f23d a364 b93d 8724 5a3d
000002f0: 9bc7 303d 3c3f 303d 7917 423c fee9 2fbd
00000300: 21b2 7a3c 08eb 94bc ae52 8bba 138f 74bc
00000310: 858b 07bd d0f5 083b 4eae ccbc 9318 8f3c
00000320: 30be b3bc d7eb 8fbc 1b18 193b 6c18 40bd
00000330: 9131 7cbd b44b 06bc 7f1a 103c ba32 2fbd
00000340: 4a20 20bd 6918 a13a dcce d0bb 1fd1 c73c
00000350: 51ec 2f3d feef a43d e296 0c3e 420e 793c
00000360: e2b8 113d ef78 883d 5264 cf3c 9bc8 f8bb
00000370: f6b3 52bd ad50 12bd d124 e5bb 7016 9fbb
00000380: e9f8 8c3c cafc 8e3c 16fe 06bc 8424 c23c
00000390: 7d98 d23c 4b86 bdbc 392d 88bc c600 1fbc
000003a0: 33ad f4bc f5af e4bc 1569 02bd 69be 1bbd
000003b0: 1807 a2bd c0ae 21bd f945 163c 1d52 2fbb
000003c0: 16f1 8a3c 21fd a53d 283a 353e b859 9e3d
000003d0: 989f 98bc 4f25 5b3d 8654 a03d 20a6 113a
000003e0: 1785 b93b afd5 8abc 4076 c9bc 094e 923c
000003f0: be0d 08bc e168 01bd aa70 6bbc df6d 4e3c
0.03163112 0.018507613 0.0036031655 0.006143434 0.007448856 -0.01702305 -0.034095477 -0.03586429
0.028650962 -9.9544006e-05 0.023169404 0.020365918 -0.03040284 -0.033152897 -0.002037718 0.012785129
-0.027007213 -0.021951957 -0.031190284 0.010794979 -0.032084126 0.032999504 -0.020535206 -0.012912879
-0.026524695 0.025321359 0.006025222 -0.001534725 -0.023084262 -0.01854326 -0.018581701 0.0056803757
0.029305017 0.032940734 0.017260911 -0.031000808 -0.033935387 -0.016442448 0.004971848 0.033167657
0.015426055 0.0076273754 0.018724492 -0.029105986 0.021836102 0.009991689 -0.008737403 -0.005911745
0.018241625 -0.00042509162 0.0019984278 -0.035472002 0.010983545 -0.0185117 -0.0009251656 0.02148777
0.018291488 -0.032352097 -0.012602715 0.028171299 0.024761794 0.0329022 -0.03327074 -0.003153666
-0.023149673 -0.00830459 -0.030644123 -0.011948039 -0.0053499388 0.023894154 -0.013837778 -0.028355928
0.013356698 -0.013224343 -0.026136877 -0.032255005 -0.00015642348 -0.025012562 -0.018289536 0.027240857
-0.00515937 -0.029913228 -0.008393804 0.009009964 -0.033054113 -0.01557369 -0.0001093364 0.015157336
0.020150917 -0.0024940306 0.005457957 0.00633751 -0.04399005 -0.009704462 -0.022346761 -0.08241933
-0.06152099 -0.009958151 -0.003604642 -0.051326074 -0.013907213 -0.030404903 -0.02378353 -0.013317994
-0.029757487 -0.0013002658 0.024825385 0.014985877 0.029631848 -0.032890562 -0.029658932 0.029521603
0.008857378 -0.024573194 0.0058668964 0.014328698 -0.010878222 -0.03434274 -0.017034862 -0.0392279
0.013260852 -0.021177486 -0.017596187 -0.06018623 -0.027034001 -0.0016857994 -0.0059757293 -0.058814295
-0.057194628 -0.022162419 -0.023300055 -0.01396382 -0.047575455 -0.023002429 -0.014782398 0.016078478
0.0060822917 -0.03550509 0.023601042 0.009915849 -0.0031355023 0.029815773 -0.008016603 -0.008043451
-0.005235385 0.00578009 -0.034795914 -0.03760545 -0.009590474 -0.011747687 -0.08166718 -0.046107568
-0.023999043 0.0594739 0.056103628 0.10155579 0.05272858 0.052486148 0.045683682 0.052913964
0.037551973 0.052896995 0.041225236 0.0024161797 -0.011190071 0.026194809 0.021435307 -0.0096914675
0.0113769155 0.032819357 -0.013066814 -0.017240051 -0.0172251 -0.034313638 -0.050930485 -0.0468593
-0.03470734 -0.06317759 -0.006797798 0.030004712 0.07031053 0.011579913 -0.007238596 0.033796143
0.07997409 0.11826315 0.09052398 0.05325749 0.04315911 0.043029055 0.011846417 -0.04294776
0.015301258 -0.018178478 -0.0010629499 -0.01492669 -0.03309204 0.0020898469 -0.024985459 0.017467773
-0.021941274 -0.017568512 0.0023360315 -0.04689829 -0.061570708 -0.00819676 0.00879538 -0.042772986
-0.039093293 0.00122906 -0.006372316 0.024391709 0.04294998 0.080535874 0.13729432 0.015201153
0.03557671 0.06663691 0.025316391 -0.0075922734 -0.051441155 -0.03572147 -0.0069929142 -0.0048549697
0.017208533 0.017454524 -0.00823929 0.023699053 0.025707478 -0.023135325 -0.016623126 -0.009704774
-0.029867744 -0.027915934 -0.031838495 -0.038023386 -0.07911509 -0.039473295 0.009171956 -0.0026751824
0.016960662 0.08104921 0.17697966 0.07731956 -0.018630788 0.053502377 0.078286216 0.00055560656
0.0056616175 -0.016947595 -0.024592519 0.017859476 -0.008304058 -0.03159416 -0.014370123 0.0125994375

hidden_layers.0.bias f4 [100]
00000000: 7db5 98bc 3040 af3c 9200 63bc c3d8 b9bc
00000010: 9b59 2d3b 413f dbbc d3b2 0dbd 4684 10bd
00000020: d367 8b3c 3e85 1dbc b589 043d 9272 473c
00000030: ec38 c6bc 5b13 1c3d bdc0 8dbc e17f eb3c
00000040: 255e 24bd 12c0 a23c 4503 2d3c 6d93 d5bc
00000050: 0b2f 7fba 5cb7 6bbc b0b0 ffbc 7933 e53c
00000060: d880 dbbc 4dc6 df3c 416b 843b 514e bdbc
00000070: a510 a9bc 0478 06bd 084a b7bb a4ad 863c
00000080: cdad 07bd 7eb1 d73c 85fc 1dbc 194c fdbc
00000090: fe2a 92bc 8289 b43c d8a8 74bc e23b 1bbd
000000a0: fd97 0dba 4ae3 e0bc 77aa 053c 6de2 4bbb
000000b0: 6e3b f63b 47a2 11bd a68a 3b3c 1063 eb3c
000000c0: 08c2 9db9 2eb5 86ba 56c4 303b 6993 e0bc
000000d0: 8661 0a3d d8e7 f13b 9886 bf3c e3c8 22bd
000000e0: d39d 163d d647 92bc 49a3 d6bc 796f e53b
000000f0: a0ae 04bb 5063 a5bb ab0d 00bc dfce dbb9
00000100: f2a9 243d 0728 33bc 39d3 b7bb caaf 843c
00000110: dcc8 dabc 58de 8fbc cf75 cbbc 00db 1e3d
00000120: 12a3 0c3c 9843 093d e25d 8f3b d355 d93c
00000130: 4781 bebc 0e6a ad3c 92b8 e7bc e431 0dbd
00000140: 34e8 8c3c cfc2 5a3c 14db bf3c 44da 26bc
00000150: e3e3 333d d529 c63c 48ec b6bc 6817 4abc
00000160: ee55 113d 1556 60bb 7886 553c 3914 dbbc
00000170: 612a 8a3c 46d0 09bd 290b 48bc 3111 913c
00000180: 8dae 57bc 5803 17bd 2b5a ad3c 5190 d7bc
-0.018641228 0.021392912 -0.013855116 -0.022686368 0.0026451114 -0.02676356 -0.03459437 -0.035282396
0.01701728 -0.009614287 0.03235789 0.012173312 -0.024197064 0.038104396 -0.017303819 0.0287475
-0.040128846 0.019866977 0.010559862 -0.026071275 -0.0009734488 -0.014386978 -0.03121218 0.027978646
-0.026794836 0.027316237 0.004041106 -0.023108633 -0.02063782 -0.0328293 -0.005593542 0.01644022
-0.033124734 0.026329752 -0.009642725 -0.030920075 -0.017842766 0.022038225 -0.014932834 -0.037898906
-0.0005401371 -0.02745213 0.008158318 -0.0031110302 0.007514409 -0.03555515 0.011446631 0.02873376
-0.00030089938 -0.0010277384 0.0026972494 -0.02741404 0.03378441 0.0073823743 0.023379609 -0.03974236
0.036771607 -0.01785652 -0.026200907 0.007001814 -0.0020245686 -0.0050472394 -0.007815759 -0.00041925066
0.040201135 -0.010934836 -0.0056098965 0.016197104 -0.026707105 -0.017562076 -0.024836449 0.038783073
0.008583801 0.033511728 0.0043752054 0.026530182 -0.023255004 0.021168735 -0.028286252 -0.034471408
0.017200567 0.01335211 0.023419894 -0.0101838745 0.0439185 0.024189869 -0.022329465 -0.012334682
0.03548234 -0.0034230996 0.013032548 -0.026743041 0.016865911 -0.03364589 -0.012209692 0.017708393
-0.013164175 -0.036868423 0.02116116 -0.026313933

hidden_layers.3.weight f4 [100, 100]
00000000: 1503 383e 4d27 d63d 1acc 0a3e 32bb 0d3e
00000010: 22f3 92bd 333b c53d a218 e5bc b34f a1bd
00000020: 0efd c03b 0f58 a73d 2bda bdbc 1f8c 92bc
00000030: b9b5 a73b 7816 c3bd 3d59 e83c 4764 78bc
00000040: 7a69 ad3d e69e f3bd cdac 823c 9347 523d
00000050: 84d6 a23d 2a39 843d 3a73 c1bc d7a3 593d
00000060: f23c cd3d d833 a93d fa6f 9ebc 7acd d73d
00000070: 8431 09be 2b0f 5b3d 0a1d a3bc 73ea 79bc
00000080: caa6 343d b9f3 a03d be9a df3c d3a5 f53d
00000090: a014 56bd 7d3c b0bd 2e22 20bd 9952 d6bc
000000a0: cda6 7d3c aba0 093d 8299 a3bd e836 e23d
000000b0: 32f9 6abc cae0 b03d b2d6 ffbd dfb9 d93c
000000c0: bbca 4cbd 17af 0a3e 977e 3fbd c9cf e53c
000000d0: 4ae6 36bd dc09 ac3b e5c3 c83d 6e4f 59bd
000000e0: 5d12 8c3d 7408 95bd d8e4 583c 94f6 93bd
000000f0: 7269 3b3d cfc5 d23d 6464 9b3d 0386 3c3d
00000100: 8eb0 a7b9 092c 13be b2d3 f43d 0058 613d
00000110: 117d 24be bda9 1dbd 9400 ec3d 768d 313e
00000120: a965 493d d662 ec3b e03d a73d 46df 5c3e
00000130: 3803 86bd 76be 303d 2a85 adbd 593f 0dbd
00000140: 60ae 663d 0a9c 1a3e 254d 8e3b caf6 763d
00000150: 9605 243e e4fc fd3c d81d 113c a177 993d
00000160: 7401 873b 8eb0 04bd 3a1c ea3c 10c1 833d
00000170: 5a77 08bd 42ae cbbc c18e c53d 1464 7c3d
00000180: 54c4 2ebd 8a7e 983b 6749 143e 8ee0 d13d
00000190: 0344 d23b 62b7 b13d 607e bebd b78b e03d
000001a0: 86c5 18bd 4a0a ac3d 93b2 563d 87ef 8dbc
000001b0: 7ae1 943a d8d7 743d a6be 80bd c4be 583d
000001c0: 2b7c dcbd 02a3 10bb 9c4e b93d 6290 11bb
000001d0: 45e5 373e 0872 043e 47f0 053d a779 863c
000001e0: 43a3 bd3d 1f10 073c 5df3 98bd 5f61 86bd
000001f0: d517 90bd 8aac a53c 1284 d8bd 042c 063e
00000200: 5c7e 9dbd 56f9 b1bd da45 1dbc 97f6 4bbd
00000210: a3bd 023d 5ffd 44bd 77f4 00bd 5931 a0bd
00000220: a972 ac3d 5736 e5bc ce6d 823d 488b 9b3d
00000230: e5c9 87bd f675 263d fad4 a63d 44e4 1c3c
00000240: 977e 9dbb 173e 27bc f41b d43d 865d 97bd
00000250: 6979 523d 6872 0dbd 8d8d 87bd eb5f be3d
00000260: b705 a43d 44f2 3f3d ed44 cb3d 21d2 ccbc
00000270: 13df 10be bdff 1cbd d6ea b53c 9af0 05bd
00000280: 4d4e a7bc faf9 fdbc 9858 2d3d bd6e 603d
00000290: 2547 edbb 438a 293d cd12 bd3d d8cc c23d
000002a0: d43b 853d 3019 783d e6d9 90bd 91b1 f3bb
000002b0: 47a5 78bd 8cd4 f93d 000a 523b dde3 993d
000002c0: 2d09 323d a802 05bc 7ce8 8f3c 932a e9bc
000002d0: 6f32 ac3d c35f d43c 5a5e c2bb 791f 1d3e
000002e0: 246b b3bd d567 563b 87ad ae3d ab33 b6bd
000002f0: 4370 c2bd c966 a6bd f789 5e3c 60bf f83c
00000300: bfb6 43bd e7dd a5bc 0f58 aabd 0c22 43bd
00000310: a517 7fbd 8056 08bc bfd6 f43c d9cf 59bd
00000320: f8b4 843c 932b 76bb a336 223d ac60 533d
00000330: 0d12 ccbd 000c 2e3d e0a1 883d 1a78 1abd
00000340: 9db3 ab3d 9ba3 f2bd 35d5 923d ed6d 98bd
00000350: b765 fbbc 23f8 47bd f390 29bd 6a47 f8bd
00000360: 4fbe 7bbd 7b04 a9bd eb9f 97bd f204 b1bd
00000370: 4820 963d 267e 73bd c2f3 b9bd 5754 c1bd
00000380: 5a19 4ebc 6af8 563d 67ae b1bb da2a dcbb
00000390: 1720 8c3d 40e1 bfbd 2a67 4d3d 971c a5bd
000003a0: aac8 123d 629a a8bd 7f45 d9bb ce85 b9bd
000003b0: 2f4d c53c b66b efbc 8d19 653c 8f67 ab3d
000003c0: ca13 893d fa19 a53b b364 a2bc db7c 04bc
000003d0: 9214 86bd b311 3cbc 711f bbbd 4d91 fbbc
000003e0: f4ef 93bc 46ea 9abc ad60 c7bd af3d cbbd
000003f0: 7de4 cfbd 8797 86bc fd08 25bd f02d 2c3d
0.17969926 0.10456715 0.13554421 0.1384094 -0.0717528 0.09630432 -0.027965847 -0.078765295
0.0058895415 0.08171093 -0.02317532 -0.01788908 0.0051180986 -0.0952577 0.028362865 -0.015160627
0.08467384 -0.11895542 0.015951538 0.05133779 0.07951072 0.06456216 -0.023614515 0.053134765
0.1002139 0.082618415 -0.019340504 0.105372384 -0.13397795 0.053481262 -0.019911308 -0.015253651
0.044104375 0.078589864 0.027295467 0.11994519 -0.052265763 -0.08605287 -0.039095096 -0.026162433
0.015481663 0.03360049 -0.07988264 0.11045629 -0.014341639 0.08636625 -0.12492122 0.026577888
-0.049998026 0.13543354 -0.046751585 0.028053181 -0.044653215 0.0052501988 0.09802989 -0.053054266
0.0683944 -0.07277003 0.013238154 -0.072247654 0.045754857 0.10291635 0.07587507 0.04602624
-0.00031984266 -0.14372267 0.1195444 0.055015564 -0.16063334 -0.038491953 0.11523548 0.1733912
0.049169216 0.0072139306 0.081660986 0.21569547 -0.06543583 0.043150388 -0.08472665 -0.03448424
0.05631864 0.15098587 0.0043426924 0.06029395 0.16017756 0.031004377 0.008857213 0.074935205
0.0041200463 -0.03239494 0.028577913 0.06433308 -0.033316948 -0.024863366 0.09646369 0.06161888
-0.0426677 0.0046537565 0.14481126 0.102479085 0.006416799 0.086775556 -0.09301448 0.109641485
-0.037297748 0.084004 0.052416395 -0.01732613 0.0011358701 0.059776157 -0.06286363 0.052916303
-0.10765871 -0.0022069816 0.09048197 -0.0022211303 0.17958553 0.12934124 0.03269985 0.01641543
0.09259655 0.00824359 -0.07468293 -0.06561541 -0.070357956 0.020223875 -0.105720654 0.13102728
-0.07690117 -0.08690135 -0.009599173 -0.049795713 0.031919133 -0.048093196 -0.03148314 -0.07821912
0.08420307 -0.027980013 0.063686 0.07594925 -0.06630305 0.04063984 0.08146091 0.009575907
-0.0048063505 -0.0102076745 0.10356894 -0.07390885 0.051385317 -0.034532934 -0.066187955 0.09295639
0.080089025 0.046861902 0.09925256 -0.025002541 -0.14147596 -0.03832983 0.022206705 -0.03270016
-0.020423079 -0.031002987 0.042320818 0.05479311 -0.007241147 0.041391622 0.092321016 0.09511727
0.06505552 0.060570896 -0.07072811 -0.007436939 -0.060704496 0.12198743 0.0032049417 0.075141646
0.043465782 -0.008118309 0.017566912 -0.028462684 0.08408057 0.025924569 -0.0059316577 0.15344037
-0.0876067 0.0032715697 0.085291915 -0.08896574 -0.094940685 -0.081250735 0.013582698 0.030364692
-0.047781702 -0.020247413 -0.08317577 -0.04763989 -0.06227841 -0.008321404 0.029887555 -0.053176735
0.016199574 -0.0037562593 0.039602887 0.051605865 -0.099643804 0.042491913 0.066715 -0.037712194
0.08383868 -0.118476115 0.07169572 -0.07442842 -0.03068815 -0.048820626 -0.041398 -0.12122996
-0.06146079 -0.08252808 -0.07403549 -0.08643521 0.07330376 -0.059446476 -0.09079696 -0.09439915
-0.0125792865 0.052483 -0.0054224017 -0.0067189755 0.06842058 -0.09369135 0.050147213 -0.08062094
0.0358359 -0.08232571 -0.006630599 -0.09058724 0.024084656 -0.029226165 0.013983143 0.083693616
0.066932276 0.005038497 -0.019823408 -0.0080864085 -0.06546892 -0.011478829 -0.09136856 -0.030708933
-0.018058755 -0.018910538 -0.09735236 -0.099238746 -0.101510026 -0.016429676 -0.040291775 0.042035997

hidden_layers.3.bias f4 [100]
00000000: ad43 14bc fe44 503d 5d55 343d 64b7 b63d
00000010: f338 db3d c026 73bd 2f6a 2c3d 5fab e43d
00000020: 5fdd f03c b7a7 c03c 5c7e adbd 3cc9 c83d
00000030: bde5 d2bc 5996 8a3c d67b 48bd 8f87 50bd
00000040: 57de 34bc 93ac 173d e35d a03d 2718 fd3c
00000050: 3cd3 5b3d 087f a7bb d8e4 42bb f711 00be
00000060: 0203 8cbd 9044 82bd 92ef 90bd 7d6c 103d
00000070: dae3 63bd 4c83 91bd 43a4 9a3b 44c7 3c3c
00000080: 7533 933d a47d ea3d f1cb 353d f356 a83d
00000090: bb66 493c 5cbf e2bc d7c7 9e3d 8253 55bd
000000a0: 2694 b93d 2ccf dc3d d273 a93d 51aa 073e
000000b0: 7c3a 993d d70d 423d 60ac 9b3d 1478 96bb
000000c0: 825f a63d 2c12 6d3d 9f7c 963d a1ed 8d3c
000000d0: 7a0a 853d 2853 703b 7172 a33d 0575 40bd
000000e0: 4f7f 803c 41de 17bd f24e 87bd 7f52 d0bd
000000f0: 80c7 923b c429 2bb9 3227 c93d 9d83 563b
00000100: 185d fd3c 40bb 913b 703b 37bc 598b 3e3d
00000110: 4733 a53d 14c5 7c3d efb1 8bbd b3c0 94bc
00000120: 9940 633d 62d7 5dbb 3d5a 473b e823 153d
00000130: e501 743d 3378 d33b 54dc 91bc 8acb d03d
00000140: 0c3f 113d 7f76 323d 510d 49bd 92e8 9cbd
00000150: fc77 10bd 9d17 c83d e392 7fbd 0a48 0d3d
00000160: 23b0 8fbd db26 43bd c27c 723d 40ca 783b
00000170: 03cb 8c3c 7ff9 7c3c 9a50 823d cea6 42bd
00000180: 3817 d43c 3ab1 c6bd 46c0 50bd 308a dcbd
-0.009049338 0.050847046 0.04402672 0.08921698 0.107042216 -0.059363127 0.042093452 0.11165499
0.029402433 0.023517473 -0.08471367 0.098040074 -0.025744313 0.016917394 -0.048946224 -0.05091053
-0.011039338 0.037029814 0.078304075 0.030895306 0.053668246 -0.005111579 -0.0029738452 -0.12506853
-0.06836511 -0.063607335 -0.070769444 0.035259712 -0.055637218 -0.07105121 0.0047192886 0.011522118
0.07187549 0.11449745 0.044383947 0.08219709 0.012292559 -0.027679138 0.0775296 -0.052081592
0.0906146 0.107817024 0.08274044 0.13248564 0.07481858 0.04737648 0.07601237 -0.004591951
0.081236854 0.05787866 0.07347988 0.017325224 0.06496139 0.0036670659 0.07980812 -0.0469866
0.015685705 -0.037077192 -0.066068545 -0.10171985 0.0044793487 -0.0001632339 0.09821929 0.0032732256
0.03092818 0.004447371 -0.011183605 0.04651961 0.08066421 0.061711386 -0.068210475 -0.018158292
0.055481527 -0.0033850302 0.0030418776 0.036411196 0.05957212 0.006453538 -0.017805256 0.10195072
0.035460517 0.043570038 -0.049084965 -0.07661547 -0.035270676 0.09770129 -0.06239594 0.03449253
-0.07016017 -0.047644477 0.05920101 0.0037962347 0.017186647 0.015440344 0.0636303 -0.04752236
0.025889978 -0.09701772 -0.050964616 -0.10768545

output_layer.weight f4 [10, 100]
00000000: 2930 ed3d 98f9 1abe 632e b2bc 5c90 f5bc
00000010: c0cd 403d e76d c23d a06f 99bd 04e4 003e
00000020: 6c2d b2bd d5cb c3bd e3fb 2dbe 9a34 643d
00000030: 5e36 08bd 26b8 10be e626 20be e1bb 033e
00000040: 84ae 2fbe 4f99 de3d e4a4 50bd f3af 40bc
00000050: 618d 803c e0de 27be 5dc2 393d 2ec8 8abd
00000060: 5dcf cabd babe a5bc b4ea 8fbd c974 573d
00000070: 9ec4 093d 5a93 c0bd f3dd 0bbe b63a 4dbe
00000080: 8388 b73d e8d9 eabd 14c1 9dbc a0ef 3fbe
00000090: 9cad 823d 4f00 e73d 22c7 a2bd 2e33 e13d
000000a0: fec3 abbd 8820 6fbd 441a 92bd efd0 dfbc
000000b0: bf40 82be 68e9 06be dadf 2fbe 909c c8bd
000000c0: 8044 aabd 485c 78bd 5079 923d fc1b 0d3e
000000d0: be44 60bd 1285 d53d e1ea 063c 6b2e 243e
000000e0: 0347 0bbe 9a87 67bd 9776 8e3d db60 0c3e
000000f0: 39d9 36be c757 b33d d9f9 cbbc 9cd9 023e
00000100: 22dd cebd 52d9 dc3d f6b0 e63c e136 d0bc
00000110: deb3 83bd 95dd 90bd b843 163d c017 943d
00000120: 665e 65bd 3f14 903b 87b8 0cbd e15e 32bd
00000130: 23d5 1cbe 1384 f1bd 8435 01bd b601 16bb
00000140: d487 ccbd b92d 8cbc 2543 0fbe 1ba0 27be
00000150: 59f2 06be 7d53 d93c 0aa5 76be 80fa 5bbd
00000160: e366 fd3d 8a9b 323e bea5 ba3d ac26 54be
00000170: d9dc b3bd bae6 cc3b e0fc 313d 17d8 0e3d
00000180: 871f c13c 6cda 87bd e632 05be c79c 0abe
00000190: 3e0b 12be cb09 443d 34d4 7cbd 4a2d cd3d
000001a0: 35c2 f2bd c1e5 02be a492 053e 9e4a 0bbe
000001b0: eef7 333d ad55 793d f375 d73d 931e a43d
000001c0: b05c 0ebd 774e 743d 9703 743d d9dc 2abb
000001d0: 5765 80bd b6c8 8e3d b1fb 673d 08ac 8c3d
000001e0: a3a3 683d 8a59 27be a8a6 fdbd 0fe4 41bd
000001f0: 69c3 eb3d 8e11 543e 6cca 31bd dfab 0bbe
00000200: 862d 1a3c d153 a63d 3359 bfbd 5941 123e
00000210: 7505 0cbe a00a 353d c9c0 04be 17e5 82bd
00000220: 01e0 10be ddea f3bd dbd2 10bd 20a2 623d
00000230: f1ce 8bbd e0aa d9bc f75a 5ebd 38e2 2bbe
00000240: 6a2a 043e 63d8 153d 8360 5f3d 8a38 033e
00000250: 60d5 b8bd 8f2e 13be c4f2 103e 2f45 dbbd
00000260: 04bd 18be 07da 923d 3590 b7bc 20b0 24be
00000270: 24bd 20be 31b2 79bd f85b 453d 8d7f 87be
00000280: 7dab bdbc 98bd 153d f55c d53d 06ad 883c
00000290: 5c9f ab3c d70d b5bd 1efd 20be d8e0 ad3c
000002a0: 9374 43bd 5613 a5bd b4b0 a53d 7f0a fabd
000002b0: 4e7e 163c 91ed 43be 1386 2c3c 2972 abbd
000002c0: a18f 16be 6885 f9bd 0c11 6ebe fed5 523d
000002d0: 2dbe 69bd 03c0 563d 7383 c5bd 2c64 f6bc
000002e0: 1a91 f5bc b2ed 8e3d 5b92 a43d ce55 cc3d
000002f0: f225 44be f089 59bd 7685 e7bd 06fd 7abb
00000300: 6f99 c13d b0f5 023e fc8c 21be 53fd 0fbe
00000310: 60d0 09bd 2047 20bd da08 5fbd 5e69 f53c
00000320: 3085 10be e788 613d 77a0 053c 4fc3 21be
00000330: cf65 2fbb 5c06 73bd 0f42 66bc f47f 003d
00000340: 4ae6 d53c 0fd4 193e f4e3 0ebe 5a24 d2bd
00000350: 1fad b1bd e56c a0bc e9bf f33c 062b 003e
00000360: 6db9 a43d 1929 65bd ef11 ce3d c6fd 0e3c
00000370: 9b0e 0ebd 84bf 4fbd 4ddf 9e3d 6679 33bd
00000380: b93d a13c 749c 3bbe 3a6e 8a3d 119b f83d
00000390: 3c34 af3d 2b9b c23d f4bb 9cbc 82b0 95bd
000003a0: ac5f d0bd e2bf 6d3d 936e a43d d85c 25be
000003b0: 000d 083e 7c1c 04be a441 ea3d 472f e2bc
000003c0: ae61 2d3d c47e a3bd e639 25be ac6b bd3c
000003d0: 88a3 98bd 414d 40bd e765 2b3e 5777 b1bd
000003e0: 8bc4 0e3c a156 e53b 3a9c 7f3d 3ab4 e9bd
000003f0: abac d2bd ea55 3ebd 51d7 f43d 5314 5ebd
0.115814514 -0.15134275 -0.021750635 -0.029976062 0.04707122 0.094936185 -0.07491994 0.12586981
-0.0870007 -0.09560362 -0.16990618 0.055714227 -0.033254974 -0.14132747 -0.15639839 0.12864639
-0.17156416 0.10869085 -0.050938502 -0.0117607 0.015692415 -0.16393614 0.045351375 -0.067764625
-0.09902833 -0.020232547 -0.07027188 0.05260161 0.033634774 -0.09403105 -0.13658886 -0.20041928
0.089615844 -0.114673436 -0.019257106 -0.18743753 0.063807696 0.11279356 -0.07948138 0.1099609
-0.08386992 -0.058380634 -0.07133916 -0.027321307 -0.25440022 -0.13174975 -0.17175236 -0.09795487
-0.083138466 -0.06063488 0.07152045 0.13780206 -0.054753058 0.10425772 0.00823471 0.16033332
-0.13601308 -0.056525804 0.06956213 0.13708822 -0.17856301 0.087569766 -0.02489941 0.12778324
-0.101007715 0.10783638 0.028160553 -0.025416793 -0.06430791 -0.070735134 0.036685675 0.072310925
-0.05599823 0.004396945 -0.034355666 -0.043547515 -0.1531568 -0.11792769 -0.031545177 -0.0022889203
-0.09986845 -0.017111646 -0.13990457 -0.16369669 -0.13178386 0.026529068 -0.24086395 -0.053705692
0.1237314 0.17442146 0.09113644 -0.20717877 -0.08782358 0.0062530907 0.04345405 0.034874048
0.023574604 -0.066334575 -0.13007697 -0.13536368 -0.14262101 0.0478609 -0.06172581 0.10018404
-0.11853448 -0.12782957 0.1304422 -0.13602683 0.043937616 0.060872722 0.10520544 0.08013644
-0.034756362 0.059645142 0.059573736 -0.0026071577 -0.06269329 0.06971876 0.056636516 0.0686875
0.05679668 -0.1634275 -0.12385303 -0.047336634 0.11511881 0.20709822 -0.043405935 -0.13639782
0.009410268 0.081214555 -0.09343185 0.1428274 -0.13673957 0.044199586 -0.12964167 -0.06391352
-0.1414795 -0.11910031 -0.035357337 0.055330396 -0.0682658 -0.026570737 -0.05428597 -0.16785514
0.12906805 0.036583316 0.0545354 0.12814537 -0.09025073 -0.1437323 0.14155108 -0.10706555
-0.14915854 0.07170492 -0.02240763 -0.16082811 -0.15697151 -0.060960952 0.04818341 -0.264645
-0.023153061 0.036557764 0.10418121 0.016684067 0.020950012 -0.0884053 -0.15721557 0.021225378
-0.047718596 -0.08060329 0.08090344 -0.12209033 0.009185387 -0.19133593 0.010530013 -0.08371384
-0.14703228 -0.12183648 -0.2324869 0.05147361 -0.05706613 0.05242921 -0.096442126 -0.030077063
-0.029976416 0.069789305 0.080357276 0.099773034 -0.191551 -0.053110063 -0.113047525 -0.0038297786
0.09453093 0.12789035 -0.15776438 -0.1406148 -0.033645988 -0.03913033 -0.0544518 0.02995747
-0.14113307 0.0550622 0.008155934 -0.1579716 -0.0026763564 -0.059332237 -0.0140538355 0.031372026
0.026110787 0.150223 -0.13954145 -0.1026084 -0.08675598 -0.019583175 0.029754596 0.12516412
0.0804318 -0.055947397 0.10062014 0.0087274965 -0.034681898 -0.050719753 0.07757435 -0.043816946
0.019682752 -0.18321401 0.06759305 0.121389516 0.08554885 0.09502252 -0.019132592 -0.07309057
-0.10174498 0.05804432 0.08028903 -0.16148698 0.13286209 -0.12901491 0.11438301 -0.027610434
0.042329483 -0.07983163 -0.16135368 0.023122631 -0.07453066 -0.046948675 0.16738091 -0.086653404
0.008713852 0.0069988524 0.06240485 -0.114113286 -0.1028684 -0.046468653 0.11955131 -0.0542186

output_layer.bias f4 [10]
00000000: f10a a13d 5e8b 203d 0c7b 933d 4da5 8c3d
00000010: 1e56 8d3d 48cc 7fbd 9397 aa3c edfb 22bc
00000020: 3301 a13d b6bb e13d
0.07863415 0.03919541 0.07201204 0.06867466 0.06901191 -0.062450677 0.02082423 -0.009947759
0.07861557 0.11022131
