Results/GeneticResult/best_model_weights.pt (torch, 380648 bytes, 4 tensors)

hidden_layers.0.weight f4 [119, 784]
-0.026364464 -0.00903076 -0.029284546 -0.01669668 -0.032976817 0.01118087 0.013346023 0.030098826
-0.0103863105 -0.016087964 -0.028719068 -0.021559138 0.0136077395 -0.016685035 -0.00017497299 0.003750553
0.02993552 0.022310961 -0.015931677 0.0018959177 -0.003291322 0.0066667376 0.012522116 0.035889503
-0.010455157 0.029222388 -0.0006772739 -0.007634096 0.019632448 -0.016228238 0.028999921 0.030143946
-0.0004946171 -0.000372086 0.0048503093 -0.025420014 -0.0061833747 0.024519302 0.025913319 -0.03632095
-0.010343563 0.019424917 -0.01024742 -0.017828573 0.024034515 -0.022698885 -0.009857134 -0.030796103
0.020054413 0.013853969 0.026150241 0.015330885 -0.013825551 0.015464805 0.017908648 -0.00040703153
0.0011941509 0.023013733 -0.0077836793 -0.030406855 -0.0067432187 -0.0050907624 0.024531644 0.03358462
0.03444786 -0.016222203 -0.011121168 -0.041576527 -0.0011002261 0.0145494975 -0.05003966 -0.0011065346
-0.04832891 -0.008819403 0.0029939658 -0.033930775 -0.007506913 -0.023388397 -0.008711721 -0.027188227
0.0064738365 -0.011842489 -0.026439011 -0.01799462 0.014734224 -0.007844899 -0.0023563816 -0.014097834
-0.022271056 -0.022814358 -0.024075909 -0.00536785 -0.02703968 0.001096745 -0.0028532909 -0.019828014
-0.0233304 -0.09495828 -0.065917715 -0.08577513 -0.06334089 -0.08798141 -0.082209714 -0.0612012
-0.07169744 -0.027609866 -0.021220105 -0.01657037 -0.009772892 -0.02391567 -0.034608442 0.023203503
0.03373428 0.03409664 0.0044019273 0.002734254 0.011143754 -0.03539948 -0.031626802 -0.0070178476
0.001274217 -0.0315064 -0.029767377 -0.031150974 -0.0690083 -0.17162377 -0.10847004 -0.18508531
-0.1486335 -0.08253304 -0.12792939 -0.06664666 -0.029346364 0.01885079 -0.023920348 -0.0171412
0.0011590498 0.0042076297 0.025346886 0.0014331321 0.023701381 0.0356648 -0.014636641 0.015092295
-0.020778855 -0.052701842 -0.05008003 -0.0025258546 -0.0022689782 -0.03871665 -0.096575975 -0.08737313
-0.10573476 -0.1497654 -0.05899112 -0.069445156 -0.11801276 -0.09270611 -0.13768163 -0.14253204
-0.07648976 -0.039548505 -0.018795991 -0.03670184 -0.03601583 0.02801161 0.025287792 -0.004281294
-0.014106555 -0.00021476304 0.026179245 -0.009453488 -0.005697114 -0.0352398 -0.04043636 -0.05960779
-0.032076064 -0.025402546 -0.059083626 -0.056505136 -0.04000202 0.04293205 0.0799482 0.055223443
0.070262425 0.0012886437 -0.008860618 -0.042950414 -0.033169333 -0.04747926 -0.014041953 -0.022407202
0.03847518 0.013504057 -0.012755786 0.02832603 0.008235977 -0.007873653 0.016592557 0.019784112
0.04924151 -0.03353069 -0.0071988706 -0.025608776 -0.015368551 -0.0018038985 0.0017974529 0.01720034
0.10539914 0.11044752 0.10429695 0.04972838 0.06801626 0.038089987 0.029299391 0.06693914
0.023104958 -0.03543776 -0.05981465 0.0035526948 0.001995617 0.022083439 0.0009304751 -0.015853327
0.022570692 0.033743933 -0.011091585 0.015643375 0.001048053 -0.0034413293 -0.0349908 0.06733331
0.030210698 0.06703534 0.02616199 0.04310244 0.08071236 -0.019872218 -0.05278979 -0.02974171
0.026041472 -0.007698106 -0.018279672 0.0090459185 0.11886121 -0.0067951656 0.0054564998 0.04139356
0.011905296 0.028616004 0.0021096587 0.006660591 0.015572197 -0.02339625 0.021983525 -0.002145056
00000000: 4afa d7bc c1f5 13bc 25e6 efbc 7ac7 88bc
00000010: b312 07bd f82f 373c 47a9 5a3c d091 f63c
00000020: 582b 2abc e8ca 83bc 4044 ebbc ca9c b0bc
00000030: fff2 5e3c 0eaf 88bc f478 37b9 d6cb 753b
00000040: 563b f53c 7ac5 b63c 2683 82bc 7180 f83a
00000050: 38b3 57bb a674 da3b 9029 4d3c df00 133d
00000060: 1b4c 2bbc ca63 ef3c 158b 31ba 7027 fabb
00000070: 3ad4 a03c 15f1 84bc 3e91 ed3c 70f0 f63c
00000080: 31a9 01ba 8a14 c3b9 58ef 9e3b a23d d0bc
00000090: e89d cabb b4dc c83c 2b48 d43c 47c5 14bd
000000a0: 0c78 29bc 0121 9f3c cbe4 27bc 3a0d 92bc
000000b0: 08e4 c43c 03f3 b9bc d17f 21bc 1c48 fcbc
000000c0: 2749 a43c c2fb 623c 0839 d63c 642e 7b3c
000000d0: 9084 62bc 1860 7d3c 28b5 923c d966 d5b9
000000e0: 0e85 9c3a 4c87 bc3c 3c0e ffbb cc17 f9bc
000000f0: 38f6 dcbb 69d0 a6bb 96f6 c83c 0790 093d
00000100: 3319 0d3d 6de4 84bc 8f35 36bc 264c 2abd
00000110: 7635 90ba 0461 6e3c 63f6 4cbd 2409 91ba
00000120: 89f4 45bd 427f 10bc 6936 443b fffa 0abd
00000130: 8dfc f5bb 0699 bfbc 9bbb 0ebc d8b9 debc
00000140: 7a22 d43b 0007 42bc a096 d8bc 7469 93bc
00000150: d167 713c e487 00bc 866d 1abb 9afa 66bc
00000160: ca71 b6bc 2de5 babc d73a c5bc cae4 afbb
00000170: 5282 ddbc a8c0 8f3a 47fe 3abb 5c6e a2bc
00000180: 651f bfbc 7d79 c2bd deff 86bd dfaa afbd
00000190: deb8 81bd 992f b4bd 915d a8bd 1cae 7abd
000001a0: 1cd6 92bd 162e e2bc c9d5 adbc 96be 87bc
000001b0: 7b1e 20bc ccea c3bc 95c1 0dbd 4615 be3c
000001c0: f52c 0a3d eba8 0b3d 0b3e 903b 2c31 333b
000001d0: 4b94 363c 0cff 10bd 1b8b 01bd f9f5 e5bb
000001e0: a103 a73a db0c 01bd b7da f3bc 5430 ffbc
000001f0: 3954 8dbd 24be 2fbe 8a25 debd 0187 3dbe
00000200: 6133 18be 1507 a9bd ecff 02be 0b7e 88bd
00000210: c967 f0bc f96c 9a3c 9bf4 c3bc b46b 8cbc
00000220: 42eb 973a 28e0 893b 46a4 cf3c efd7 bb3a
00000230: 6629 c23c 4115 123d 86ce 6fbc ac45 773c
00000240: 6b38 aabc e3dd 57bd b820 4dbd cf88 25bb
00000250: 23b3 14bb 5a95 1ebd a0c9 c5bd aff0 b2bd
00000260: 778b d8bd 1a5c 19be aca0 71bd 4339 8ebd
00000270: adb0 f1bd b3dc bdbd 6afc 0cbe ebf3 11be
00000280: aaa6 9cbd 9dfd 21bd 0dfa 99bc ab54 16bd
00000290: 5685 13bd 9b78 e53c 5828 cf3c 194a 8cbb
000002a0: 2e1f 67bc 0432 61b9 db75 d63c cde2 1abc
000002b0: dbae babb 9c57 10bd 99a0 25bd 4c27 74bd
000002c0: 3162 03bd 0019 d0bc ac01 72bd ee71 67bd
000002d0: 28d9 23bd 84d9 2f3d e2bb a33d fa31 623d
000002e0: bfe5 8f3d b5e7 a83a 202c 11bc c6ec 2fbd
000002f0: 91dc 07bd 9d79 42bd 3810 66bc 4f8f b7bc
00000300: 2698 1d3d 1f40 5d3c a5fd 50bc fe0b e83c
00000310: 31f0 063c 7f00 01bc 1ded 873c 4a12 a23c
00000320: 77b1 493d 7a57 09bd 81e4 ebbb 7fc9 d1bc
00000330: 60cc 7bbc ca70 ecba 8398 eb3a bae7 8c3c
00000340: 81db d73d 4f32 e23d a499 d53d fcaf 4b3d
00000350: 1c4c 8b3d 3f04 1c3d 4705 f03c 6317 893d
00000360: 9c46 bd3c 2f27 11bd 3500 75bd 54d4 683b
00000370: e6c8 023b 54e8 b43c 20eb 733a d6de 81bc
00000380: 2ce6 b83c 1437 0a3d 7bb9 35bc 8926 803c
00000390: d35e 893a ed87 61bb 8352 0fbd 0ce6 893d
000003a0: 6d7c f73c d349 893d ab51 d63c 2f8c 303d
000003b0: 864c a53d 10cb a2bc 1b3a 58bd e3a4 f3bc
000003c0: ed54 d53c 6540 fcbb 40bf 95bc 5535 143c
000003d0: 826d f33d fba9 debb 70cc b23b 4b8c 293d
000003e0: 6e0e 433c 1c6c ea3c 3342 0a3b 1641 da3b
000003f0: 8722 7f3c 7ea9 bfbc cb16 b43c 1194 0cbb

hidden_layers.0.bias f4 [119]
-0.02439811 0.0030206742 -0.025105396 0.016353667 0.010260749 -0.018898558 -0.02295948 0.041590918
0.002328612 -0.024909753 -0.028949028 0.0031702083 0.023086483 -0.041086864 0.00022616156 -0.00702892
0.0034117787 -0.0041038143 0.04339087 0.020811431 -0.0047162264 0.0048374524 0.01590747 0.014739781
-0.0019973393 0.02729833 0.0039058547 0.018417751 -0.03465328 0.018250255 -0.013539716 -0.0046353573
0.020139882 -0.008242713 -0.02182485 0.026777815 -0.033890408 0.019730886 0.013376635 -0.0047269766
-0.03716957 -0.023848461 -0.0030365733 0.034328096 -0.0016254978 -0.020780213 0.006548578 0.029733064
-0.034252528 0.029355813 -0.005790495 0.03197537 0.009454747 -0.012561055 -0.02002799 0.021025533
-0.041944467 0.01199486 0.012010801 -0.041239414 0.007767215 -0.021458669 0.027837237 0.006306594
-0.038536176 -0.012594627 0.03449532 -0.023323188 -0.021237176 0.031965967 -0.03345768 0.024612455
-0.04098433 -0.0017890267 -4.5448545e-05 0.024361562 -0.034245133 0.015070583 0.0036528967 -0.031687174
-0.024697034 -0.013336396 0.008800894 0.025056819 -0.04117896 -0.008301682 0.016953204 0.0009675302
0.026266398 -0.008234503 -0.02372415 0.0317167 -0.029149067 0.025350085 0.005882246 -0.029760834
-0.018186942 -0.0073643527 0.01787474 0.009806543 -0.014389567 0.011121275 -0.0068668723 0.022114258
0.0063969065 -0.030416768 -0.04330169 0.017067818 0.0067664576 0.038339127 -0.02460733 0.0029111153
0.026751654 0.0069166524 -0.00020020381 -0.000505694 0.018376376 -0.031978115 -0.007936345
00000000: 8cde c7bc 81f6 453b d5a9 cdbc 20f8 853c
00000010: b31c 283c 26d1 9abc 8515 bcbc 3d5b 2a3d
00000020: a09b 183b 8a0f ccbc 8326 edbc 45c3 4f3b
00000030: dd1f bd3c b34a 28bd c825 6d39 db52 e6bb
00000040: 2698 5f3b 4a79 86bb a0ba 313d bc7c aa3c
00000050: 938a 9abb 7e83 9e3b 6250 823c 1f7f 713c
00000060: cbe5 02bb bfa0 df3c 5ef9 7f3b d3e0 963c
00000070: 99f0 0dbd 8f81 953c afd5 5dbc 32e4 97bb
00000080: 65fc a43c 720c 07bc 07ca b2bc 265d db3c
00000090: abd0 0abd aba2 a13c ac29 5b3c c1e4 9abb
000000a0: 1e3f 18bd d95d c3bc 3f01 47bb 9e9b 0c3d
000000b0: a80e d5ba 443b aabc 7495 d63b c192 f33c
000000c0: 614c 0cbd 9a7b f03c 31be bdbb 9bf8 023d
000000d0: 15e8 1a3c e2cc 4dbc bd11 a4bc bd3d ac3c
000000e0: f6cd 2bbd 1786 443c f3c8 443c a9ea 28bd
000000f0: 1f84 fe3b 17ca afbc eb0a e43c 8ba7 ce3b
00000100: 1cd8 1dbd b259 4ebc f74a 0d3d 4510 bfbc
00000110: 96f9 adbc bfee 023d ec0a 09bd 0fa0 c93c
00000120: 2fdf 27bd c67d eaba 01a0 3eb8 e691 c73c
00000130: a044 0cbd 9bea 763c 7065 6f3b 69ca 01bd
00000140: 6f51 cabc e680 5abc a031 103c f543 cd3c
00000150: 45ab 28bd c703 08bc 72e1 8a3c daa1 7d3a
00000160: a12c d73c 02ea 06bc 2659 c2bc 5fe9 013d
00000170: 06ca eebc fbaa cf3c dbbf c03b fecc f3bc
00000180: c8fc 94bc ab50 f1bb 0c6e 923c 9fab 203c
00000190: 38c2 6bbc 0236 363c 8003 e1bb f628 b53c
000001a0: 249d d13b 962c f9bc 1d5d 31bd cfd1 8b3c
000001b0: 29b9 dd3b 7d09 1d3d 5095 c9bc 69c8 3e3b
000001c0: 4926 db3c 16a5 e23b cded 51b9 8d90 04ba
000001d0: 0e8a 963c 7cfb 02bd 7207 02bc

output_layer.weight f4 [10, 119]
-0.25734514 -0.08566001 -0.081190646 -0.08040665 0.055133402 -0.16188815 -0.044113472 0.14331907
-0.13883351 0.012884744 -0.032891143 0.07201775 -0.039572377 -0.072889335 0.018812872 -0.046879653
0.010522259 -0.016873715 0.09756132 -0.17269035 -0.08692829 -0.2338561 0.14849944 0.01422406
-0.228097 0.038216256 -0.0494183 0.061932143 0.026814455 0.007482621 0.12098651 0.14600231
-0.03905327 0.04380154 -0.096678145 -0.030130513 -0.06930112 0.082600966 -0.048146307 -0.067823365
0.06913587 -0.098741025 -0.056179248 0.062192734 -0.15284163 0.05900697 -0.11667069 0.1340855
-0.04964426 -0.17393906 0.14626706 0.10897487 -0.020941457 -0.064864084 0.13238214 -0.13367622
-0.057268903 -0.113504 0.037062135 -0.070280455 -0.19570687 -0.004546472 0.03698939 -0.015991278
0.0099368375 0.07957312 -0.04737079 -0.024447156 0.07715761 -0.16142541 -0.10434558 -0.068492346
-0.03610058 0.15416396 0.06186214 -0.25137907 0.10077229 -0.12078264 0.04315291 -0.025535455
-0.054401405 -0.16134956 -0.030799171 -0.011783832 -0.057340506 -0.021622432 0.08054547 0.040403612
-0.048725486 -0.07717813 -0.038265698 -0.017288392 -0.009520181 -0.020446263 -0.0028689094 -0.097742885
-0.14621843 0.003940497 -0.098288655 0.10633326 0.037565008 -0.17412004 -0.03910938 0.101084866
0.036577858 0.0032508783 -0.03948651 -0.18556985 -0.04639201 -0.08317443 -0.09762813 0.11660956
-0.100580886 -0.11011321 0.0774778 0.012042096 -0.020092418 -0.018357076 0.086394496 -0.07180963
-0.07415361 -0.04743986 0.03830182 0.03340981 0.018285759 0.084107794 -0.17869808 0.09446097
0.012258338 0.12336742 -0.10058156 0.027964322 0.11755252 -0.06677115 0.049813848 0.078831114
0.04281722 0.06587223 -0.20562884 -0.06313544 -0.1612747 -0.10053367 -0.03795833 0.07607243
0.03132578 -0.021884793 0.07658692 -0.06793004 -0.08173952 -0.19714497 0.107836306 0.06565932
0.07260179 -0.044335354 -0.08112326 -0.050943825 -0.14262186 -0.13556315 -0.08757829 -0.038757022
0.13953444 0.05754908 -0.18379547 0.029305147 -0.08398759 -0.06984243 -0.19835228 -0.07979565
0.11679722 -0.18758616 -0.075460404 0.01105584 -0.038441762 0.089346744 -0.04497836 -0.026773714
0.13051957 -0.11471677 -0.091267414 -0.08615679 0.036107153 -0.0220667 -0.023284838 0.14074738
-0.23914206 -0.084680825 -0.057910353 0.046749625 -0.03260949 -0.14406206 0.041288346 -0.011111403
0.14443496 -0.025674386 0.0077820416 0.0025329033 0.088939026 0.023959992 -0.011373817 -0.10953001
-0.03411565 -0.082493484 0.048070256 0.008291432 0.075060666 -0.13278177 0.05022641 -0.069022335
0.06325102 -0.022207698 0.09186323 -0.07591542 -0.082076296 0.07411378 0.0835186 0.09769828
0.0052271844 0.02157872 -0.01520478 0.020656578 0.097687624 -0.067869924 -0.121073134 -0.012533577
0.031739794 0.0056068935 0.044375576 -0.033538356 0.07584898 0.11773314 -0.17433605 -0.12805955
-0.121831976 -0.14043356 0.07377872 -0.061536375 0.019851193 -0.120665826 -0.14906299 0.06786167
-0.041742593 0.047296815 -0.08155515 0.07477357 -0.06441395 0.09755478 0.11890297 -0.061027657
-0.23145993 -0.1791495 0.041242138 0.04184432 -0.058758266 -0.0033961148 -0.027096573 -0.08408762
00000000: bec2 83be 846e afbd 4847 a6bd 3eac a4bd
00000010: 90d3 613d 02c6 25be 54b0 34bd 3cc2 123e
00000020: 5f2a 0ebe 891a 533c ddb8 06bd 0b7e 933d
00000030: a516 22bd 0147 95bd 741d 9a3c e104 40bd
00000040: 8e65 2c3c bf3a 8abc 3bce c73d bdd5 30be
00000050: 7607 b2bd f977 6fbe 3d10 183e 080c 693c
00000060: 4392 69be a688 1c3d d86a 4abd 8fac 7d3d
00000070: fda9 db3c c630 f53b c6c7 f73d a181 153e
00000080: 52f6 1fbd 3e69 333d 31ff c5bd 44d4 f6bc
00000090: bfed 8dbd b22a a93d 1035 45bd fae6 8abd
000000a0: 1b97 8d3d bc38 cabd 361c 66bd cfbd 7e3d
000000b0: 8482 1cbe 4bb1 713d 0bf1 eebd b64d 093e
000000c0: c857 4bbd 151d 32be 08c7 153e 372e df3d
000000d0: 6b8d abbc 76d7 84bd 2f8f 073e 6be2 08be
000000e0: cc92 6abd c974 e8bd 77ce 173d 33ef 8fbd
000000f0: 6267 48be 92fa 94bb 3082 173d 2400 83bc
00000100: 1ece 223c 3bf7 a23d e007 42bd 6745 c8bc
00000110: cf04 9e3d b44c 25be 23b3 d5bd b745 8cbd
00000120: 34de 13bd 28dd 1d3e 2863 7d3d c2b4 80be
00000130: b461 ce3d e45c f7bd 1bc1 303d bb2f d1bc
00000140: 02d4 5ebd d238 25be 8b4e fcbc f910 41bc
00000150: e1dd 6abd 8721 b1bc 06f5 a43d 427e 253d
00000160: 6094 47bd 910f 9ebd 7ebc 1cbd 63a0 8dbc
00000170: 89fa 1bbc ec7e a7bc 5004 3cbb 6c2d c8bd
00000180: 49ba 15be 491f 813b 904b c9bd 41c5 d93d
00000190: c4dd 193d 864c 32be 2831 20bd 9505 cf3d
000001a0: aad2 153d b00c 553b 9bbc 21bd 0606 3ebe
000001b0: 8c05 3ebd 5b57 aabd 42f1 c7bd fed0 ee3d
000001c0: 5afd cdbd 0983 e1bd aeac 9e3d 364c 453c
000001d0: db98 a4bc 9461 96bc 99ef b03d ed10 93bd
000001e0: d9dd 97bd 4c50 42bd 5fe2 1c3d bad8 083d
000001f0: 04cc 953c b540 ac3d a1fc 36be c174 c13d
00000200: 32d7 483c 0fa8 fc3d b4fd cdbd 6f15 e53c
00000210: 60bf f03d 50bf 88bd 9b09 4c3d 3572 a13d
00000220: 1c61 2f3d 05e8 863d 5e90 52be 274d 81bd
00000230: 3225 25be 99e4 cdbd 327a 1bbd ddcb 9b3d
00000240: 764f 003d bd47 b3bc 9ad9 9c3d e81e 8bbd
00000250: 0d67 a7bd 5fe0 49be 48d9 dc3d 6578 863d
00000260: 3fb0 943d fd98 35bd f423 a6bd 79aa 50bd
00000270: 770b 12be 11d1 0abe 3f5c b3bd afbf 1ebd
00000280: 1ee2 0e3e 96b8 6b3d e134 3cbe 5911 f03c
00000290: b001 acbd 8c09 8fbd dc1c 4bbe e76b a3bd
000002a0: 6233 ef3d 9616 40be fc8a 9abd 8e23 353c
000002b0: 1c75 1dbd 6dfb b63d 3b3b 38bd 8c54 dbbc
000002c0: eca6 053e a0f0 eabd 69ea babd f972 b0bd
000002d0: 18e5 133d 39c5 b4bc d8bf bebc 1520 103e
000002e0: a8e1 74be 246d adbd 6833 6dbd 897c 3f3d
000002f0: 8791 05bd 0185 13be f81d 293d 9a0c 36bc
00000300: c2e6 133e 1753 d2bc 7f00 ff3b 11ff 253b
00000310: aa25 b63d bf47 c43c 3f59 3abc 4551 e0bd
00000320: dabc 0bbd 58f2 a8bd 51e5 443d c9d8 073c
00000330: 68b9 993d f2f7 07be 35ba 4d3d 955b 8dbd
00000340: c089 813d ebec b5bc ca22 bc3d 8b79 9bbd
00000350: 9e17 a8bd f7c8 973d cd0b ab3d 0916 c83d
00000360: cd48 ab3b dbc5 b03c 781d 79bc fc37 a93c
00000370: 7310 c83d 63ff 8abd 31f5 f7bd a259 4dbc
00000380: 9601 023d 08ba b73b 2ac3 353d 845f 09bd
00000390: b656 9b3d 131e f13d 2685 32be 0b22 03be
000003a0: 0b83 f9bd d1cd 0fbe 4c19 973d 910d 7cbd
000003b0: f89e a23c a51f f7bd f8a3 18be 0ffb 8a3d
000003c0: 48fa 2abd 4eba 413d 6306 a7bd e322 993d
000003d0: 76eb 83bd cdca c73d 6683 f33d 23f8 79bd
000003e0: d503 6dbe f772 37be 84ed 283d f364 2b3d
000003f0: 82ac 70bd 5a91 5ebb a2f9 ddbc 2136 acbd

output_layer.bias f4 [10]
-0.09971639 -0.08572807 -0.04640399 -0.02472072 0.07934895 0.0042787623 -0.0049129827 -0.0222256
0.00027098035 0.11224532
00000000: 1b38 ccbd 3392 afbd 1c12 3ebd 1b83 cabc
00000010: b481 a23d dc34 8c3b 16fd a0bb 7612 b6bc
00000020: 5e12 8e39 e0e0 e53d
