Results/GeneticResult1/best_model_weights.pt (torch, 480964 bytes, 8 tensors)

hidden_layers.0.weight f4 [116, 784]
0	0xbcdd1da3	-0.026991671
1	0x3cbd48ff	0.023106096
2	0x3c8201d4	0.015870012
3	0xbceeee53	-0.029166376
4	0xbc593c75	-0.013259043
5	0xbc8d8eaa	-0.017279942
6	0x3d033098	0.032028764
7	0x3a4fe3d2	0.0007930371
8	0x3ce0a51f	0.027422486
9	0x3bfb14d0	0.007662393
10	0x3b299dc6	0.0025881394
11	0x3c58c9cf	0.013231709
12	0x3d057681	0.032583717
13	0x3ce71177	0.02820657
14	0xbb4ca020	-0.0031223372
15	0x3bf8ebca	0.0075964676
16	0xbcdd7263	-0.027032083
17	0x3bf0ad3a	0.007344869
18	0x3bad384e	0.005286253
19	0x3ca08fc7	0.019599808
20	0x3bd97244	0.006635936
21	0xbc1666f6	-0.009179821
22	0xbd00e639	-0.031469557
23	0x3928c636	0.00016095568
24	0x3ccfbfa5	0.025359938
25	0x3cd5fac5	0.026120553
26	0x3d0b2a6c	0.033976004
27	0xbc7a34e4	-0.015271399
28	0x3d12199c	0.035668954
29	0x3c2f9a55	0.010717948
30	0x3c654e2f	0.013995691
31	0xbcbad109	-0.022804754
32	0xbab635a1	-0.0013901481
33	0x3cc9e8cf	0.024647145
34	0x3cfc4219	0.030793237
35	0xbb854f54	-0.0040682945
36	0xbc3cb0bd	-0.011516747
37	0x3c0612f3	0.008183229
38	0x3c4055b3	0.011739182
39	0x3cc2176c	0.023692809
40	0x3b72d3c0	0.0037052482
41	0x3bb33eb0	0.0054701194
42	0xbcadce9d	-0.021216685
43	0xbb98c355	-0.0046619573
44	0xbd008ada	-0.03138242
45	0xbc16bede	-0.00920078
46	0x3ce23f91	0.027618201
47	0x3cdeb5ed	0.027186358
48	0xbcace4e9	-0.021105247
49	0x3b8eee95	0.0043619373
50	0x3b8c10d2	0.004274466
51	0xbc82e4c5	-0.015978226
52	0xba95365f	-0.0011384002
53	0x3c767821	0.015043289
54	0x3c923605	0.017848024
55	0xbc52e4cb	-0.012871931
56	0xbcd05147	-0.025429381
57	0xbcb0e639	-0.021594154
58	0xbc04f598	-0.008115195
59	0xbd0a6d6f	-0.03379577
60	0x3a69781e	0.00089061435
61	0x3cfa100b	0.030525228
62	0x3c9b451f	0.018953858
63	0x3cca31d6	0.024681967
64	0x3d0dbdbe	0.03460478
65	0x3c021cfa	0.007941479
66	0x3c197216	0.009365579
67	0xbca61321	-0.020272793
68	0xbbbd4a66	-0.0057766913
69	0xbc531a25	-0.012884651
70	0x3bef0c19	0.0072951433
71	0x3bfba11e	0.007679119
72	0xbd118ad9	-0.035532806
73	0xbd10a9fc	-0.03531836
74	0xbd198f6e	-0.0374903
75	0xbccf40e1	-0.025299491
76	0x3d0b588a	0.034019984
77	0xbd11c04b	-0.035583775
78	0x3ab00467	0.0013429046
79	0x3a99053e	0.0011674536
80	0x3cb86290	0.022507936
81	0xbcad568f	-0.021159438
82	0x3d120e34	0.035658076
83	0xbc973c31	-0.018461319
84	0xbcbab425	-0.022790978
85	0x3cdaf549	0.02672829
86	0xba976c81	-0.0011552722
87	0xbc1e75df	-0.009671657
88	0xbc79bd44	-0.015242878
89	0x3ca5245e	0.020158943
90	0xbaa8c315	-0.0012875522
91	0x3cc43c1c	0.023954444
92	0xbc81b637	-0.015833957
93	0x3d2accfe	0.041699402
94	0x3d011e8d	0.031523276
95	0x3d031f7d	0.03201245
96	0x3d1cf43c	0.038318858
97	0x3d04e334	0.03244324
98	0x3c71a5a8	0.014748968
99	0x3d4874ae	0.0489394
100	0x3d0be85a	0.034157135
101	0xbcd4fd1a	-0.025999594
102	0x3c881e2c	0.01661595
103	0xbac2e202	-0.0014868381
104	0x3cbb35be	0.022852775
105	0xbc7e6e12	-0.0155291725
106	0x3c91a849	0.01778044
107	0xbc5280ab	-0.01284806
108	0x3b89f00c	0.004209524
109	0xbba16b76	-0.0049261404
110	0x3cb97993	0.022640979
111	0xbcb123eb	-0.021623572
112	0xbc948b0f	-0.018132715
113	0x3c39b9f5	0.0113358395
114	0xbc3b2d43	-0.011424365
115	0xbb907420	-0.0044083744
116	0x3cfa0c1a	0.030523349
117	0xbd0b8a42	-0.0340674
118	0x3ca0f7fc	0.019649498
119	0xbaa1068d	-0.0012285277
120	0xbbf1acdb	-0.0073753423
121	0x3bcd0805	0.0062570595
122	0x3c2dbd45	0.010604207
123	0x3cd6608e	0.026169088
124	0x3b28fd3e	0.002578571
125	0xbc9fcc8b	-0.019506713
126	0x3c33bcf7	0.010970346
127	0x3c4780ed	0.012176734
128	0x3c67c5cc	0.01414628
129	0xbbd434bc	-0.006476013
130	0xbcfa1e5e	-0.030532058
131	0xbcb2961e	-0.021800097
132	0xbcab424a	-0.020905633
133	0xbd024140	-0.03180051
134	0xbcd49bbe	-0.02595317
135	0xbcd19c64	-0.025587268
136	0xbcd168f6	-0.025562745
137	0x3c0a7cfa	0.008452648
138	0xbc07ca39	-0.00828796
139	0x3b4d61d6	0.0031338832
140	0x3b8b1002	0.0042438516
141	0x3c6ca3de	0.014443366
142	0xbc148547	-0.009064979
143	0x3caed8ff	0.021343706
144	0x3ac58d15	0.0015071953
145	0xbb20b459	-0.0024521558
146	0x3ca2546f	0.019815652
147	0x3d36fb1e	0.044673078
148	0x3bf37b28	0.007430453
149	0xbc6388ad	-0.0138875665
150	0xbc60556d	-0.013692242
151	0x3d2293bc	0.03969167
152	0xbd02041b	-0.031742197
153	0xbd4bba6e	-0.04973834
154	0xbc87d708	-0.016582027
155	0xbc24e133	-0.010063457
156	0x3cc8eeaf	0.024527876
157	0x3d11e61e	0.035619847
158	0xbb49dbfb	-0.0030801285
159	0xbd0420bd	-0.032257784
160	0xbca0d52b	-0.019632896
161	0x3c191ce0	0.009345263
162	0x3b863f07	0.004096869
163	0x3ba9160f	0.0051601003
164	0xbc21b9bf	-0.0098709455
165	0xbc84d6c4	-0.01621569
166	0xbb8d9450	-0.0043206587
167	0x3c381842	0.011236252
168	0xbc622d0f	-0.013804688
169	0xbcce3da1	-0.025175871
170	0xbbe7ab93	-0.007070014
171	0x3b8f30b8	0.0043698214
172	0x3cc154b9	0.02359997
173	0xbced0177	-0.028931363
174	0x3c02a451	0.007973746
175	0x3d2ee04d	0.04269438
176	0xbcff4092	-0.03115872
177	0xbb508856	-0.0031819544
178	0x3b937c68	0.0045009144
179	0xbc6509f0	-0.01397942
180	0xbc6aa9a7	-0.014322675
181	0x3bc96015	0.006145487
182	0x3c2d8220	0.010590106
183	0x3c48fcdc	0.012267318
184	0xbc9ba92d	-0.019001568
185	0xbbec34bd	-0.0072084353
186	0x3c8aa5fe	0.016924854
187	0x3c88ef10	0.016715556
188	0xbcc7aa0c	-0.024373077
189	0xbc46ceae	-0.012134237
190	0xbcb5c473	-0.0221884
191	0xbc717159	-0.014736497
192	0xbcf6c939	-0.030125247
193	0xbcd667ec	-0.0261726
194	0xbd16b257	-0.036791172
195	0xbb0c15ad	-0.0021375224
196	0xbc51748f	-0.012784137
197	0x395ed583	0.00021251109
198	0x3d12d498	0.035847276
199	0xbc0b1d9a	-0.008490944
200	0x3cedb3fc	0.029016487
201	0xbc87bdad	-0.016569937
202	0x3bd2cd39	0.006433156
203	0x3c005c0a	0.007834444
204	0x3c8bd927	0.01707132
205	0x3ca26793	0.019824779
206	0x3baaff8d	0.0052184523
207	0x3d04d7f2	0.032432504
208	0x3d299747	0.041404035
209	0xbc8d098c	-0.017216466
210	0x3c6992d7	0.014256201
211	0x3c7a2e49	0.015269824
212	0x3ce8d2f7	0.028420908
213	0x3c751aed	0.014960033
214	0x3b343277	0.00274959
215	0x3d2c6374	0.042087033
216	0x3abfcea2	0.0014633725
217	0x3c965780	0.01835227
218	0x3bc1db15	0.005916009
219	0xbcdd2191	-0.026993545
220	0xbce97fe0	-0.028503358
221	0x3c88cbbe	0.016698714
222	0x3c2aa8e4	0.010416243
223	0xbc0a06a3	-0.008424434
224	0x3c7a3932	0.0152724255
225	0xbbb7c4c0	-0.005608171
226	0x3aa9e659	0.0012962326
227	0x3d1afc09	0.037838016
228	0xbcc859c7	-0.024456872
229	0xbbdd57dd	-0.006754859
230	0xbc17de54	-0.009269316
231	0x3d221e1f	0.039579507
232	0x3bc404e5	0.005982029
233	0x3c9abce7	0.018888904
234	0x3c358657	0.011079392
235	0x3d75b8c1	0.05999065
236	0x3cccdaa5	0.025006602
237	0x3d034ee9	0.032057676
238	0x3d884741	0.066542156
239	0x3cf02f25	0.029319355
240	0x3cca3ae8	0.024686292
241	0xba36bc00	-0.0006970763
242	0x3cfb87fa	0.030704487
243	0xbc643c55	-0.0139304
244	0xbc5f2f9c	-0.013622191
245	0xbbe9016e	-0.007110766
246	0xbc7c8df9	-0.015414708
247	0xbc9d7950	-0.019222885
248	0xbd236c68	-0.039898306
249	0x3c0e4a14	0.008684654
250	0xbcb975fc	-0.022639267
251	0x3bc9fd8a	0.0061642574
252	0x3b8c38eb	0.004279246
253	0x3c3e9185	0.011631374
254	0xbaf740e3	-0.0018863942
255	0x3cd6ecaf	0.026235906

hidden_layers.0.bias f4 [116]
0	0x3cd7ba26	0.02633388
1	0x3d2294bd	0.03969263
2	0x39f977ee	0.00047582336
3	0x3bcf56b7	0.006327476
4	0xbca8b0f0	-0.020592183
5	0x3c84ec2f	0.016225902
6	0x3cbbf663	0.022944635
7	0x3c95f698	0.018306062
8	0x3d0bf699	0.03417072
9	0x3c204302	0.009781601
10	0x3cef5051	0.029213103
11	0xbd19d859	-0.03755984
12	0x3c87764a	0.016535897
13	0xbbc27f45	-0.005935582
14	0x3d12548d	0.035725165
15	0x3b508c66	0.0031821965
16	0xba04ac38	-0.0005061063
17	0xbc2f343e	-0.010693608
18	0xbcd6084c	-0.026127003
19	0xbcd8aaef	-0.026448695
20	0xbc4ceec8	-0.012508102
21	0x3ce953aa	0.028482277
22	0xbcc3795d	-0.023861581
23	0x3cacfc68	0.02111645
24	0xbce673af	-0.028131334
25	0xbc4a55c6	-0.012349552
26	0xbcf89a7d	-0.030347103
27	0x3cbffdf8	0.023436531
28	0xba48b33e	-0.00076561037
29	0x3ca19c3a	0.019727815
30	0xbcb950bf	-0.02262151
31	0xbcb1bf1c	-0.021697573
32	0xbabd70cb	-0.0014453171
33	0x3c7e5d0e	0.015525116
34	0xbcd50feb	-0.026008567
35	0x3c9d8f81	0.019233467
36	0xbcf24821	-0.02957541
37	0x3af6b361	0.001882177
38	0x3bc85370	0.006113462
39	0xbcd8baff	-0.026456354
40	0x3b4cdf52	0.003126104
41	0xbce8389d	-0.028347308
42	0x3d19f326	0.0375854
43	0xbcf55fec	-0.029952966
44	0xbc9c761f	-0.019099293
45	0xbc2bc475	-0.010483851
46	0xbc2e3694	-0.01063313
47	0xbc507be2	-0.012724848
48	0x3cc87c91	0.02447346
49	0x3d16bd68	0.036801726
50	0xbca6b77a	-0.02035116
51	0xbcdc382a	-0.02688225
52	0xbc6734ff	-0.014111756
53	0x3cfabc36	0.030607324
54	0x3cc2cb1a	0.023778487
55	0x3c174171	0.009231911
56	0xbcc87a69	-0.024472432
57	0x3c83442f	0.016023723
58	0x3cf22bc4	0.029561885
59	0xbcce3b44	-0.025174744
60	0xbd1ccb7d	-0.03828
61	0x3cd417c3	0.025890237
62	0x3d0f33e7	0.034961607
63	0xbd0550fe	-0.032547943
64	0x3ce73e83	0.02822805
65	0x3a59c29b	0.00083068915
66	0xbc05a55b	-0.0081571
67	0xbc648ece	-0.013950063
68	0x3d1d1817	0.038353052
69	0x3cddac1d	0.02705961
70	0x3c5569b7	0.013025693
71	0xbcc085b6	-0.023501258
72	0x3cb0173a	0.02149545
73	0x3c4968ef	0.0122930845
74	0xbc815bcf	-0.015790848
75	0xbc8e8de1	-0.017401638
76	0xbcc553d1	-0.024087818
77	0x3ceb659a	0.02873497
78	0x3c72dfa0	0.014823824
79	0x3c7eafc0	0.015544832
80	0x3baf0f9c	0.005342437
81	0xbcb47c0e	-0.02203181
82	0xba9fac01	-0.0012181998
83	0x3c1a7b00	0.00942874
84	0x3b8c5a1a	0.004283202
85	0xbcad6e9c	-0.021170907
86	0x3cbf35f4	0.023341157
87	0x3d129b6f	0.035792764
88	0xbbc1fbb6	-0.005919899
89	0x3c8f5742	0.017497662
90	0xbc526042	-0.012840332
91	0xbcf4c317	-0.029878182
92	0x3ced1a47	0.028943194
93	0x3ccbbdff	0.02487087
94	0xbcdd0bb2	-0.026983116
95	0x3c6dba28	0.014509715
96	0xbca2e86b	-0.019886216
97	0x3ae55133	0.0017495513
98	0x3bd1ffb2	0.006408655
99	0x3ce14ccc	0.02750244
100	0xbc194831	-0.009355591
101	0x3c98619b	0.01860123
102	0xb9e4777f	-0.0004357658
103	0x3b70dafa	0.0036751614
104	0xbd04febd	-0.0324695
105	0x3cf74088	0.030182138
106	0xbd097f89	-0.033568893
107	0xbc2cee1f	-0.010554819
108	0x3c9371f5	0.017998675
109	0xbcd890fc	-0.026436321
110	0xbb31c1b3	-0.002712351
111	0xbc31bbba	-0.01084798
112	0x3c2916ec	0.010320406
113	0xbc709c43	-0.014685693
114	0x3cdd71bf	0.027031777
115	0x3a891ff5	0.0010461794

hidden_layers.3.weight f4 [116, 116]
0	0x3db1df47	0.08685165
1	0x3d6ba0dd	0.057526458
2	0x3d65633d	0.056002844
3	0x3d479f4a	0.048735894
4	0xbce66378	-0.028123602
5	0xbdad15cc	-0.08451423
6	0xbe0ad9fc	-0.13559717
7	0x3dfb6fad	0.1227716
8	0x3aef086b	0.0018236762
9	0xbc1530ed	-0.009105903
10	0x3d9f40fa	0.07776065
11	0xbc760101	-0.015014888
12	0xbe005234	-0.12531358
13	0xbd811793	-0.063033246
14	0x3cea66c0	0.028613448
15	0xbcfbd275	-0.030740002
16	0xbce45e6f	-0.02787706
17	0x3db9f49b	0.09079858
18	0x3b88ea01	0.004178286
19	0xbdcfb849	-0.101425715
20	0xbe27e4da	-0.16395894
21	0x3d96b5f8	0.073589265
22	0xbd1a1089	-0.037613425
23	0x3d8a0c2b	0.06740602
24	0x3d95a09e	0.07306026
25	0x3d865b6d	0.06560407
26	0xbdc5019c	-0.096194476
27	0x3d6ca040	0.057770014
28	0xbdb286fb	-0.08717152
29	0xbe02eca0	-0.12785578
30	0x3ccb86fb	0.024844637
31	0x3e0b3f87	0.13598453
32	0x3d09c467	0.03363457
33	0x3dee9083	0.11648657
34	0x3da3163a	0.07963224
35	0x3d32253c	0.04349254
36	0xbe001c54	-0.12510806
37	0xbd199ad7	-0.037501182
38	0x3db60f69	0.08889658
39	0xbc3a0cfd	-0.011355636
40	0x3d775dc9	0.060392175
41	0xbd43354e	-0.047658257
42	0xbda091a4	-0.07840279
43	0x3d9d8725	0.076917924
44	0x3db107ad	0.08644042
45	0x3d92882e	0.071548805
46	0x3dc126f7	0.0943126
47	0x3ca29a10	0.019848853
48	0xbd2f5891	-0.042809073
49	0x3be532e0	0.00699459
50	0xbdba9809	-0.0911103
51	0xbd2c5b3d	-0.0420792
52	0x3ca9ff73	0.02075169
53	0xbcc8812a	-0.024475653
54	0x3d5a6fdb	0.05332933
55	0x3d4727f8	0.0486221
56	0xbd98e88c	-0.0746623
57	0x3da2e788	0.07954317
58	0x3dc75e70	0.097348094
59	0x3db66b67	0.08907204
60	0xbc5df4bc	-0.013547119
61	0xbc4609d2	-0.012087302
62	0xbd8d2244	-0.06891301
63	0xba8b2b93	-0.0010617845
64	0xbd29314c	-0.04130678
65	0x3d496ff6	0.04917904
66	0x3db0a4a7	0.08625155
67	0x3c91f522	0.017817084
68	0xbdbb6b86	-0.09151368
69	0xbdb29d6d	-0.08721433
70	0x3d137b90	0.03600651
71	0x3d938946	0.07203917
72	0x3d90d91c	0.0707266
73	0xbd215c18	-0.039394468
74	0xbd94e8f4	-0.07270995
75	0xbdb88c02	-0.09011079
76	0xbd7ca70b	-0.061682742
77	0x3d38c028	0.04510513
78	0xbd5037ed	-0.050834585
79	0xbdb80a56	-0.089863464
80	0x3c4a72bf	0.012356459
81	0xbd631a33	-0.055444907
82	0x3b964ac3	0.004586549
83	0x3d856451	0.065132745
84	0xbd976617	-0.07392519
85	0xbbe858c5	-0.0070906603
86	0xbd0258f4	-0.031823114
87	0xbe0b9bd4	-0.13633662
88	0x3d47fda4	0.048825875
89	0x3da40d1f	0.08010315
90	0xbdc830c2	-0.09774925
91	0xbd84e6e8	-0.06489354
92	0xbd504a15	-0.0508519
93	0x3d11eb62	0.03562487
94	0xbdf1235d	-0.11774323
95	0xbdcaee0a	-0.099086836
96	0x3d4ebcf2	0.05047316
97	0x3d5cb8e0	0.053887248
98	0x3c1e29c9	0.009653517
99	0xbd597093	-0.053085875
100	0x3d0fa717	0.03507146
101	0x3d86b84e	0.06578122
102	0x3d060b2e	0.032725506
103	0xbd8a4701	-0.06751824
104	0xbd706ede	-0.05869948
105	0x3d567ab8	0.052363127
106	0xbe00de35	-0.12584765
107	0xbceb4fdf	-0.028724609
108	0xbd86dbfd	-0.06584928
109	0x3cf2eca0	0.029653847
110	0x3d84b1e9	0.06479246
111	0xbbca90e2	-0.006181822
112	0x3d16e15c	0.036836013
113	0x3e089f22	0.13341954
114	0x3dbad22b	0.091221176
115	0x3d6819ca	0.05666522
116	0xbc3ecf99	-0.011646175
117	0xbc53f483	-0.012936714
118	0xbcdfbc48	-0.02731146
119	0x3d9db068	0.076996624
120	0x3dea97a2	0.11454703
121	0x3d5ff96a	0.05468122
122	0x3b571ea2	0.0032824655
123	0x3cb6fe14	0.02233795
124	0xbb9eeb04	-0.0048497934
125	0xbbe4f9b2	-0.006987774
126	0x3c04c81d	0.008104351
127	0xbc5e4234	-0.013565589
128	0x3d32d19e	0.043656938
129	0xbd0f352c	-0.034962818
130	0x3dcb7a98	0.09935492
131	0x3de6fecc	0.112790674
132	0xbdfb67eb	-0.1227568
133	0x3d851190	0.064974904
134	0x3d96c4d9	0.073617645
135	0xbd323855	-0.043510754
136	0xbdc1195a	-0.094286636
137	0xbd36b5b0	-0.044606864
138	0xbd9b3014	-0.075775295
139	0xbdd8be68	-0.10583192
140	0xba071d5b	-0.00051542156
141	0x3cce1f93	0.02516154
142	0x3d5b67e6	0.053565882
143	0x3d4cdb78	0.05001399
144	0xbd92d80c	-0.07170114
145	0x3c237904	0.009977583
146	0x3d3a928e	0.04554992
147	0x3cb00384	0.021486051
148	0x3c2f9710	0.010717168
149	0xbd0998e6	-0.03359308
150	0xbddd6da8	-0.10811931
151	0xbc090096	-0.008361956
152	0xbda7c0cd	-0.08191071
153	0x3d80746b	0.06272205
154	0xbcb48f5e	-0.022041019
155	0x3acbf990	0.0015562046
156	0xbcbce509	-0.023058431
157	0xbc85e197	-0.016342921
158	0x3ba5f1a2	0.0050642053
159	0xbd1f7a54	-0.03893502
160	0xbd3bf19f	-0.045884725
161	0xbde49a25	-0.11162213
162	0xbd881567	-0.06644707
163	0xbd9a7165	-0.075411595
164	0xbd97b30c	-0.07407197
165	0x3a683213	0.00088575593
166	0x3d8ecd36	0.06972735
167	0x3ddda93b	0.10823294
168	0x3de418ab	0.111375175
169	0x3d5c0daf	0.053723987
170	0x39185856	0.00014528757
171	0xbc54fd9a	-0.012999916
172	0x3cda7eea	0.026671845
173	0xbbe092e1	-0.006853447
174	0xbd5c843f	-0.053837057
175	0x3caef0f6	0.021355134
176	0x3d35b70f	0.04436403
177	0xbcc100d2	-0.023559961
178	0x3de05f16	0.10955636
179	0x3b65a421	0.0035040455
180	0x3cdd2b81	0.026998283
181	0xbc9f70c5	-0.019462952
182	0x3c2743fd	0.010209081
183	0xbdabd40f	-0.08390056
184	0xbdcdfc1d	-0.100578524
185	0x3c78f4ea	0.015195111
186	0xbd915454	-0.070961624
187	0x3da67199	0.08127136
188	0xbdade281	-0.08490468
189	0x3d6c1217	0.05763444
190	0xbc5d7c55	-0.013518413
191	0xbde7f4c0	-0.11325979
192	0x3d628b98	0.05530891
193	0x3b3a8b83	0.0028464503
194	0xbc7dd750	-0.015493229
195	0x3ce0d145	0.027443537
196	0x3d83b158	0.0643031
197	0x3dc278a9	0.0949567
198	0xbd8794a5	-0.066201486
199	0xbd92ee28	-0.07174331
200	0x3cc535e7	0.024073554
201	0x3d8e7a5d	0.06956933
202	0xbd91cd84	-0.07119277
203	0x3d7b6ba5	0.061381955
204	0xbb6e2085	-0.00363353
205	0x3cff55b2	0.031168792
206	0xbdaed376	-0.08536427
207	0xbd4b2ec7	-0.049605157
208	0x3d8108c8	0.06300503
209	0x3dae4b26	0.08510427
210	0xbcb0aa53	-0.021565592
211	0xbd04199e	-0.032250993
212	0xbc6fde4b	-0.014640401
213	0x3ce58333	0.028016662
214	0x3cd938cd	0.026516343
215	0xbdbcfd54	-0.09228006
216	0x3d164e02	0.036695488
217	0x3da81840	0.0820775
218	0xbdb0ec93	-0.08638873
219	0xbd65150c	-0.055928275
220	0x3cbe9491	0.023264201
221	0xbdf15efd	-0.11785696
222	0xbd4ec74e	-0.05048304
223	0xbd831966	-0.06401329
224	0xbdcd9ee8	-0.100400746
225	0x3d21f3d7	0.039539184
226	0x3c2e236f	0.010628565
227	0x3d49f94d	0.049310017
228	0x3dbe533f	0.09293222
229	0x3d60c935	0.054879386
230	0x3e0ae9f0	0.13565803
231	0x3d933bc5	0.071891345
232	0x3d27798b	0.040887397
233	0x3dd67788	0.104720175
234	0x3d10aaa7	0.035318997
235	0x3c7e77c7	0.015531487
236	0xbc935e09	-0.017989175
237	0x3e02beae	0.12768051
238	0x3d8d56ae	0.069012985
239	0x3d60a622	0.054845937
240	0x3c957071	0.018242093
241	0xbdf10631	-0.11768759
242	0x3dab5916	0.08366601
243	0x3da2e64c	0.07954082
244	0x3d954d38	0.07290119
245	0x3def7ec1	0.11694098
246	0x3dd4e08d	0.10394392
247	0x3d1eabb9	0.038737986
248	0xbcc82e6f	-0.024436204
249	0x3bc53a93	0.0060189455
250	0x3d888694	0.06666294
251	0xbde410b8	-0.11136001
252	0xbb27685f	-0.0025544388
253	0x3bbe24ef	0.0058027427
254	0x3d33f408	0.0439339
255	0xbdd0f417	-0.102028064

hidden_layers.3.bias f4 [116]
0	0x3b43e7ed	0.0029892877
1	0xbc73d761	-0.014882893
2	0x3d41233e	0.04715275
3	0xbd177935	-0.036980826
4	0x3cd48b08	0.025945202
5	0xbd6a5140	-0.057206392
6	0xbc6be7f3	-0.014398563
7	0x3d4538ee	0.048149996
8	0xbd100679	-0.035162423
9	0x3d7ebf36	0.06219407
10	0xbd22587d	-0.03963517
11	0x37385d80	1.0989024e-05
12	0x3d949685	0.07255272
13	0xbdab8288	-0.08374506
14	0xbda353b6	-0.07974951
15	0x3bbd469b	0.005776239
16	0xbd33cbd0	-0.043895543
17	0xb93e22ef	-0.00018132826
18	0xbd6677ad	-0.056266475
19	0x3d503bee	0.050838403
20	0x3d91288d	0.070878126
21	0x3d205e23	0.039152276
22	0xbd8ce1eb	-0.06879028
23	0xbb5446aa	-0.0032390752
24	0xbc4c4483	-0.012467506
25	0x3bca4371	0.0061725904
26	0x3d19a2d9	0.03750882
27	0xbd4bcf6c	-0.04975836
28	0xbd593007	-0.053024318
29	0x3d63ae6b	0.05558626
30	0x3d8b62d1	0.06805957
31	0xbdf015ad	-0.11722884
32	0xbd93bb64	-0.07213476
33	0x3d75229b	0.059847455
34	0x3d055b52	0.032557793
35	0x3d923def	0.07140719
36	0x3d4cd70d	0.050009776
37	0x3c6dea73	0.014521229
38	0x3d945645	0.07243017
39	0x3d893074	0.06698695
40	0x3d00aadc	0.031412944
41	0xbab1c9e3	-0.0013564195
42	0xbd94445e	-0.072396025
43	0xbd692a3b	-0.05692504
44	0xbcc78086	-0.024353277
45	0xbb4c7eb2	-0.0031203446
46	0xbd22345b	-0.03960071
47	0xbc3731bb	-0.01118129
48	0xbca7685e	-0.020435508
49	0x3d88c405	0.06678013
50	0x3d85c228	0.06531173
51	0x3db18d45	0.08669523
52	0xbd680e17	-0.056654062
53	0xbccc6070	-0.024948329
54	0x3d976d55	0.073939
55	0x3cc11e0f	0.023573903
56	0x3d91f3a9	0.071265526
57	0x3c3709f1	0.011171804
58	0xbd71027d	-0.058840264
59	0xbcbbaec6	-0.022910487
60	0xbc8fbd72	-0.01754639
61	0xbd0384e5	-0.03210916
62	0x3db03d32	0.08605422
63	0x3dabda14	0.083912045
64	0x3db6393e	0.08897637
65	0xbd68ad5b	-0.05680595
66	0xbd5ef018	-0.05442819
67	0xbcb299b8	-0.021801814
68	0x3d3afab8	0.04564926
69	0x3d2de12b	0.042451065
70	0xbd482f0c	-0.048872992
71	0x3c2c19ab	0.010504167
72	0xbdc67dca	-0.09691961
73	0x3c82f6e2	0.015986864
74	0x3d46c527	0.048527863
75	0x3d732bb5	0.059367854
76	0xbda58253	-0.08081498
77	0x3d7aa18e	0.061189227
78	0xbd62830a	-0.05530075
79	0xbd8f94f7	-0.07010835
80	0xbbc8c01d	-0.0061264173
81	0x3dd3359e	0.10312961
82	0xbda00f3b	-0.07815405
83	0x3cbb54a5	0.02286751
84	0x3d03af9f	0.032149907
85	0xbd3a9f66	-0.04556217
86	0x3ca9ff57	0.020751638
87	0xbd32bf5c	-0.043639526
88	0x3d0b9871	0.034080926
89	0x3d3300da	0.043701984
90	0xbd62dcbf	-0.0553863
91	0x3c351fbd	0.01105493
92	0x3d9d4e6e	0.07680975
93	0x3d505f1a	0.050871946
94	0xbb15a162	-0.0022831787
95	0xbd220600	-0.039556503
96	0x3c7e79b6	0.015531948
97	0x3d8e84ec	0.069589466
98	0x3a1ed1c2	0.0006058478
99	0x3b920231	0.0044558276
100	0x3d140bbd	0.036144007
101	0xbc26b74b	-0.010175536
102	0x3db261d0	0.087100625
103	0xbd49882f	-0.04920214
104	0xbd962340	-0.07330942
105	0x3cf86aaf	0.030324308
106	0x3d951583	0.07279494
107	0x3d4c9568	0.049947172
108	0xbd8f90c6	-0.07010035
109	0xbd24bac4	-0.040217176
110	0x3d8963c7	0.06708484
111	0xbd54ec79	-0.05198333
112	0x3bbb3830	0.005713485
113	0xbd321135	-0.04347344
114	0x3ce7d3b6	0.028299194
115	0x3dc72fa3	0.09725883

hidden_layers.6.weight f4 [116, 116]
0	0xbe27ba51	-0.16379668
1	0x3d07426e	0.033022337
2	0x3af6fc0f	0.001884343
3	0x3c92a7e0	0.017902315
4	0xbdc98cf0	-0.09841335
5	0xbd04f23d	-0.03245758
6	0xbd3bbae5	-0.045832533
7	0xbd8c3208	-0.0684548
8	0xbdd7fee3	-0.10546663
9	0xbd53b89f	-0.05168974
10	0x3c987b36	0.018613439
11	0xbc8ffd8c	-0.017576955
12	0xbbbed990	-0.0058242753
13	0xbbdc66e3	-0.0067261322
14	0x3cfc05a7	0.030764414
15	0xbdeda9fa	-0.11604686
16	0x3d84a9de	0.06477712
17	0xb9f03a7d	-0.00045819944
18	0xbcee6080	-0.02909875
19	0xbd01dba3	-0.031703603
20	0x3cf227d9	0.029560016
21	0xbd66bf0a	-0.056334533
22	0x3d88e694	0.06684604
23	0x3a9c84d7	0.0011941445
24	0xbc8d8add	-0.01727813
25	0xbdd49ba8	-0.103812516
26	0x3d7b600c	0.061370894
27	0xbcc43ed5	-0.023955742
28	0x3ddd347f	0.108010285
29	0xbd9d176b	-0.07670482
30	0x3d9b9728	0.0759719
31	0xbb1eb954	-0.002421935
32	0x3bc02f6f	0.0058650295
33	0x3d66a761	0.05631197
34	0xbd1cb60f	-0.038259562
35	0xbde85316	-0.113439724
36	0x3c9c535a	0.019082714
37	0xbc163573	-0.009168017
38	0xbd011b1d	-0.031519998
39	0xbd438087	-0.047729995
40	0x3c0fda0c	0.008780014
41	0xbe29ad84	-0.16570097
42	0x3d80feae	0.06298576
43	0x3c958ffc	0.018257134
44	0x3bc0be06	0.0058820276
45	0xbdaa9ad9	-0.08330316
46	0x3c9f9fd8	0.0194854
47	0xbc2bb8d0	-0.010481074
48	0xbccde808	-0.025135055
49	0x3c02455d	0.007951108
50	0x3c94676b	0.01811572
51	0x3c71578f	0.014730348
52	0x3d07c89e	0.033150308
53	0x3d0e1433	0.034687232
54	0x3e0c1b4c	0.13682288
55	0xbd72ab53	-0.05924542
56	0xbc657f1a	-0.014007354
57	0xbd79ef01	-0.061018948
58	0x3ce85057	0.028358622
59	0xbd883e03	-0.06652453
60	0xbdcb06bc	-0.09913394
61	0xbd91d2d5	-0.07120291
62	0xbce4981d	-0.027904565
63	0x3cc78d6a	0.024359424
64	0x3cc5870d	0.024112249
65	0xbe30dc17	-0.17271458
66	0xbc857058	-0.016288921
67	0x3db84351	0.089972146
68	0xbd25dd8e	-0.040494494
69	0x3da25153	0.079256676
70	0xbe104f9e	-0.14092872
71	0x3bd78d99	0.006578159
72	0x3dc60725	0.096693315
73	0x3d7801c6	0.060548566
74	0xbe118f24	-0.1421476
75	0x3d8ccc86	0.06874947
76	0x3da6178b	0.08109959
77	0x3db9669a	0.09052773
78	0xbdc326a4	-0.095288545
79	0xbd97859c	-0.07398531
80	0xbc8dccff	-0.017309664
81	0x3cb6b17a	0.022301424
82	0xbdb253a7	-0.08707362
83	0x3c6d37fe	0.014478682
84	0x3d1844cb	0.03717498
85	0x3cc75e63	0.024337
86	0x3dfdcbd4	0.12392393
87	0xbd050786	-0.032477878
88	0xbd4fb227	-0.05070701
89	0x3d60776e	0.054801397
90	0x3c3ebc90	0.0116416365
91	0x3cb6ff93	0.022338664
92	0xbc19f3ac	-0.009396475
93	0xbc010bc9	-0.007876345
94	0x3b8c0b1d	0.0042737857
95	0xbd89198d	-0.066943265
96	0xbd5f90b6	-0.054581366
97	0xbd45e372	-0.048312612
98	0x3d15ad1e	0.03654205
99	0x3dc9db4b	0.0985628
100	0xbd91bea1	-0.07116438
101	0xbc1fb336	-0.009747317
102	0xbd934970	-0.071917415
103	0x3bba0932	0.0056773657
104	0xbdd14398	-0.102179706
105	0xbd5e2f17	-0.054244127
106	0xbc5186df	-0.012788503
107	0xbca68e69	-0.020331578
108	0xbc167808	-0.009183891
109	0xbdbbfb94	-0.09178844
110	0xbd9613da	-0.07328005
111	0xbd5b9a01	-0.053613666
112	0xbe17c63c	-0.14821714
113	0xbd659c43	-0.056057226
114	0x3e1462eb	0.14490859
115	0x3d2fd5ba	0.042928435
116	0x3c81edb6	0.01586042
117	0xbddad9d5	-0.106860794
118	0x3d141f71	0.036162797
119	0xbcb7eabf	-0.022450803
120	0x3d7edf2d	0.062224556
121	0xbcb193dc	-0.02167695
122	0x3c21b3cc	0.009869527
123	0xbde28808	-0.11061102
124	0xbcb41d31	-0.021986576
125	0x3ded5f5e	0.115904555
126	0xbd2a1c69	-0.041531
127	0x3d06270d	0.032752085
128	0x3cd542c0	0.026032805
129	0x3d0794bc	0.03310083
130	0xbe007f4e	-0.12548563
131	0xbdac0009	-0.08398444
132	0xbe260f3c	-0.16216749
133	0xbd03d588	-0.03218606
134	0x3ddf641b	0.109077655
135	0xbdc2f1f8	-0.09518808
136	0x3d7f3c53	0.06231339
137	0xbd44cffe	-0.04804992
138	0x3cbc2a7c	0.022969477
139	0x3dc094f4	0.094034106
140	0x3c9b207a	0.018936384
141	0xbd52f0d6	-0.05149921
142	0x3c593cae	0.013259096
143	0x3d80d829	0.06291229
144	0xbd8f49ba	-0.06996484
145	0xbcb2058a	-0.021731157
146	0x3d83edc6	0.06441836
147	0x3e07d573	0.13265018
148	0x3de244d2	0.11048283
149	0x3d56e8bc	0.052468047
150	0xbdad443d	-0.08460281
151	0x3e149752	0.14510849
152	0x3da9ae65	0.08285216
153	0x3d4928fd	0.049111355
154	0x3d2e388a	0.04253439
155	0x3e2ff492	0.1718314
156	0x3e14bf1c	0.14526027
157	0x3cc1c945	0.023655543
158	0xbc78ae0b	-0.015178214
159	0xbe104fa2	-0.14092878
160	0xbd8c268c	-0.0684329
161	0x3ca7da09	0.02048971
162	0xbdc205da	-0.09473772
163	0x3df5cab3	0.120015524
164	0x3d2232f0	0.03959936
165	0x3c5c833b	0.013459022
166	0xbd763c9d	-0.0601164
167	0x3c8d51e4	0.017250963
168	0xbcb65170	-0.02225563
169	0x3d067e99	0.032835577
170	0x3d533257	0.05156168
171	0xbde9d587	-0.1141768
172	0xbc66c7e4	-0.014085744
173	0x3b9b96a1	0.004748181
174	0x3ca68276	0.02032588
175	0x3c67d6b3	0.014150309
176	0xbde09ee4	-0.10967806
177	0xbdce25cd	-0.10065804
178	0x3b3fe057	0.0029278004
179	0x3db54645	0.088512935
180	0xbc32e411	-0.010918633
181	0x3d44f791	0.04808766
182	0xbb619b54	-0.0034424858
183	0xbd08ba7f	-0.03338098
184	0xbd743e69	-0.05962983
185	0xbdcdb3a2	-0.10044028
186	0xbdd87c25	-0.10570554
187	0xbde4ea28	-0.11177474
188	0x3d826979	0.063677736
189	0xbde1e470	-0.11029899
190	0xb8b07040	-8.413242e-05
191	0xbd701be0	-0.058620334
192	0x3dcd0402	0.1001053
193	0xbcb5f7c9	-0.02221288
194	0x3db8de0f	0.09026729
195	0x3c07e91f	0.0082953265
196	0xbce40443	-0.027834063
197	0xbddd8a84	-0.108174354
198	0x3d9582ad	0.07300315
199	0xbda0cdda	-0.07851763
200	0x3d480263	0.0488304
201	0x3dbd5f22	0.09246661
202	0xbc8b75d9	-0.017023968
203	0x3d4e3193	0.050340246
204	0xbcf4ff42	-0.029906873
205	0xbd756cbc	-0.05991815
206	0xbd6fbf7e	-0.05853223
207	0x3c438699	0.011933946
208	0x3d73f8a0	0.05956328
209	0x3d576910	0.05259043
210	0x3dc5fc8f	0.09667312
211	0x3d8d365a	0.06895132
212	0xbaba43dd	-0.0014210899
213	0xbd17714d	-0.036973286
214	0x3d589a2e	0.052881412
215	0xbd96ea17	-0.07368868
216	0xbdbf074c	-0.09327564
217	0x3ab029ae	0.0013440156
218	0x3db550e7	0.088533215
219	0xbc033826	-0.008008992
220	0xbddaa0bb	-0.10675188
221	0x3d411196	0.047135912
222	0xbc208b28	-0.009798802
223	0xbd9ccfd2	-0.07656826
224	0x3c53a1f8	0.012917034
225	0x3c937f0f	0.018004922
226	0x3d676dd5	0.05650123
227	0xbc81e3a5	-0.01585562
228	0x3bdf528a	0.0068152593
229	0x3e1c3dc2	0.15257934
230	0x3c814455	0.015779654
231	0x3d5e2599	0.054235075
232	0xbcf94282	-0.030427221
233	0x3dc70527	0.097177796
234	0xbc865ab2	-0.016400669
235	0x3be92cda	0.0071159424
236	0xbd03ba6e	-0.032160215
237	0xbda35856	-0.07975833
238	0xbc9382e9	-0.018006759
239	0xbdbad4b3	-0.091226004
240	0xbe096eb5	-0.13421138
241	0x3c668a67	0.014071084
242	0x3d9d7584	0.0768843
243	0x3c25e55e	0.010125486
244	0xbd88dbaa	-0.066825226
245	0xbccb9c1f	-0.024854718
246	0x3d7cadc0	0.06168914
247	0xba44ec8f	-0.00075120566
248	0xbd83e57a	-0.064402536
249	0xbd0edf2b	-0.0348808
250	0x3cdcbfb1	0.026946874
251	0xbe2db7d1	-0.16964652
252	0x3e0c5a8c	0.13706416
253	0x3c9863bc	0.018602245
254	0x3e000dc8	0.12505257
255	0x3d2e5a40	0.042566538

hidden_layers.6.bias f4 [116]
0	0xbd7d51c0	-0.06184554
1	0x3cbff7f8	0.02343367
2	0xbd06a541	-0.032872442
3	0xbd89ee7f	-0.06734943
4	0xbc3a6128	-0.011375703
5	0xbd9aeef2	-0.075651065
6	0xbda2a55d	-0.07941697
7	0x3d4b9c58	0.049709648
8	0xbd3980b7	-0.045288768
9	0x3d91e799	0.07124252
10	0x3d7bbd98	0.061460108
11	0xbe0a79f1	-0.1352308
12	0x3dbe9f9b	0.09307786
13	0xbd269f97	-0.04067954
14	0xbc25ad83	-0.010112169
15	0x3c1b9897	0.0094968295
16	0x3d77a533	0.06046028
17	0x3daa906e	0.08328329
18	0xbd990511	-0.074716695
19	0xbcac2a8e	-0.021016385
20	0xbd19dd6a	-0.037564673
21	0xbc582370	-0.013192043
22	0x3c818f7f	0.015815495
23	0x3d2da87e	0.042397015
24	0x3cd2cac3	0.02573145
25	0x3ab29ada	0.0013626472
26	0x3cbae62d	0.022814834
27	0x3b7d5c1b	0.0038659635
28	0xbdc245a5	-0.0948594
29	0xbc806281	-0.01567197
30	0x3d60068f	0.054693755
31	0xbca5b0e0	-0.020225942
32	0xbd89c320	-0.0672667
33	0x3c8bea7c	0.017079584
34	0xbd15a5f7	-0.03653523
35	0xbd2a2c7d	-0.041546334
36	0xbd81cc85	-0.06337837
37	0xbc41effa	-0.011837
38	0x3d9c80fb	0.076417886
39	0xbc129e23	-0.008948836
40	0x3d348cfc	0.044079766
41	0x3b664b5f	0.003514014
42	0xbd81b524	-0.06333378
43	0x3d553abb	0.052057963
44	0x3bb9c9a4	0.0056697894
45	0x3d9ebce4	0.07750872
46	0xbd437d38	-0.04772684
47	0x3dcf7225	0.10129193
48	0x3d3e7997	0.046502676
49	0xbcba9ec2	-0.02278078
50	0x3da70d99	0.081568904
51	0xbd2bf4bf	-0.041981455
52	0xbc8dbcc0	-0.017301917
53	0xbd4b0c88	-0.049572498
54	0x3dac037e	0.083991036
55	0xbdc0e3e4	-0.09418467
56	0x3d551334	0.052020267
57	0x3d68e24c	0.05685644
58	0x3d3a284d	0.04544859
59	0xbd1fd9b7	-0.03902599
60	0xbb720c42	-0.0036933576
61	0x3d6727c6	0.056434415
62	0xbd1032d1	-0.035204712
63	0x3ca5922a	0.020211298
64	0xbd82e328	-0.06390983
65	0xbca56699	-0.020190524
66	0x3d053dcc	0.032529637
67	0x3d98f535	0.074686445
68	0x3d4f381e	0.050590627
69	0xbaf68edc	-0.0018810886
70	0x3bf46b47	0.0074590775
71	0xbde4ba1b	-0.11168309
72	0x3cbb42a6	0.022858929
73	0x3c00253f	0.00782138
74	0x3d9d68eb	0.07686027
75	0xbc59c67c	-0.013291951
76	0xbd8e39e9	-0.06944639
77	0x3da17c8e	0.07885085
78	0x3d3df343	0.04637457
79	0xbd01284e	-0.03153258
80	0x3d5d0f0f	0.05396944
81	0x3d1f0ed3	0.038832497
82	0x3cb5f88a	0.02221324
83	0xbd8220c1	-0.063539036
84	0xbd15fc13	-0.03661735
85	0x3d92f794	0.07176128
86	0xbce1c444	-0.027559407
87	0x3d636da1	0.055524472
88	0xbd412549	-0.0471547
89	0xbd6c5647	-0.057699468
90	0xbd297e38	-0.041380137
91	0xbd08c363	-0.03338946
92	0xbd7eb910	-0.062188208
93	0x3d6d7581	0.05797339
94	0x3c479a03	0.012182715
95	0x3c45c32f	0.012070461
96	0x3a18fe0c	0.0005836196
97	0xbd1abaf3	-0.037775945
98	0xbd45b505	-0.048268337
99	0x3dbf295d	0.09334061
100	0x3c147756	0.009061655
101	0x3d287f4b	0.04113702
102	0x3c4b978f	0.012426271
103	0xbd82582b	-0.06364473
104	0x3d36cc7c	0.044628605
105	0xbb1728d2	-0.0023065102
106	0xbdd36163	-0.103213094
107	0xbd9b7e8e	-0.07592498
108	0x3d77507a	0.060379483
109	0xbd050ab2	-0.032480903
110	0x3d5c0c41	0.053722624
111	0xbc8047e9	-0.01565929
112	0x3ccce878	0.025013193
113	0xbc98bbc9	-0.01864423
114	0x3d07d139	0.033158515
115	0xbd9186c4	-0.07105783

output_layer.weight f4 [10, 116]
0	0xbddd65dc	-0.10810444
1	0x3e2488e5	0.16067846
2	0x3d3cb427	0.046070244
3	0x3cbbb27b	0.022912255
4	0xbd188fc0	-0.037246466
5	0xbdc9b9ff	-0.09849929
6	0xbda5b1f4	-0.080905825
7	0x3df11361	0.11771274
8	0x3e0d7a26	0.13816127
9	0x3dc6092d	0.09669719
10	0xbd9a7d57	-0.07543438
11	0x3e1c9250	0.15290189
12	0x3ce81bc9	0.028333561
13	0xbd0d7455	-0.03453477
14	0xbde25a20	-0.11052346
15	0x3d79f479	0.061024163
16	0x3d9c47fe	0.07630919
17	0x3de9fac2	0.114247814
18	0xbdb1ea24	-0.08687237
19	0xbde8f4f6	-0.113748476
20	0x3dd2ca84	0.10292533
21	0x3c3d9f71	0.011573658
22	0x3e062a97	0.13102184
23	0x3def7652	0.1169249
24	0xbe307bed	-0.17234774
25	0x3dc5a0de	0.096498236
26	0x3d99a17b	0.07501503
27	0xbe0bf638	-0.13668144
28	0xbde7036b	-0.11279949
29	0x3dceb96a	0.10093959
30	0x3d0566b4	0.03256865
31	0x3e277075	0.16351493
32	0xbd35f1fb	-0.044420224
33	0x3df70086	0.12060647
34	0x3e22cab0	0.15897632
35	0x3d2450cc	0.040116116
36	0xbde7ca94	-0.113179356
37	0x3dfbb5f5	0.12290565
38	0xbe00c524	-0.12575203
39	0x3e36b94b	0.17844121
40	0x3e06142a	0.1309363
41	0x3dca1d0f	0.09868824
42	0xbd4bb2d8	-0.049731106
43	0x3e028c80	0.12748909
44	0x3c052b48	0.008127995
45	0x3ca19b32	0.019727323
46	0x3b8c9aa3	0.004290895
47	0x3df645e7	0.120250516
48	0xbc76013a	-0.015014941
49	0x3d2c0833	0.042000007
50	0x3c287bbf	0.01028341
51	0xbdf69355	-0.1203982
52	0xbdd516b5	-0.10404722
53	0x3e1aebb9	0.15128984
54	0xbd54bf66	-0.051940344
55	0xbda5829a	-0.08081551
56	0x3de32262	0.110905424
57	0xbe183b49	-0.14866365
58	0x3dd8d664	0.10587767
59	0x3dfa0266	0.12207489
60	0xbd9db979	-0.07701392
61	0xbe1ec318	-0.1550411
62	0xbdaedc4d	-0.08538113
63	0xbe203752	-0.15646103
64	0xbe07f1e0	-0.13275862
65	0xbde2d5e7	-0.11075955
66	0x3e0895e9	0.13338436
67	0xbc1d4b79	-0.009600514
68	0xbe29af25	-0.16570719
69	0xbd8f7ae5	-0.07005862
70	0x3d727c82	0.05920077
71	0xbd0761bc	-0.03305219
72	0x3d42ad85	0.047528762
73	0x3e1e9baf	0.15489076
74	0xbd9ed284	-0.077549964
75	0xbdf2f0b8	-0.1186232
76	0xbdeaad1b	-0.114587985
77	0xbd209b88	-0.039210826
78	0xbd2a30e0	-0.041550517
79	0xbd1ae53a	-0.037816264
80	0x3de0e894	0.10981861
81	0x3e1a2399	0.15052642
82	0xbdc8bfa9	-0.09802181
83	0x3c40b689	0.01176227
84	0xbe0e5526	-0.13899669
85	0x3ddf8ed1	0.10915912
86	0xbe06ad87	-0.13152133
87	0xbe18625f	-0.14881276
88	0x3d6d20fb	0.05789278
89	0x3d9c6345	0.07636122
90	0xbe1b730c	-0.15180606
91	0xbcaff9b2	-0.021481369
92	0xbdd01b61	-0.10161472
93	0x3c6ea696	0.014566084
94	0xbe0a5995	-0.13510735
95	0x3e272da6	0.16326007
96	0x3d437b02	0.04772473
97	0x3e07dfe9	0.13269009
98	0x3d4c2b75	0.04984613
99	0xbe091b27	-0.13389264
100	0xbe053a2c	-0.13010472
101	0xbd183d12	-0.037167616
102	0x3dbe7d34	0.09301224
103	0xbdb3eb2b	-0.08785089
104	0x3da10c50	0.078636765
105	0xbdc8eb6f	-0.098105304
106	0x3da84620	0.082165
107	0xbe00ba60	-0.12571096
108	0xbe06bf21	-0.13158847
109	0x3dc6d2de	0.097081885
110	0x3d07abc7	0.033122804
111	0xbd8a449b	-0.06751367
112	0xbdf5c1b5	-0.11999837
113	0xbcbf47bd	-0.023349637
114	0x3e219973	0.15781192
115	0x3e0e1e04	0.13878638
116	0x3d883f58	0.06652707
117	0xbde0aae3	-0.10970094
118	0xbdc6d6e5	-0.09708957
119	0x3e158ca2	0.14604428
120	0x3e1b331d	0.15156217
121	0x3d9fa3fb	0.07794949
122	0xbe015b08	-0.12632382
123	0xbdc96059	-0.0983283
124	0xbe0404bd	-0.12892433
125	0xbdaf9f8b	-0.08575352
126	0x3de99eb1	0.11407221
127	0x3e3dfe7b	0.18554108
128	0x3dd12bf5	0.10213462
129	0xbdc29185	-0.09500412
130	0x3dd771d2	0.105197564
131	0xbe1df58a	-0.15425697
132	0x3dbd26aa	0.0923589
133	0xbdfb83f2	-0.12281026
134	0x3dbe8c0a	0.09304054
135	0x3dbbb157	0.09164684
136	0xbdbc200f	-0.09185802
137	0xbe0c5233	-0.13703232
138	0xbc8ed982	-0.0174377
139	0x3dcb4038	0.09924358
140	0xbe38b225	-0.18036707
141	0xbd675f15	-0.05648716
142	0xbd4f1d7c	-0.050565228
143	0x3e0a3c60	0.13499594
144	0xbdd59bcd	-0.10430107
145	0x3dce2ea5	0.100674905
146	0x3e11565f	0.14193104
147	0x3e1e64f3	0.15468197
148	0x3e1d8ebd	0.15386482
149	0x3d99e852	0.07515015
150	0xbd06be35	-0.03289624
151	0xbdd73692	-0.10508455
152	0xbd075e44	-0.033048883
153	0xbe07b501	-0.13252641
154	0xbc828ecf	-0.015937237
155	0x3c347f55	0.011016686
156	0x3dbc2ffc	0.0918884
157	0x3dea7eff	0.11450004
158	0x3e07899d	0.13236089
159	0xbe0c4d50	-0.13701367
160	0x3dd187db	0.102309905
161	0x3e1e0e00	0.15435028
162	0xbe185281	-0.14875223
163	0xbdc2fbb8	-0.09520668
164	0xbd7436ab	-0.059622448
165	0xbdda8f83	-0.10671904
166	0x3ddd1a77	0.107960634
167	0xbc14813e	-0.009064017
168	0xbe004fa9	-0.12530388
169	0xbd6b862a	-0.057500996
170	0x3e0e2221	0.13880207
171	0xbe02fe51	-0.12792327
172	0x3db66fe5	0.08908061
173	0x3db95d31	0.09050978
174	0x3da61cf7	0.08110993
175	0xbda20b17	-0.079122715
176	0xbd3f290e	-0.046670012
177	0x3da6b991	0.08140863
178	0xbd053a8a	-0.03252653
179	0x3d9bd589	0.07609088
180	0xbde0e26b	-0.10980686
181	0x3db9bea9	0.09069569
182	0xbdd5d75c	-0.10441467
183	0xbd350ebb	-0.0442035
184	0x3de05bd4	0.10955015
185	0xbc5e42a9	-0.013565698
186	0x3e0c54ef	0.13704275
187	0x3e0f643e	0.14003083
188	0xbc0ba9d7	-0.00852438
189	0xbd32037b	-0.04346035
190	0x3de75862	0.112961546
191	0xbe2de0a7	-0.1698023
192	0x3dd9e9bf	0.10640287
193	0xbd6b5f67	-0.05746403
194	0x3e096a6c	0.13419503
195	0xbcd753af	-0.02628502
196	0xbdd9e7cd	-0.106399156
197	0xbd2ad0d2	-0.041703053
198	0xbc428389	-0.011872181
199	0xbbaef9bc	-0.0053398293
200	0x3c069700	0.008214712
201	0xbc0f6b47	-0.008753604
202	0x3e2153fa	0.15754691
203	0x3e0aa66e	0.1354005
204	0x3dff30ea	0.124605015
205	0x3dfce92d	0.12349162
206	0x3db615ee	0.088909015
207	0xbd82b2d0	-0.06381762
208	0x3db307d2	0.08741726
209	0xbdca1299	-0.098668285
210	0x3dcec4a0	0.10096097
211	0x3cf17cac	0.029478393
212	0xbe111d43	-0.14171319
213	0xbd8e7e7b	-0.06957718
214	0xbe03b330	-0.12861323
215	0x3d522ceb	0.05131237
216	0x3dc15daf	0.09441697
217	0xbe14df80	-0.14538383
218	0xbdcbf57f	-0.09958934
219	0xbc8a683e	-0.01689541
220	0xbd436e79	-0.047712777
221	0xbe033767	-0.12814103
222	0xbde519ff	-0.11186599
223	0x3db3d495	0.08780781
224	0xbe02f1a0	-0.12787485
225	0x3deec88f	0.11659347
226	0xbd94f1d3	-0.07272687
227	0x3d1a8101	0.037720684
228	0x3d9186ad	0.071057655
229	0x3d94f4f0	0.072732806
230	0xbd9fa1fa	-0.077945665
231	0xbdc0fb63	-0.09422948
232	0xbe026eba	-0.12737551
233	0x3dc09e95	0.09405247
234	0xbdafcddf	-0.08584189
235	0x3e24281c	0.16030926
236	0x3da596cd	0.080854036
237	0xbd943e72	-0.07238473
238	0x3d9458e5	0.07243518
239	0xbd4315e9	-0.047628317
240	0xbe07ae25	-0.13250025
241	0xbe0e92dd	-0.13923211
242	0xbe1397f4	-0.14413434
243	0xbdfaa28d	-0.12238035
244	0xbe225df0	-0.15856147
245	0xbcba8d70	-0.02277252
246	0xbb97c1a4	-0.004631238
247	0x3df79212	0.120884076
248	0x3d88adb6	0.06673758
249	0x3d96fc9f	0.073724024
250	0xbd4ed5d3	-0.050496887
251	0xbdb99b6e	-0.09062849
252	0xbe1d7fc8	-0.15380776
253	0xbd49150e	-0.049092345
254	0xbdedcaba	-0.11610933
255	0xbc4c2052	-0.012458878

output_layer.bias f4 [10]
0	0x3cb94581	0.02261615
1	0x3d438f40	0.047744036
2	0x3cd7a89f	0.026325522
3	0x3d9d4686	0.07679467
4	0xbd65e35f	-0.05612504
5	0xbc577a08	-0.013151653
6	0x3d4f5a85	0.050623436
7	0xbc4c0073	-0.012451279
8	0xbbbdbb00	-0.0057901144
9	0xbc679cac	-0.014136475
